conv1lr_0.0001_model_weights.pth (torch, 134630 bytes, 14 tensors)

0.weight f4 [32, 1, 1, 3, 3]
0.03388481 -0.03375685 0.21501085 0.2568608 0.2228059 0.069392614 -0.16455847 -0.15476365
0.012495689 -0.15172493 -0.49304265 0.30816585 -0.06938645 0.1440235 0.34302595 0.0009940265
-0.3311133 0.15789488 -0.3536193 -0.02619934 -0.20545565 -0.06902366 0.23201051 0.3603094
-0.027082335 -0.0060868566 0.010695829 -0.103842475 -0.044001047 0.2613462 0.14904797 -0.20402047
-0.2239364 0.12223857 -0.019762069 -0.005770106 0.13752201 0.32990393 -0.42135137 0.25170988
0.11810774 -0.11237955 -0.27535844 0.34516153 -0.39969164 -0.13489422 0.0963375 -0.29693434
-0.24233234 0.31141078 0.121362194 -0.2128879 0.36093923 0.4390082 0.32975453 -0.15909903
-0.17602053 -0.025450533 0.3524849 -0.21973409 0.109512046 -0.2671268 0.05611336 0.3645726
0.18050794 -0.3949988 0.030591657 -0.21008548 -0.19863144 0.3245473 0.2445102 -0.26289803
-0.09596963 0.3055142 0.24882552 -0.23800199 0.00949453 -0.22375368 -0.023004575 -0.039068922
-0.09782755 0.32602906 0.12627074 0.2511951 0.06596536 0.213386 0.20768529 0.24777356
0.4861812 0.18770029 -0.18419228 -0.29502627 0.07097171 -0.12304207 -0.23440695 -0.22713353
0.14692427 0.18093811 -0.28300497 0.15035583 -0.32738698 0.18131435 0.28130567 -0.12403498
-0.2021475 -0.008954286 0.24835947 -0.099320866 0.17329821 0.3072318 0.33447033 -0.15346538
-0.35525778 0.1011958 0.1194146 -0.36034736 -0.089151576 -0.103662685 0.38818985 -0.087028615
-0.058788765 0.38465568 -0.24642467 -0.3200512 -0.22278129 0.31867397 -0.18866488 -0.014270848
0.11567571 -0.25522465 0.09625959 -0.24715376 0.24908015 -0.16729876 0.042091526 -0.052174967
0.16861919 -0.3695056 0.35298976 0.25998858 -0.43226913 0.12787795 0.0045705456 -0.11476747
-0.1716127 -0.08548453 -0.13753808 -0.21356127 -0.10626805 0.030237766 0.3283847 -0.29007232
-0.019517612 0.3963283 -0.21078387 -0.05934527 -0.11009301 -0.26814657 0.19523658 -0.28487548
0.1862709 0.19919138 -0.3539137 -0.03104021 0.15092976 0.13417222 0.25548914 0.2585111
0.23375487 -0.31225902 -0.2593766 0.056218885 0.061043113 -0.17627762 -0.0023684464 0.07208957
-0.2585865 0.34280944 -0.071082935 0.11482514 -0.24680018 -0.28084165 -0.21574274 0.21703126
0.18065378 0.14830521 0.31319997 0.11486164 -0.19719252 0.30523694 -0.1322525 -0.28627285
-0.18090071 0.08113015 0.120896116 0.21635467 0.15616275 -0.23171377 0.25697142 0.254385
-0.45749587 0.29171503 0.31162313 -0.01761048 -0.18797691 -0.22086965 -0.19869627 0.100705355
0.31771523 -0.14191544 -0.31472647 0.032107964 -0.23330519 0.35473725 0.3944121 -0.35688174
0.06883503 0.1591367 -0.09430459 0.28880915 0.035288427 0.20638178 -0.27015126 -0.12238909
-0.084512606 0.35905102 -0.30493656 -0.1576521 -0.3238521 -0.1432524 0.40910122 -0.116750546
0.19960916 0.24347892 0.25455806 0.059785955 0.25372693 0.2536973 0.17671908 0.4515735
0.07235671 0.5416154 0.4009572 0.09308117 0.19551636 0.4227207 -0.124606006 0.19895826
0.26946047 0.41339353 0.39906892 0.25568965 -0.16703238 -0.18509404 -0.1382524 0.27225477
00000000: ccca 0a3d 9f44 0abd ce2b 5c3e 4283 833e
00000010: 3b27 643e b71d 8e3d 0482 28be 5d7a 1ebe
00000020: b8ba 4c3c c85d 1bbe 1670 fcbe eac7 9d3e
00000030: 7c1a 8ebd e57a 133e 19a1 af3e ff49 823a
00000040: af87 a9be 32af 213e 970d b5be 00a0 d6bc
00000050: f762 52be 475c 8dbd 2a94 6d3e 797a b83e
00000060: c6db ddbc 4174 c7bb 8f3d 2f3c 5dab d4bd
00000070: 713a 34bd 2bcf 853e 08a0 183e beea 50be
00000080: 954f 65be 3758 fa3d 10e4 a1bc 2813 bdbb
00000090: 92d2 0c3e 2be9 a83e 5ebb d7be 1ee0 803e
000000a0: 79e2 f13d 4027 e6bd c8fb 8cbe 03b9 b03e
000000b0: 62a4 ccbe b621 0abe 984c c53d c707 98be
000000c0: f825 78be 3c71 9f3e be8c f83d 49ff 59be
000000d0: 07cd b83e afc5 e03e 96d5 a83e dbea 22be
000000e0: ba3e 34be a37d d0bc e778 b43e f901 61be
000000f0: da47 e03d d8c4 88be 1fd7 653d 43a9 ba3e
00000100: 13d7 383e 483d cabe 5b9b fa3c a620 57be
00000110: 0a66 4bbe 102b a63e e260 7a3e 929a 86be
00000120: ba8b c4bd 5b6c 9c3e 1ecc 7e3e cbb6 73be
00000130: f28e 1b3c af1f 65be 1774 bcbc bc06 20bd
00000140: cf59 c8bd 48ed a63e 1e4d 013e a59c 803e
00000150: d918 873d dc81 5a3e 74ab 543e 5ab8 7d3e
00000160: beec f83e 8134 403e e79c 3cbe af0d 97be
00000170: 9e59 913d 7bfd fbbd 6008 70be b195 68be
00000180: 5173 163e d747 393e 07e6 90be e1f6 193e
00000190: 449f a7be 78aa 393e 4c07 903e 0d06 febd
000001a0: c1ff 4ebe ffb4 12bc f251 7e3e bd68 cbbd
000001b0: 1675 313e 7d4d 9d3e b23f ab3e 0726 1dbe
000001c0: 59e4 b5be be3f cf3d a48f f43d 737f b8be
000001d0: 1a95 b6bd 1a4d d4bd d2c0 c63e 0f3c b2bd
000001e0: 7dcc 70bd 97f1 c43e c056 7cbe c0dd a3be
000001f0: c720 64be 3c29 a33e 5e31 41be 46d0 69bc
00000200: 63e7 ec3d ceac 82be bf23 c53d e015 7dbe
00000210: de0e 7f3e 5e50 2bbe 2a68 2c3d 6bb5 55bd
00000220: 82aa 2c3e d72f bdbe 13bb b43e 391d 853e
00000230: 6152 ddbe 70f2 023e 84c4 953b 350b ebbd
00000240: 3dbb 2fbe 8312 afbd c8d6 0cbe ceaf 5abe
00000250: 10a3 d9bd 31b5 f73c 0a22 a83e 5c84 94be
00000260: 66e3 9fbc 8beb ca3e bad7 57be 0714 73bd
00000270: 7278 e1bd 824a 89be 19ec 473e 33db 91be
00000280: ccbd 3e3e d3f8 4b3e 2d34 b5be 0a48 febc
00000290: 558d 1a3e 7164 093e 79cf 823e 915b 843e
000002a0: 705d 6f3e 6ae0 9fbe 02cd 84be c645 663d
000002b0: 5808 7a3d 1f82 34be f037 1bbb b2a3 933d
000002c0: 7365 84be b884 af3e ee93 91bd 7129 eb3d
000002d0: 30b9 7cbe 7aca 8fbe aaeb 5cbe 713d 5e3e
000002e0: 4efd 383e 52dd 173e bf5b a03e 943c eb3d
000002f0: d6ec 49be 0448 9c3e 336d 07be 5b92 92be
00000300: 093e 39be 9027 a63d 6298 f73d 148c 5d3e
00000310: 21e9 1f3e 6046 6dbe c291 833e c03e 823e
00000320: e63c eabe ac5b 953e 118d 9f3e da43 90bc
00000330: 057d 40be a72b 62be 0977 4bbe 9c3e ce3d
00000340: 92ab a23e 4852 11be d423 a1be a483 033d
00000350: 8ee7 6ebe 1fa0 b53e 62f0 c93e 34b9 b6be
00000360: 61f9 8c3d bbf4 223e c422 c1bd cbde 933e
00000370: 998a 103d bf55 533e 4451 8abe 22a7 fabd
00000380: f214 adbd 89d5 b73e a520 9cbe 8d6f 21be
00000390: f1cf a5be c2b0 12be b775 d13e e91a efbd
000003a0: 5866 4c3e 8a52 793e 6f55 823e 1ee2 743d
000003b0: 7fe8 813e 9de4 813e d9f5 343e a434 e73e
000003c0: c12f 943d 4fa7 0a3f 434a cd3e 57a1 be3d
000003d0: 7135 483e d96e d83e 6f31 ffbd b7bb 4b3e
000003e0: b9f6 893e 51a8 d33e c352 cc3e c1e9 823e
000003f0: 890a 2bbe 4b89 3dbe 0a92 0dbe fa64 8b3e

0.bias f4 [32]
-0.1068694 -0.16245744 -0.1312283 0.06962125 -0.2590143 0.14828886 -8.1908e-05 -0.09151104
-0.21087696 0.10496942 -0.1623767 0.09012737 -0.1969618 -0.17067863 0.12697421 -0.21138822
-0.37605363 -0.11233726 -0.024461063 -0.056043588 -0.007416351 0.045815796 -0.29975086 -0.1404127
-0.24816224 -0.064780585 0.15300553 0.23322831 0.07080887 -0.12842397 0.065449476 -0.13578169
00000000: 58de dabd 3e5b 26be b660 06be 9695 8e3d
00000010: 869d 84be 09d9 173e 06c6 abb8 246a bbbd
00000020: 21f0 57be 35fa d63d 1446 26be b394 b83d
00000030: 5bb0 49be 61c6 2ebe 8705 023e 2776 58be
00000040: 1a8a c0be 1411 e6bd 9162 c8bc f68d 65bd
00000050: dd04 f3bb 58a9 3b3d f278 99be 59c8 0fbe
00000060: 3e1e 7ebe afab 84bd 7bad 1c3e 67d3 6e3e
00000070: 3e04 913d 9381 03be 600a 863d 5b0a 0bbe

3.weight f4 [32, 32, 1, 2, 2]
-0.08192757 0.0068904865 0.038953144 -0.0038855472 0.0055827014 -0.07154124 -0.14064394 0.02373585
-0.10504703 -0.041456457 0.032156914 0.0034340473 -0.047748398 -0.066266775 -0.101958014 -0.018995922
-0.081839226 -0.12799057 0.05258706 -0.09719007 -0.05082232 -0.12207142 -0.06465291 -0.13083574
-0.07019213 0.035609115 -0.11734846 -0.04007303 0.006114086 -0.08535128 -0.113897346 -0.015815048
-0.050850105 0.009433364 -0.10164619 -0.0069071786 -0.064731546 -0.06538804 -0.032610193 -0.017093245
-0.09027541 -0.08702981 -0.16789497 0.019814447 -0.09130021 -0.018103344 -0.057171747 -0.117474586
-0.018046744 -0.0053768144 -0.09447746 -0.03957112 -0.010483418 -0.038751278 -0.0027174938 -0.07830309
-0.17280036 -0.05688781 -0.1128339 -0.09196484 0.00039632243 -0.0980762 -0.09163344 0.038615286
-0.0862793 -0.016170466 -0.0650169 -0.06282599 -0.029571038 -0.13817765 0.07406146 -0.08706388
-0.054280147 -0.1565231 -0.16823088 -0.036064524 0.036274865 0.0051860353 -0.109030254 -0.075171135
-0.06248412 -0.037315644 -0.091627866 -0.006202406 -0.03457879 -0.034948714 -0.09141281 -0.017758023
-0.010889897 -0.09867627 -0.042139724 -0.09087323 0.041463517 -0.025510864 -0.038096685 -0.07280869
0.025695823 -0.09929769 -0.10295024 -0.019891357 0.0102622295 -0.00048926985 0.06909229 0.13325045
-0.042497538 -0.1089845 -0.08083628 -0.06146694 -0.07523579 -0.003305041 0.03682007 -0.10792261
0.031804994 -0.042256333 -0.137949 -0.1491683 -0.07222315 -0.0015578207 -0.05879 0.045042362
-0.108684376 -0.026434848 -0.030664723 -0.13541971 0.004547104 -0.10531523 0.01581356 -0.04365863
-0.05418943 -0.10351581 -0.0648449 -0.13390206 -0.03619039 0.07517019 0.055165526 0.085073575
0.23456356 0.028789736 0.07306148 0.04217945 -0.022979353 -0.042796854 -0.09118917 0.09719447
-0.03143255 0.114626296 -0.070212245 0.2574621 -0.01614395 -0.14167193 -0.091690734 -0.046830956
-0.10233071 0.056095783 -0.14252886 0.098260686 -0.09030639 0.13380888 -0.09623735 0.20760594
0.036897507 -0.030189086 -0.011509617 0.03677838 -0.074701436 -0.07871619 -0.094871804 -0.17732264
0.10100312 0.058539715 -0.0023837364 -0.022911323 -0.013241139 0.02925418 -0.044336297 0.12197607
0.017713772 0.045769844 0.015204759 0.06917863 0.13507211 0.19951136 0.030826978 0.11807182
0.0823982 -0.030549463 0.016514173 -0.06558872 -0.11694562 0.21320753 -0.17731135 0.14553387
0.027938088 0.10261692 0.037477173 0.092419446 0.18596451 -0.09086593 -0.082641385 0.076733306
-0.009024757 0.006193035 -0.008668253 -0.07188839 0.048932377 0.048913643 0.006129337 0.036556486
0.04541644 0.08180521 0.004187025 0.08437829 -0.13081233 0.03234501 0.044973187 0.15744396
-0.013335846 0.056960925 0.050667115 0.21379893 0.042440377 0.028631087 -0.09973897 0.08310715
0.05758316 -0.059154354 0.018748851 0.09366175 0.19237913 -0.023478704 -0.1682246 0.033893153
-0.035419017 -0.18759637 -0.16266982 -0.1672101 -0.15688354 -0.17033142 -0.029479858 -0.16837557
0.053487554 0.11564024 -0.044098757 0.044528514 0.16674578 0.20586212 -0.07135794 0.21615581
0.11287295 -0.048584174 -0.08113713 -0.122816384 0.073396064 0.16872779 -0.09341955 0.03191156
00000000: a4c9 a7bd 97c9 e13b 558d 1f3d aaa4 7ebb
00000010: 18ef b63b 3784 92bd f704 10be af71 c23c
00000020: e622 d7bd 3fce 29bd f8b6 033d c10d 613b
00000030: d393 43bd e0b6 87bd 5dcf d0bd 569d 9bbc
00000040: 539b a7bd f60f 03be 8765 573d 960b c7bd
00000050: 112b 50bd 9500 fabd bf68 84bd cef9 05be
00000060: e4c0 8fbd ddda 113d 6454 f0bd 9e23 24bd
00000070: ac58 c83b a7cc aebd 0343 e9bd 8f8e 81bc
00000080: 3348 50bd 658e 1a3c e12b d0bd 9d55 e2bb
00000090: f991 84bd 2aea 85bd 4492 05bd 2207 8cbc
000000a0: 50e2 b8bd af3c b2bd a9ec 2bbe e851 a23c
000000b0: 9bfb babd 774d 94bc ec2c 6abd 8496 f0bd
000000c0: c4d6 93bc fd2f b0bb 667d c1bd 5415 22bd
000000d0: a4c2 2bbc a9b9 1ebd fb17 32bb 5f5d a0bd
000000e0: 94f2 30be 3103 69bd 7615 e7bd 1058 bcbd
000000f0: 7fc9 cf39 2ddc c8bd 50aa bbbd 102b 1e3d
00000100: 34b3 b0bd ed77 84bc 9527 85bd eaaa 80bd
00000110: f63e f2bc 717e 0dbe 89ad 973d 8c4e b2bd
00000120: dc54 5ebd 9747 20be b744 2cbe 65b8 13bd
00000130: f494 143d 9eef a93b 414b dfbd 53f3 99bd
00000140: 59ef 7fbd 4ad8 18bd 64a7 bbbd 8d3d cbbb
00000150: 7da2 0dbd 6226 0fbd a436 bbbd 4679 91bc
00000160: 8a6b 32bc c916 cabd b49a 2cbd be1b babd
00000170: a6d5 293d 29fc d0bc 450b 1cbd b91c 95bd
00000180: 0c80 d23c 965c cbbd 93d7 d2bd 33f3 a2bc
00000190: e922 283c 5842 00ba 4280 8d3d ce72 083e
000001a0: e611 2ebd 4433 dfbd 7e8d a5bd c2c4 7bbd
000001b0: 3915 9abd 6399 58bb a4d0 163d 8806 ddbd
000001c0: f445 023d fa14 2dbd 8142 0dbe 93bf 18be
000001d0: bbe9 93bd ca2f ccba c8cd 70bd 577e 383d
000001e0: ea95 debd e58d d8bc 9634 fbbc 77ab 0abe
000001f0: dfff 943b 83af d7bd 708b 813c 64d3 32bd
00000200: bcf5 5dbd 1900 d4bd 67cd 84bd 9f1d 09be
00000210: 603c 14bd d4f2 993d 3ff5 613d 0e3b ae3d
00000220: 6e31 703e 74d8 eb3c 42a1 953d 5cc4 2c3d
00000230: 323f bcbc c14b 2fbd 63c1 babd e50d c73d
00000240: 6bbf 00bd 31c1 ea3d 70cb 8fbd 13d2 833e
00000250: 5140 84bc 7212 11be 5ac8 bbbd d1d1 3fbd
00000260: c392 d1bd b1c4 653d 16f3 11be e63c c93d
00000270: 8ef2 b8bd 3205 093e 1618 c5bd a796 543e
00000280: d721 173d 1a4f f7bc d592 3cbc eda4 163d
00000290: 11fd 98bd f435 a1bd 264c c2bd 1194 35be
000002a0: b9da ce3d 57c7 6f3d 7638 1cbb 87b0 bbbc
000002b0: 5df1 58bc 76a6 ef3c fa99 35bd 97ce f93d
000002c0: 791c 913c 2979 3b3d 621d 793c 87ad 8d3d
000002d0: 5850 0a3e b54c 4c3e dc88 fc3c a3cf f13d
000002e0: 63c0 a83d de42 fabc bb48 873c 6153 86bd
000002f0: 2f81 efbd 1353 5a3e 1b91 35be d506 153e
00000300: 6bde e43c d228 d23d aa81 193d 6846 bd3d
00000310: 7b6d 3e3e eb17 babd e33f a9bd 5a26 9d3d
00000320: 93dc 13bc f1ee ca3b 4a05 0ebc 383a 93bd
00000330: 516d 483d ac59 483d 9bd8 c83b 41bc 153d
00000340: 9706 3a3d 7d89 a73d 5033 893b 86ce ac3d
00000350: abf3 05be 347c 043d ce35 383d fd38 213e
00000360: 987e 5abc dc4f 693d 5288 4f3d 1bee 5a3e
00000370: f6d5 2d3d be8b ea3c f243 ccbd 1534 aa3d
00000380: 52dc 6b3d d64b 72bd 3197 993c bbd1 bf3d
00000390: 09ff 443e 6956 c0bc 1243 2cbe 8cd3 0a3d
000003a0: 8813 11bd 4319 40be eb92 26be 2039 2bbe
000003b0: 14a6 20be 5c6b 2ebe be7f f1bc a56a 2cbe
000003c0: c415 5b3d cad4 ec3d e6a0 34bd 8863 363d
000003d0: 68bf 2a3e 85cd 523e 1d24 92bd f357 5d3e
000003e0: ef29 e73d 3300 47bd 392b a6bd 2887 fbbd
000003f0: ad50 963d fac6 2c3e c052 bfbd b2b5 023d

3.bias f4 [32]
-0.043043092 -0.097303174 -0.01809756 -0.018784605 -0.020632237 -0.026154054 0.012599218 -0.042349864
-0.25614023 -0.14677723 -0.12335029 -0.014942032 -0.040961575 -0.1673891 -0.060413517 -0.104354866
-0.13463925 -0.14006546 -0.047606926 -0.06825354 -0.119884804 -0.07231053 -0.04721867 -0.02588128
0.007639191 -0.10709512 -0.1200854 -0.09061922 -0.007330947 -0.15532534 -0.1323277 -0.039349187
00000000: f44d 30bd e346 c7bd 5641 94bc 2ce2 99bc
00000010: f004 a9bc 0741 d6bc f36c 4e3c 0d77 2dbd
00000020: d024 83be c54c 16be 149f fcbd 6dcf 74bc
00000030: 53c7 27bd 0c68 2bbe 2a74 77bd 01b8 d5bd
00000040: dfde 09be 526d 0fbe 7bff 42bd 83c8 8bbd
00000050: 2a86 f5bd 8b17 94bd 5d68 41bd fa04 d4bc
00000060: 2e52 fa3b b054 dbbd 56ef f5bd 9296 b9bd
00000070: 7138 f0bb 9b0d 1fbe ea80 07be 9d2c 21bd

6.weight f4 [32, 32, 1, 2, 2]
-0.114781216 0.08103281 -0.019083144 -0.063957654 0.069037594 0.0862942 0.07228729 0.08303685
0.034616746 0.016420897 -0.1278761 -0.0012542794 0.24734683 0.04930158 0.18584716 0.1874597
0.13114852 -0.008795654 0.028506009 0.014184147 0.14435251 0.08860362 0.022146845 0.02064299
0.067686945 0.024041764 0.070213884 0.14301111 0.056296032 0.06570468 0.14896376 0.13576695
0.16042237 0.12920487 0.022230504 0.33009094 0.061225254 0.034414016 0.02180519 -0.09988717
0.03819467 0.084087804 0.1408609 0.119489826 0.09343054 -0.022343962 0.12509453 0.0058725025
-0.03988212 0.058835547 0.030766726 0.075738676 0.0002474633 0.050330102 -0.060108233 0.078977115
0.08610301 0.016382266 -0.028745456 0.084414825 0.18401246 -0.03146866 0.03536403 0.034635443
0.037712168 0.033557467 0.0002483343 0.0579045 0.20499372 0.073649295 0.10220274 -0.038077842
-8.178275e-05 0.16944124 0.12116074 0.10300124 0.06930274 0.052238192 0.119370095 0.083140366
0.20641091 -0.06943678 0.009568528 -0.02546013 0.03573125 0.10238727 0.031420644 -0.010566636
0.15286303 0.04597086 0.05065955 0.09199369 0.06569083 0.11762412 0.1686374 -0.031346895
0.008049302 0.05762294 -0.12999222 -0.01143008 0.07192249 0.014951134 0.10222538 0.017268423
0.021799697 0.024928933 0.16929977 0.12344206 0.0060575376 0.051254325 0.08826986 0.13351294
0.13348149 0.08262845 0.09178706 -0.054830182 0.3605722 0.2379155 0.13126765 0.15171999
0.1263217 0.078493625 0.0769457 0.083007194 0.0868237 0.0016070318 0.0106123015 0.02069682
0.07237208 -0.07100095 0.022605801 -0.007955054 -0.038265646 -0.05333587 -0.0066287965 -0.011575129
0.0023259802 -0.10818945 -0.07204624 -0.12620784 0.0069901575 -0.0020223227 0.029115066 -0.12909186
-0.1116151 -0.10091914 -0.0038193716 -0.05339743 0.022064388 -0.16965108 0.022874985 -0.053936623
-0.028180797 0.11055366 -0.14037031 0.009334944 0.020572968 -0.06387975 0.021347709 0.0156224305
-0.05107269 -0.06579752 -0.09666997 -0.12107762 -0.1170016 -0.009075191 -0.026585506 -0.015163407
-0.105931304 -0.05366043 -0.10694623 -0.14067334 0.013724679 -0.108769126 -0.07076379 0.0035708891
-0.04531499 -0.06474207 -0.024563894 -0.1590353 -0.08209755 -0.08194343 -0.12033647 -0.1431496
-0.014643024 -0.15561765 -0.12635721 0.025910871 -0.15989871 0.005349002 -0.14366174 -0.11396618
-0.1257952 -0.061256643 -0.06402054 -0.08936103 -0.102532215 -0.049964815 -0.15421721 -0.050098967
-0.033198744 -0.06870657 -0.029325642 -0.13306391 -0.014801478 -0.11589729 0.027331892 -0.020772658
-0.117431335 -0.07099788 -0.115423016 -0.10564711 -0.043180346 -0.07884014 -0.07509303 -0.053523697
-0.015471614 0.004112897 0.0053384956 -0.056796994 -0.13904251 -0.0039471863 -0.11946468 -0.0050275046
-0.05152661 -0.079519056 -0.022395363 0.062102053 -0.03004311 -0.09307872 0.002478266 -0.0031361522
-0.08824062 -0.108532764 -0.1513803 -0.11049877 -0.07037575 -0.13585225 -0.02977918 0.01709357
-0.039978333 -0.061175134 -0.11322101 -0.028256528 -0.12856458 0.009084935 -0.14781016 -0.1113195
-0.007724044 0.00012205318 -0.0041350457 -0.034504723 -0.10697558 -0.034001876 -0.057302967 -0.08382253
00000000: 6a12 ebbd 88f4 a53d 4154 9cbc 3bfc 82bd
00000010: 9563 8d3d 03bb b03d 5c0b 943d 390f aa3d
00000020: 4aca 0d3d 1e85 863c f4f1 02be a266 a4ba
00000030: 7d48 7d3e 74f0 493d b84e 3e3e 70f5 3f3e
00000040: cc4b 063e a61b 10bc 6f85 e93c a064 683c
00000050: 25d1 133e d175 b53d 4d6d b53c 7d1b a93c
00000060: 749f 8a3d 3cf3 c43c 4ccc 8f3d 8171 123e
00000070: ab96 663d 2d90 863d f589 183e 7e06 0b3e
00000080: c345 243e 484e 043e bf1c b63c ae01 a93e
00000090: 55c7 7a3d b6f5 0c3d cca0 b23c a591 ccbd
000000a0: 0472 1c3d 3a36 ac3d d73d 103e 15b7 f43d
000000b0: 8358 bf3d af0a b7bc c818 003e 1f6e c03b
000000c0: 6f5b 23bd 8bfd 703d 800a fc3c e11c 9b3d
000000d0: f6bd 8139 f026 4e3d 0d34 76bd c1be a13d
000000e0: c656 b03d 1a34 863c 977b ebbc aee1 ac3d
000000f0: c36d 3c3e 48e5 00bd e0d9 103d e5dd 0d3d
00000100: 1378 1a3d 8e73 093d de32 8239 452d 6d3d
00000110: e0e9 513e 71d5 963d ac4f d13d 83f7 1bbd
00000120: c882 abb8 0182 2d3e 1f23 f83d 50f2 d23d
00000130: 98ee 8d3d b7f7 553d 4f78 f43d 7f45 aa3d
00000140: 625d 533e df34 8ebd 51c5 1c3c c391 d0bc
00000150: ee5a 123d 6bb0 d13d efb2 003d af1f 2dbc
00000160: 2088 1c3e f14b 3c3d 6380 4f3d 3067 bc3d
00000170: ea88 863d eae4 f03d 48af 2c3e 9a65 00bd
00000180: 38e1 033c 0806 6c3d ae1c 05be 3b45 3bbc
00000190: 194c 933d 9af5 743c 8a5b d13d 8276 8d3c
000001a0: 4795 b23c c337 cc3c eb5c 2d3e 31cf fc3d
000001b0: 4f7e c63b 0ef0 513d d4c6 b43d 9eb7 083e
000001c0: 5faf 083e 1b39 a93d dbfa bb3d 9d95 60bd
000001d0: eb9c b83e 1fa0 733e 076b 063e 7c5c 1b3e
000001e0: 7a5a 013e 44c1 a03d b595 9d3d adff a93d
000001f0: a0d0 b13d 0aa3 d23a 38df 2d3c 618c a93c
00000200: d037 943d f268 91bd cd2f b93c ea55 02bc
00000210: 70bc 1cbd b776 5abd 6036 d9bb 9ca5 3dbc
00000220: 796f 183b 6e92 ddbd fb8c 93bd a13c 01be
00000230: b10d e53b f288 04bb b882 ee3c a830 04be
00000240: 7596 e4bd b2ae cebd 6c4e 7abb 43b7 5abd
00000250: 60c0 b43c 03b9 2dbe 5264 bb3c a6ec 5cbd
00000260: 6adb e6bc f569 e23d 3cbd 0fbe 98f1 183c
00000270: a488 a83c 63d3 82bd 64e1 ae3c 39f5 7f3c
00000280: 9931 51bd dac0 86bd e8fa c5bd 8bf7 f7bd
00000290: 899e efbd 1cb0 14bc d9c9 d9bc f06f 78bc
000002a0: 83f2 d8bd 0acb 5bbd a006 dbbd ac0c 10be
000002b0: 7add 603c 59c2 debd 9bec 90bd 9405 6a3b
000002c0: 369c 39bd 7e97 84bd 383a c9bc 26da 22be
000002d0: c322 a8bd f5d1 a7bd f872 f6bd cf95 12be
000002e0: 4be9 6fbc 3c5a 1fbe c963 01be 0943 d43c
000002f0: 7dbc 23be ae46 af3b 101c 13be 1a67 e9bd
00000300: 75d0 00be 3fe8 7abd 331d 83bd ea02 b7bd
00000310: 69fc d1bd e8a7 4cbd 1eeb 1dbe 9334 4dbd
00000320: 68fb 07bd 08b6 8cbd 543c f0bc e841 08be
00000330: e681 72bc 8f5b edbd 22e7 df3c 6c2b aabc
00000340: d77f f0bd 5667 91bd e762 ecbd 835d d8bd
00000350: e0dd 30bd f076 a1bd 60ca 99bd aa3b 5bbd
00000360: a77c 7dbc 7bc5 863b 8cee ae3b f7a3 68bd
00000370: 2961 0ebe 6657 81bb e6a9 f4bd c4bd a4bb
00000380: 910d 53bd e3da a2bd 7b76 b7bc b95e 7e3d
00000390: f81c f6bc 0ea0 bebd 676a 223b e787 4dbb
000003a0: 80b7 b4bd 6d46 debd 7003 1bbe 2e4d e2bd
000003b0: 2921 90bd da1c 0bbe 78f3 f3bc d107 8c3c
000003c0: 52c0 23bd c792 7abd 6be0 e7bd 3c7a e7bc
000003d0: 6fa6 03be fbd8 143c 8c5b 17be 7afb e3bd
000003e0: fa19 fdbb cdf6 ff38 477f 87bb d354 0dbd
000003f0: 0316 dbbd 8d45 0bbd 84b6 6abd 26ab abbd

6.bias f4 [32]
-0.20434536 -0.10411636 -0.16415861 0.07164763 -0.21765389 -0.16751552 -0.17260371 -0.101618744
-0.049476884 -0.25022906 -0.04252299 -0.096670516 -0.057301372 -0.012227065 -0.107430965 -0.20467667
-0.11415577 -0.13239658 0.19106457 -0.018611392 -0.16921505 -0.123537034 -0.117124766 0.055414114
-0.10038397 -0.07612447 -0.09685627 -0.06737947 -0.1722304 -0.027545325 -0.11494211 -0.06628677
00000000: e93f 51be f53a d5bd 3219 28be febb 923d
00000010: a9e0 5ebe 3089 2bbe 07bf 30be 7d1d d0bd
00000020: 46a8 4abd 061e 80be 962c 2ebd 31fb c5bd
00000030: d8b4 6abd 0754 48bc c404 dcbd c396 51be
00000040: 80ca e9bd f892 07be 6ea6 433e eb76 98bc
00000050: b646 2dbe fc00 fdbd 1cdf efbd e9f9 623d
00000060: 1c96 cdbd 25e7 9bbd 955c c6bd 3ffe 89bd
00000070: 2a5d 30be bca6 e1bc c566 ebbd 5cc1 87bd

9.weight f4 [32, 32, 1, 2, 2]
0.088673815 0.14578927 0.19323815 -0.11376418 -0.02265821 0.09190733 0.030627484 0.0797718
0.091925025 -0.040648278 -0.0316485 0.013029503 -0.0031914613 0.11343587 0.06353487 -0.06494277
0.17401318 -0.013979841 0.12461889 -0.13772713 0.03302902 0.012113023 0.16998667 -0.14310524
0.14380504 0.087739915 0.16803253 -0.15390652 0.028447647 0.03765616 0.16876885 -0.07735196
-0.083283745 -0.03967189 -0.035895262 0.057125587 -0.006875548 0.09435632 0.15174244 -0.1446982
-0.10014842 -0.0633106 0.0024210925 -0.035192803 0.13920294 0.19026554 0.037775062 0.12700307
0.060189195 -0.1107774 0.13133055 -0.028014433 -0.1272588 -0.10730584 -0.03011132 0.008485312
0.114890836 -0.02218323 0.14870918 -0.006523102 0.12637353 0.10656913 0.20840389 -0.0006950896
-0.0024566022 0.14952551 0.12591907 0.10422365 0.13737461 -0.021907663 -0.021975666 0.1067844
0.0072453353 0.101895876 -0.015427191 0.006945769 -0.0058122114 0.019117786 0.06736644 -0.16752094
0.10282236 0.17283861 -0.013922481 -0.009084338 0.16837163 -0.07197421 0.06209364 -0.067166574
0.131482 0.14097115 0.13568684 0.002460249 0.028217182 0.04212167 -0.118635245 -0.16095938
-0.05697682 0.11249975 -0.023349175 -0.047249336 0.16698955 -0.033725705 0.14302558 -0.31079903
-0.11470517 -0.12973452 -0.0984289 0.13288051 -0.016200848 -0.084287874 0.13828188 -0.12336301
0.2613639 0.21953419 -0.01556693 -0.044329662 -0.06614117 0.111727715 0.13563724 -0.19034941
0.08105619 0.14153087 0.13643873 0.058009002 0.053549092 0.07221251 -0.022096878 0.06686651
-0.08603893 -0.09177305 -0.0009845161 -0.0056864037 0.026645323 0.069708735 0.09774582 -0.0026402434
0.05681965 0.07646131 -0.022494175 0.026588691 -0.06473755 -0.22052066 -0.14276281 0.048138462
0.07505804 -0.041298177 0.0010263515 -0.059887238 -0.06895378 -0.13761365 -0.12034807 -0.14189972
0.02514601 -0.02136376 -0.102104515 -0.06643845 0.052999336 0.01792578 0.11190888 -0.03211676
0.05175126 0.0042630713 -0.0058880206 -0.034443565 -0.0929161 -0.06158975 -0.08623418 -0.09877108
-0.041603528 0.006692779 -0.0153563 -0.08620209 0.11565821 0.05172256 0.098597616 -0.0040971604
0.047784865 -0.032627963 -0.11012487 -0.036425527 -0.0811506 -0.04579426 0.03312633 -0.040663622
0.07508942 0.04227661 -0.073608786 0.012019897 -0.13603641 -0.10609248 -0.07200851 -0.12999593
0.12939392 0.010428787 0.03308092 0.0016689079 0.06294526 -0.017829845 0.030680101 0.030320946
-0.012662953 0.04374495 -0.11054137 -0.028357409 -0.0015585406 -0.120000206 0.009523585 -0.11460001
0.02989081 -0.023793409 0.11937957 0.09244926 -0.053883478 0.0391384 -0.12162922 -0.0027070711
0.029575601 0.07712193 0.11220598 0.0780871 -0.03688828 0.11661015 -0.025639772 0.040240113
0.03923619 -0.08847753 -0.062513985 -0.02335702 -0.0078131305 0.04060542 -0.078890115 -0.09978969
0.048031382 -0.007892846 0.08713059 0.049320113 -0.036319353 0.016130747 0.032310065 0.008715856
-0.05267828 -0.018408647 -0.09165177 -0.12833704 0.0023097838 -0.14282165 -0.008664328 -0.13877335
0.009170512 0.09031832 0.0157544 0.03856657 0.12004114 0.06016331 0.057124216 0.08754889
00000000: 9e9a b53d c849 153e 39e0 453e 32fd e8bd
00000010: b69d b9bc e939 bc3d 7de6 fa3c 665f a33d
00000020: 3043 bc3d cf7e 26bd dca1 01bd b279 553c
00000030: d627 51bb 1151 e83d 921e 823d b700 85bd
00000040: 8330 323e b40b 65bc 3038 ff3d 5708 0dbe
00000050: 7049 073d b375 463c fc10 2e3e 2e8a 12be
00000060: a141 133e fcb0 b33d b810 2c3e ac99 1dbe
00000070: 0a0b e93c 583d 1a3d bed1 2c3e b46a 9ebd
00000080: ab90 aabd fe7e 22bd e906 13bd 85fc 693d
00000090: 474c e1bb e33d c13d 5f62 1b3e c42b 14be
000000a0: 9d1a cdbd fda8 81bd 31ab 1e3b 5426 10bd
000000b0: 378b 0e3e f8d4 423e 06ba 1a3d 180d 023e
000000c0: f288 763d 43df e2bd 847b 063e 867e e5bc
000000d0: 2250 02be 2ac3 dbbd 04ac f6bc fa05 0b3c
000000e0: e34b eb3d 9bb9 b5bc 3847 183e bfbf d5bb
000000f0: 1068 013e eb40 da3d d467 553e ac36 36ba
00000100: f2fe 20bb 371d 193e eef0 003e 3673 d53d
00000110: eeab 0c3e b377 b3bc 5006 b4bc c8b1 da3d
00000120: 476a ed3b c9ae d03d 54c2 7cbc 5599 e33b
00000130: 5d74 bebb e79c 9c3c 6bf7 893d 9c8a 2bbe
00000140: 8894 d23d 9bfc 303e 1e1b 64bc 7ad6 14bc
00000150: 9d69 2c3e 3767 93bd e755 7e3d a18e 89bd
00000160: 38a3 063e be5a 103e 7ef1 0a3e 213c 213b
00000170: b827 e73c c687 2c3d 09f7 f2bd 89d2 24be
00000180: 8760 69bd 4566 e63d c546 bfbc 8588 41bd
00000190: 4fff 2a3e f723 0abd 4c75 123e 0d21 9fbe
000001a0: 8bea eabd 20d9 04be 1795 c9bd d411 083e
000001b0: a4b7 84bc 1f9f acbd c499 0d3e bfa5 fcbd
000001c0: 7dd1 853e 92cd 603e 700c 7fbc 0593 35bd
000001d0: 0675 87bd 80d1 e43d 7de4 0a3e f5ea 42be
000001e0: ca00 a63d 78ed 103e 98b6 0b3e d99a 6d3d
000001f0: 4b56 5b3d 27e4 933d 8304 b5bc 4ff1 883d
00000200: 2e35 b0bd 82f3 bbbd e10a 81ba 0355 babb
00000210: 4b47 da3c 74c3 8e3d f62e c83d ef07 2dbb
00000220: b9bb 683d bf97 9c3d b445 b8bc 87d0 d93c
00000230: 1f95 84bd 2bd0 61be 6a30 12be d62c 453d
00000240: 08b8 993d 4728 29bd a486 863a 524c 75bd
00000250: a437 8dbd 98ea 0cbe 0d79 f6bd 294e 11be
00000260: 01ff cd3c 0d03 afbc 2c1c d1bd e210 88bd
00000270: d515 593d 16d9 923c 7c30 e53d dd8c 03bd
00000280: 21f9 533d 3cb1 8b3b 4cf0 c0bb b214 0dbd
00000290: cc4a bebd 8945 7cbd 8c9b b0bd 7e48 cabd
000002a0: 7668 2abd 194f db3b fe98 7bbc b98a b0bd
000002b0: 36de ec3d 09db 533d 8ced c93d 7941 86bb
000002c0: 10ba 433d e6a4 05bd 2689 e1bd ef32 15bd
000002d0: 4932 a6bd c392 3bbd 79af 073d e68e 26bd
000002e0: 7bc8 993d 3d2a 2d3d 34c0 96bd 1aef 443c
000002f0: 214d 0bbe 0447 d9bd 3379 93bd a71d 05be
00000300: d77f 043e 81dd 2a3c dc7f 073d 42bf da3a
00000310: 72e9 803d e50f 92bc d654 fb3c a263 f83c
00000320: 4678 4fbc e82d 333d 8463 e2bd cc4d e8bc
00000330: f247 ccba abc2 f5bd d008 1c3c 69b3 eabd
00000340: 92dd f43c 65ea c2bc 477d f43d 0a56 bd3d
00000350: ecb4 5cbd 964f 203d be18 f9bd 1e69 31bb
00000360: 8848 f23c 1af2 9d3d 40cc e53d 21ec 9f3d
00000370: 2a18 17bd 4dd1 ee3d 800a d2bc d1d2 243d
00000380: 21b6 203d b533 b5bd 5507 80bd 3957 bfbc
00000390: a502 00bc de51 263d 2491 a1bd 895e ccbd
000003a0: 8ebc 443d ff50 01bc 8671 b23d e303 4a3d
000003b0: 9ac3 14bd a124 843c 8f57 043d f3cc 0e3c
000003c0: 2ec5 57bd bbcd 96bc ecb3 bbbd c96a 03be
000003d0: be5f 173b d73f 12be d3f4 0dbc 9a1a 0ebe
000003e0: ea3f 163c d0f8 b83d 5f0f 813c fbf7 1d3d
000003f0: 21d8 f53d ce6d 763d 15fb 693d d54c b33d

9.bias f4 [32]
-0.015282515 -0.059470206 -0.042946182 -0.20010237 -0.042582553 -0.05984162 -0.053141974 -0.07659391
-0.15661861 -0.10402128 -0.13996401 0.17383644 -0.01814539 0.018430386 -0.19163032 -0.0728168
-0.1367332 -0.115633026 -0.03289232 -0.13901186 -0.00047673934 -0.08583738 -0.12390899 -0.019835908
-0.16040502 -0.15979673 -0.026759947 0.051906306 -0.03978797 -0.108535826 -0.039755613 0.13612813
00000000: 8463 7abc 0897 73bd 56e8 2fbd a3e7 4cbe
00000010: 0b6b 2ebd 7d1c 75bd 66ab 59bd 45dd 9cbd
00000020: a160 20be 1c09 d5bd ba52 0fbe 2e02 323e
00000030: a4a5 94bc 52fb 963c bd3a 44be f920 95bd
00000040: ca03 0cbe 02d1 ecbd 19ba 06bd 2059 0ebe
00000050: dff2 f9b9 82cb afbd ffc3 fdbd ea7e a2bc
00000060: 3741 24be c1a1 23be ad37 dbbc b59b 543d
00000070: b6f8 22bd 0848 debd c8d6 22bd 2c65 0b3e

12.weight f4 [16, 32, 1, 2, 2]
0.10782573 0.08850568 -0.017670333 -0.11811863 0.0018519238 -0.058361344 -0.06561216 0.018855173
-0.042376846 0.035313725 -0.016503641 -0.092027396 -0.10901137 0.08064076 -0.2214052 -0.17695084
0.016916348 -0.0022811114 -0.009563901 -0.12391511 0.13099013 0.18869136 -0.25061405 -0.0106729865
-0.014847282 0.04239468 -0.02479332 -0.18146735 0.061864574 -0.20138313 -0.058654282 0.020846957
-0.12944078 0.07234395 -0.2733697 -0.192946 -0.18373092 0.0048641907 0.0076536736 -0.13772602
0.13006712 -0.12775217 -0.036015235 -0.13924715 0.04016371 0.08520692 0.10667904 0.07304857
0.07974929 -0.09263332 -0.049461465 0.0395353 -0.04642742 -0.13359496 0.111670524 2.562192e-06
0.077872105 0.06092388 -0.14893094 -0.009552399 0.12736446 0.09678439 0.0120510375 -0.092520304
-0.04328273 0.05140135 -0.2333375 -0.21745561 -0.03191343 0.06766323 -0.16403778 0.036506902
-0.09384098 0.13906477 -0.13702753 -0.19692321 0.033957683 0.08601929 -0.022335164 -0.06329673
-0.034798384 -0.15879615 -0.103215665 -0.15147814 0.057430092 0.12478495 0.011887957 0.17892253
0.00097162655 -0.037241366 -0.03026685 -0.091869146 0.031110816 -0.057398517 -0.12445005 -0.25104168
-0.0909328 0.11755825 -0.23391357 -0.20295557 0.019541118 0.008837626 0.08563773 0.08844928
-0.022865083 -0.05334745 -0.024172025 -0.029576156 0.0010787053 0.10458939 0.0863253 0.06412648
-0.06304211 -0.056016464 -4.872957e-05 -0.12206333 -0.14180505 -0.0044861874 -0.047497243 -0.027394429
0.026567392 0.034384754 -0.0234274 0.008942095 0.08628895 -0.002303149 -0.003032915 0.047562767
0.119219705 -0.18036775 0.0039344477 -0.07497271 0.08147701 0.06437866 0.09318572 0.05111326
0.14227793 -0.001388508 0.06157667 -0.031443365 -0.009922547 -0.011914242 0.14693886 -0.05460064
-0.031659953 -0.06027782 -0.024029756 0.1093201 -0.06410321 -0.047824442 0.0060710087 -0.07613988
0.15638039 -0.14502132 -0.12883358 -0.2994868 -0.055075943 0.1729093 0.031333197 -0.12070225
0.035135556 -0.17834808 0.13554683 -0.1384308 0.002563691 0.032896202 0.15747029 0.01587495
-0.002919349 0.07908952 0.018298725 -0.034883946 -0.060973696 -0.18066499 0.026276283 -0.030020287
-0.12974037 0.028894875 -0.06718824 0.05656335 -0.11933587 -0.0825062 -0.1588961 -0.22180307
-0.09847195 0.112527415 0.07228286 -0.06313096 -0.0008465037 0.045347854 0.04487443 0.017254625
-0.023416046 -0.048561316 0.024273034 -0.15202741 -0.0132118445 -0.055466205 0.10935275 -0.08307164
-0.13252895 0.13307646 0.10046701 0.029119961 -0.0020285978 -0.065389305 -0.06999674 -0.039901316
0.10768366 -0.37025458 0.13963723 0.011042887 0.024044514 0.06648312 -0.03993682 0.18822844
-0.017848462 0.041427206 -0.029495452 0.019049358 0.13466185 -0.29061842 0.03922603 -0.16940877
0.06834246 -0.13604376 0.012035555 -0.10340986 0.075906016 -0.107315235 -0.10658302 -0.048333842
-0.042995833 -0.11231201 -0.0028265389 0.12370513 0.03210913 -0.05154286 0.021318996 -0.055484105
-0.016409948 -0.19564883 -0.17551276 0.008405594 0.010269037 0.020622095 -0.04328593 -0.056458652
-0.14255825 -0.12547848 -0.10159974 -0.13027674 0.06354327 -0.23303142 -0.33041194 -0.029552825
00000000: bdd3 dc3d 7742 b53d 60c1 90bc 2ee8 f1bd
00000010: 40bc f23a 4e0c 6fbd ab5f 86bd 2a76 9a3c
00000020: 5893 2dbd 20a5 103d a532 87bc dc78 bcbd
00000030: 5a41 dfbd fc26 a53d 0bb8 62be 9a32 35be
00000040: 2794 8a3c b37e 15bb e9b1 1cbc 35c7 fdbd
00000050: 4722 063e 4f38 413e 7c50 80be c0dd 2ebc
00000060: 0442 73bc 0ba6 2d3d 5c1b cbbc 94d2 39be
00000070: b565 7d3d 6137 4ebe 793f 70bd 3dc7 aa3c
00000080: 208c 04be 1129 943d 1df7 8bbe a393 45be
00000090: f523 3cbe ca63 9f3b abcb fa3b 0d08 0dbe
000000a0: 5130 053e 77d1 02be b684 13bd ce96 0ebe
000000b0: b482 243d f780 ae3d 8a7a da3d 7d9a 953d
000000c0: 9953 a33d 8ab6 bdbd 1b98 4abd c4ef 213d
000000d0: ae2a 3ebd 1ecd 08be 84b3 e43d 20f2 2b36
000000e0: 697b 9f3d 528b 793d 5a81 18be aa81 1cbc
000000f0: d46b 023e e536 c63d b771 453c 497b bdbd
00000100: 3b49 31bd 398a 523d 07f0 6ebe afac 5ebe
00000110: a8b7 02bd 0593 8a3d 85f9 27be 4388 153d
00000120: b32f c0bd ff66 0e3e f250 0cbe 3da6 49be
00000130: 3617 0b3d e22a b03d 3cf8 b6bc b7a1 81bd
00000140: c088 0ebd 759b 22be bc62 d3bd 161d 1bbe
00000150: d13b 6b3d 408f ff3d b5c5 423c 7837 373e
00000160: c1b4 7e3a 678a 18bd 2ff2 f7bc e425 bcbd
00000170: 1cdc fe3c b51a 6bbd abdf febd 8988 80be
00000180: fa3a babd 61c2 f03d 0a87 6fbe 96d3 4fbe
00000190: b214 a03c b1cb 103c d662 af3d e524 b53d
000001a0: 8e4f bbbc db82 5abd 6904 c6bc b249 f2bc
000001b0: 5863 8d3a f632 d63d 52cb b03d be54 833d
000001c0: 391c 81bd 8571 65bd fa62 4cb8 57fc f9bd
000001d0: 5835 11be de00 93bb 788c 42bd 486a e0bc
000001e0: dca3 d93c 07d7 0c3d d2ea bfbc dd81 123c
000001f0: 43b8 b03d 6ef0 16bb dfc3 46bb 2dd1 423d
00000200: 7629 f43d 53b2 38be 8aec 803b 4b8b 99bd
00000210: 6bdd a63d f5d8 833d 28d8 be3d 235c 513d
00000220: 4eb1 113e 99fe b5ba d137 7c3d c2ca 00bd
00000230: 2e92 22bc f433 43bc 2477 163e eca4 5fbd
00000240: dead 01bd e0e5 76bd 0dda c4bc 37e3 df3d
00000250: 8b48 83bd 90e3 43bd 50ef c63b 3aef 9bbd
00000260: 2e22 203e 7880 14be f3ec 03be 5556 99be
00000270: 5097 61bd 230f 313e 3d57 003d be32 f7bd
00000280: 4dea 0f3d e1a0 36be cacc 0a3e cec0 0dbe
00000290: 9903 283b 2bbe 063d e43f 213e 2f0c 823c
000002a0: 8c52 3fbb b0f9 a13d 35e7 953c 78e2 0ebd
000002b0: 8ebf 79bd 3e00 39be 5c41 d73c 1bed f5bc
000002c0: a9da 04be f2b4 ec3c fd99 89bd f9ae 673d
000002d0: 5d66 f4bd 03f9 a8bd a9b5 22be 5820 63be
000002e0: a9ab c9bd c674 e63d 0909 943d ce4a 81bd
000002f0: e7e7 5dba acbe 393d 40ce 373d 9259 8d3c
00000300: 02d3 bfbc 3be8 46bd 3ed8 c63c 13ad 1bbe
00000310: 7e76 58bc 8830 63bd 56f4 df3d 7721 aabd
00000320: abb5 07be 3245 083e a6c1 cd3d fc8c ee3c
00000330: 39f2 04bb d4ea 85bd 735a 8fbd 906f 23bd
00000340: 4089 dc3d 0292 bdbe 10fd 0e3e 3aed 343c
00000350: 00f9 c43c 4d28 883d ca94 23bd f5be 403e
00000360: f036 92bc 93af 293d 72a0 f1bc 660d 9c3c
00000370: cce4 093e f0cb 94be 79ab 203d 7e79 2dbe
00000380: 22f7 8b3d 0e4f 0bbe c730 453c 8cc8 d3bd
00000390: 9d74 9b3d 17c8 dbbd 3348 dabd b5f9 45bd
000003a0: 661c 30bd d703 e6bd 743d 39bb 1d59 fd3d
000003b0: dd84 033d 9b1e 53bd 2da5 ae3c 4d43 63bd
000003c0: 286e 86bc 2b58 48be 9eb9 33be 9eb7 093c
000003d0: 773f 283c abef a83c 964c 31bd 3041 67bd
000003e0: cafa 11be 6e7d 00be 8613 d0bd 4467 05be
000003f0: f922 823d ca9f 6ebe c12b a9be c418 f2bc

12.bias f4 [16]
0.24574994 -0.07393135 -0.02716878 0.002492396 0.0021195996 -0.072006516 -0.11833499 -0.022748612
0.2916033 -0.22317702 -0.09335661 -0.08129633 -0.08911969 0.26175156 -0.021457452 -0.010890957
00000000: dfa5 7b3e 5269 97bd 1091 debc 7757 233b
00000010: fbe8 0a3b 2778 93bd 9e59 f2bd 4c5b babc
00000020: 074d 953e 8488 64be c031 bfbd b17e a6bd
00000030: 6284 b6bd 4d04 863e 8ac7 afbc fc6f 32bc

17.weight f4 [24, 720]
0.12125768 0.19207634 0.022985375 -0.1564003 -0.031167801 -0.07465418 0.044695407 0.06111397
-0.03761466 0.1022146 0.19886255 -0.0005810583 -0.11256156 -0.052205794 -0.10303065 0.027023448
0.094034426 0.0047326144 0.16797449 0.15763573 0.03344982 0.05017296 -0.06343847 -0.094370194
0.046041552 0.083105505 -0.005456195 0.16894892 0.099972256 0.049537722 0.05732731 -0.072063744
-0.05029346 0.09640649 0.107888505 0.042403042 0.12670164 0.0735924 0.05502241 -0.037875168
-0.10860757 -0.079573676 0.16156702 0.09166059 0.029506495 -0.09908074 -0.22964725 -0.2202938
-0.23435932 -0.028426245 -0.26820365 -0.2815627 0.14721029 -0.179488 -0.031050563 -0.12689362
-0.09980074 -0.14061172 -0.063690856 -0.1710052 -0.14819348 0.009704139 -0.07562463 -0.23430511
-0.164334 -0.20322384 -0.10718516 0.029923279 -0.1376503 -0.08419328 0.027205162 -0.038752843
-0.18459225 -0.14931735 -0.21161735 -0.15380305 0.0050358023 -0.15352416 -0.14380638 -0.0022313404
-0.11802321 -0.3225735 -0.05959757 -0.23788466 -0.23300475 0.045399193 -0.18082406 -0.07353264
0.026478887 -0.11648849 0.071467966 0.073263876 0.081861876 0.091737226 -0.049173467 -0.046582412
0.0456392 0.08621561 0.07040727 0.0498258 0.026090205 0.093475446 0.07311001 -0.08016852
0.033213038 0.08938247 0.055177312 0.058906183 -0.07163092 0.026518738 -0.053355798 0.06254086
-0.052929766 0.034855764 0.024332015 0.09662895 0.03220792 0.039097082 0.03959561 -0.070885584
0.061937477 -0.092357405 -0.0951267 -0.085562 0.073552676 0.060008753 0.028992321 0.089027435
-0.057651177 0.056923255 -0.08761083 -0.023468442 -0.051209975 0.04182686 0.03196291 0.2934481
0.25182348 0.2623943 -0.27221888 -0.06630073 0.044972293 0.24301364 0.103513256 0.0397582
0.4226766 0.23838936 0.20997244 -0.21295443 -0.057551946 0.11999238 0.17456938 0.014962022
-0.014812796 0.15872069 0.20020536 0.12953842 -0.27510667 -0.13486654 -0.10576968 0.18271494
0.099961 0.21046369 -0.013321307 0.16522121 -0.07468888 -0.1340817 -0.058173135 -0.090685844
0.30807507 0.14447992 0.27518433 0.3044521 0.2177109 -0.093491 0.0802646 -0.031978242
-0.1983876 0.28685933 0.38820282 -0.015729312 -0.15221676 -0.04296977 -0.0892986 -0.059267126
-0.027602589 -0.120674916 0.14026535 0.061808545 -0.14461699 -0.0710599 -0.11442572 -0.06397678
-0.037862692 -0.07902703 -0.06259563 0.11553603 0.04143852 -0.112202145 -0.06764302 0.04201745
-0.148526 -0.0318356 -0.065429054 0.033002064 0.06334833 0.05655767 -0.06323092 -0.07868734
-0.058580544 -0.067262806 -0.03756194 -0.057026528 -0.1246523 0.113460004 0.075408176 -0.12261729
-0.0830111 -0.0414519 -0.09309521 0.0657378 0.04996436 -0.1837883 0.06783657 0.11388994
-0.15320489 -0.006123907 0.019812733 -0.1290436 0.07614556 0.05631953 -0.069705874 0.053114433
0.078852676 -0.036423348 -0.034471467 0.049106512 -0.06999768 0.09385073 0.06597903 -0.07072768
0.08560864 0.038862623 -0.042833317 0.0044725486 0.042960975 -0.1022077 0.025927316 0.059352778
-0.07191024 0.079034895 0.08261282 0.076992065 0.005850958 0.0055086366 -0.043358244 0.08985909
00000000: f255 f83d a9af 443e d34b bc3c 6627 20be
00000010: 9e53 ffbc 4ae4 98bd 8812 373d a452 7a3d
00000020: d411 1abd e355 d13d a0a2 4b3e 2a52 18ba
00000030: ad86 e6bd bed5 55bd bc01 d3bd 4760 dd3c
00000040: 1f95 c03d 0c14 9b3b 8101 2c3e 436b 213e
00000050: ae02 093d 2982 4d3d 07ec 81bd 2945 c1bd
00000060: 1196 3c3d 3833 aa3d e2c9 b2bb f200 2d3e
00000070: 41be cc3d 11e8 4a3d 0bd0 6a3d 2896 93bd
00000080: 8400 4ebd c470 c53d a6f4 dc3d d0ae 2d3d
00000090: 13be 013e 9db7 963d 2e5f 613d fe22 1bbd
000000a0: a56d debd 86f7 a2bd d371 253e 8cb8 bb3d
000000b0: 9bb7 f13c d8ea cabd a628 6bbe b394 61be
000000c0: e4fb 6fbe 28de e8bc fd51 89be fc28 90be
000000d0: 4bbe 163e b4cb 37be c05d febc 67f0 01be
000000e0: 5564 ccbd 85fc 0fbe 5a70 82bd fd1b 2fbe
000000f0: 08c0 17be 1cfe 1e3c 16e1 9abd aeed 6fbe
00000100: 2c47 28be e919 50be e583 dbbd aa21 f53c
00000110: 33f4 0cbe 876d acbd 5cdd de3c 4dbb 1ebd
00000120: c005 3dbe a6e6 18be 38b2 58be 8c7e 1dbe
00000130: 5f03 a53b 7035 1dbe fb41 13be ae3b 12bb
00000140: 27b6 f1bd 5b28 a5be 951c 74bd 0998 73be
00000150: cc98 6ebe 81f4 393d f129 39be 4898 96bd
00000160: 40ea d83c 8491 eebd cc5d 923d 5f0b 963d
00000170: 33a7 a73d bae0 bb3d 1e6a 49bd 33cd 3ebd
00000180: 2bf0 3a3d cf91 b03d b031 903d 2316 4c3d
00000190: 20bb d53c 0e70 bf3d b3ba 953d 652f a4bd
000001a0: 650a 083d 280e b73d 9b01 623d 9c47 713d
000001b0: 3bb3 92bd d33d d93c 9c8b 5abd 6c15 803d
000001c0: e2cc 58bd ebc4 0e3d ef53 c73c 66e5 c53d
000001d0: 74ec 033d 4324 203d 022f 223d 762c 91bd
000001e0: 27b2 7d3d e125 bdbd cad1 c2bd 213b afbd
000001f0: c9a2 963d bdcb 753d 4e81 ed3c 0454 b63d
00000200: a423 6cbd 5c28 693d 4f6d b3bd e440 c0bc
00000210: 8dc1 51bd a452 2b3d 8aeb 023d d43e 963e
00000220: 02ef 803e 8c58 863e 4660 8bbe adc8 87bd
00000230: de34 383d 91d8 783e c2fe d33d 7fd9 223d
00000240: 1169 d83e 571c 743e 0403 573e ba10 5abe
00000250: 97bb 6bbd 91be f53d 51c2 323e 4523 753c
00000260: 5fb1 72bc ad87 223e a202 4d3e b8a5 043e
00000270: c8da 8cbe 741a 0abe c69d d8bd a019 3b3e
00000280: 5ab8 cc3d cb83 573e 9c41 5abc c02f 293e
00000290: 7cf6 98bd b74c 09be f446 6ebd 80b9 b9bd
000002a0: 04bc 9d3e 8bf2 133e f6e4 8c3e 25e1 9b3e
000002b0: 9bef 5e3e 3678 bfbd c461 a43d 9efb 02bd
000002c0: 1e26 4bbe 3adf 923e 85c2 c63e c2da 80bc
000002d0: b6de 1bbe 1201 30bd 2fe2 b6bd 16c2 72bd
000002e0: d31e e2bc 6924 f7bd b8a1 0f3e f52a 7d3d
000002f0: 7a16 14be da87 91bd 0858 eabd 4206 83bd
00000300: e915 1bbd ecd8 a1bd 2332 80bd 279e ec3d
00000310: 70bb 293d 3dca e5bd 6c88 8abd 7d1a 2c3d
00000320: 3317 18be 0c66 02bd abff 85bd 2c2d 073d
00000330: c5bc 813d 04a9 673d 367f 81bd d426 a1bd
00000340: 27f2 6fbd 15c1 89bd 8cda 19bd a694 69bd
00000350: b449 ffbd b85d e83d 9a6f 9a3d c61e fbbd
00000360: b901 aabd 78c9 29bd b4a8 bebd 8aa1 863d
00000370: 6ea7 4c3d 0033 3cbe e6ed 8a3d 213f e93d
00000380: bee1 1cbe 0eab c8bb 504e a23c 0124 04be
00000390: 34f2 9b3d 4faf 663d f4c1 8ebd 858e 593d
000003a0: 837d a13d a630 15bd f431 0dbd e923 493d
000003b0: f25a 8fbd d034 c03d 0420 873d add9 90bd
000003c0: 9553 af3d 6a2e 1f3d fd71 2fbd 758e 923b
000003d0: d9f7 2f3d 4552 d1bd 8665 d43c e61b 733d
000003e0: ad45 93bd 0cdd a13d e930 a93d 04ae 9d3d
000003f0: 65b9 bf3b cb81 b43b 6a98 31bd 0b08 b83d

17.bias f4 [24]
-0.033228002 0.03618562 -0.08034034 0.010617989 -0.031437207 0.14145805 -0.095848024 -0.08732314
0.21194264 0.04192801 0.032367475 -0.061514735 -0.045606025 0.06988502 0.07905141 -0.05662002
-0.05485022 -0.029328516 0.015936991 0.08825313 -0.071596995 -0.017320532 -0.02861819 -0.06725213
00000000: 161a 08bd 5f37 143d 7a89 a4bd 13f7 2d3c
00000010: 4dc4 00bd 61da 103e f84b c4bd 79d6 b2bd
00000020: 7e07 593e b4bc 2b3d c293 043d e0f6 7bbd
00000030: 62cd 3abd e11f 8f3d b5e5 a13d 65ea 67bd
00000040: a0aa 60bd 5b42 f0bc 4b8e 823c 0fbe b43d
00000050: 72a1 92bd cae3 8dbc b270 eabc 7cbb 89bd

19.weight f4 [10, 24]
-0.09279709 0.0694598 -0.14639927 -0.28762233 -0.10234544 0.08614166 -0.19391552 0.050219335
0.21557827 -0.0032503428 -0.063805304 0.036456283 -0.09138218 0.092553645 0.15030825 0.15556923
0.025278782 -0.058694538 -0.25146735 0.09924147 -0.066940404 0.09684329 0.08743198 -0.1343255
-0.16582218 0.0027266582 -0.08417554 0.040409423 -0.18533859 0.103929095 -0.13180743 0.023728702
0.1756806 -0.22341625 -0.068852924 0.12394154 -0.024915196 0.13459685 0.11826703 0.05884082
-0.04824433 0.08289043 -0.13670097 -0.0024395692 -0.004217378 0.23369877 -0.04944392 0.09781488
-0.12562312 0.25118554 0.09918054 0.10737867 0.057483487 0.19661474 -0.13050044 -0.15771571
0.18791321 -0.070894115 0.13257994 -0.058368985 0.106191106 0.16186085 -0.16205475 0.0075151105
-0.21425466 0.10176167 0.07240844 0.025355386 -0.17792816 -0.08900924 -0.11523181 0.13263728
-0.08525622 0.13476187 -0.03094977 0.10565507 -0.021925475 0.21405537 0.12956966 0.08693333
0.07555521 -0.027759442 0.22882833 0.103909045 0.010254569 0.24703583 -0.07560057 0.11467826
0.10257448 0.047700576 -0.042341124 -0.09651118 -0.08356374 -0.13900246 0.14479424 0.061653636
0.35957104 -0.3225584 -0.12932426 0.07106351 -0.15531635 0.03189492 -0.07978713 -0.029427366
-0.21927753 0.3428671 0.3904554 -0.0688681 0.1965724 -0.0927646 -0.04864528 -0.122263186
-0.017442638 0.25357056 0.06809456 0.21345483 -0.274384 0.21639864 -0.12769629 0.004254728
0.052149918 -0.27447024 0.04518198 0.102538206 0.32526237 -0.38779873 0.13396892 0.0026511732
-0.14554593 -0.028883114 -0.055029254 -0.08133121 -0.072685495 -0.22579612 -0.35244492 0.11160272
-0.101929896 -0.01290106 0.20111798 0.11766337 -0.15620863 -0.03850497 -0.22621016 0.09045582
-0.030065186 -0.12402204 0.055449065 -0.06589587 0.10603212 -0.11600009 0.3571834 0.05957794
-0.68928015 -0.031971462 -0.66540754 0.17335692 0.018064229 -0.2788514 -0.51767105 -0.008182955
0.108196996 0.007818304 0.12680756 -0.07593331 0.012424326 -0.014539607 0.23162153 -0.18928814
0.07132651 -0.052912723 -0.093394205 0.15684073 -0.15324232 -0.31666088 0.11959922 -0.26617151
0.10429366 0.14221896 -0.19483182 0.22034812 -0.107113995 -0.11203946 -0.12356099 -0.023510654
0.13207784 -0.02287707 0.14597018 -0.2892707 -0.014879644 -0.00805138 0.012504951 -0.1495878
-0.0016117336 0.14542645 -0.020627422 0.181692 0.112958275 -0.11839321 0.23824678 -0.15277943
-0.22009848 -0.07476692 0.17201103 0.11381911 -0.053270336 -0.06276435 0.073854975 -0.031209936
-0.071795925 -0.108857706 -0.06293938 -0.102386884 0.11577972 -0.06519352 -0.15739204 0.0010136681
-0.21645623 0.09649646 -0.080574356 0.016769284 -0.018776417 0.17530346 -0.26034093 -0.03509076
-0.004783484 -0.013014767 -0.18298851 -0.20572451 -0.13420832 0.21427763 0.24427459 -0.19434272
-0.21924007 0.07069657 -0.23748271 -0.018288083 0.2114455 0.11718542 -0.12962654 0.08469641
00000000: 670c bebd f140 8e3d b1e9 15be 3c43 93be
00000010: 7c9a d1bd 0a6b b03d ca91 46be cab2 4d3d
00000020: 8dc0 5c3e b403 55bb 5bac 82bd 2f53 153d
00000030: 9526 bbbd c48c bd3d 68ea 193e 8a4d 1f3e
00000040: 7315 cf3c af69 70bd 54c0 80be 1d3f cb3d
00000050: 0d18 89bd c655 c63d 8a0f b33d a08c 09be
00000060: 4acd 29be bcb1 323b 3a64 acbd 5a84 253d
00000070: 66c9 3dbe c7d8 d43d 87f8 06be b262 c23c
00000080: 9de5 333e 3bc7 64be c302 8dbd 10d5 fd3d
00000090: f41a ccbc c2d3 093e fc35 f23d 1203 713d
000000a0: d99b 45bd 75c2 a93d 57fb 0bbe 2ee1 1fbb
000000b0: ee31 8abb bb4e 6f3e b585 4abd 2b53 c83d
000000c0: 59a3 00be 649b 803e 2b1f cb3d 59e9 db3d
000000d0: ce73 6b3d 6055 493e e8a1 05be 3a80 21be
000000e0: 526c 403e ef30 91bd 09c3 073e 5114 6fbd
000000f0: b97a d93d dabe 253e aef1 25be 5141 f63b
00000100: 9365 5bbe 6c68 d03d e04a 943d 19b6 cf3c
00000110: cd32 36be 7a4a b6bd a8fe ebbd 11d2 073e
00000120: d09a aebd 04ff 093e 5f8a fdbc af61 d83d
00000130: 0e9d b3bc 5531 5b3e e9ad 043e 1a0a b23d
00000140: b1bc 9a3d c567 e3bc f951 6a3e 44ce d43d
00000150: c802 283c f6f6 7c3e 79d4 9abd 70dc ea3d
00000160: 9212 d23d ae61 433d e36d 2dbd a7a7 c5bd
00000170: 7723 abbd a956 0ebe f144 143e 8688 7c3d
00000180: b219 b83e 6026 a5be 946d 04be bf89 913d
00000190: 400b 1fbe 3fa4 023d 6f67 a3bd a911 f1bc
000001a0: 4a8a 60be 478c af3e c5e9 c73e b80a 8dbd
000001b0: 464a 493e 5efb bdbd 4640 47bd 1f65 fabd
000001c0: dde3 8ebc 00d4 813e 2975 8b3d e793 5a3e
000001d0: 0f7c 8cbe 9b97 5d3e d1c2 02be 3f6b 8b3b
000001e0: 279b 553d 5d87 8cbe bd10 393d 8dff d13d
000001f0: ca88 a63e 8e8d c6be 262f 093e 4ebf 2d3b
00000200: fe09 15be 489c ecbc 5b66 61bd fa90 a6bd
00000210: 22dc 94bd 1937 67be a973 b4be f88f e43d
00000220: 9fc0 d0bd f85e 53bc dff1 4d3e 7ef9 f03d
00000230: 28f5 1fbe 63b7 1dbd a3a3 67be e740 b93d
00000240: 444b f6bc 44ff fdbd 8f1e 633d 6af4 86bd
00000250: 5e27 d93d 7591 edbd bee0 b63e ff07 743d
00000260: aa74 30bf 82f4 02bd 2658 2abf 7a84 313e
00000270: 6ffb 933c 9cc5 8ebe 1786 04bf cd11 06bc
00000280: 6396 dd3d 5818 003c d7d9 013e ec82 9bbd
00000290: 668f 4b3c 8837 6ebc 322e 6d3e c0d4 41be
000002a0: a213 923d 03bb 58bd 7645 bfbd db9a 203e
000002b0: 8eeb 1cbe 6021 a2be 70f0 f43d a247 88be
000002c0: ea97 d53d d9a1 113e fe81 47be f0a2 613e
000002d0: 955e dbbd f274 e5bd 8b0d fdbd 6a99 c0bc
000002e0: 6a3f 073e b168 bbbc 3579 153e 4a1b 94be
000002f0: c0c9 73bc efe9 03bc 91e1 4c3c 8b2d 19be
00000300: ce40 d3ba acea 143e d7fa a8bc 780d 3a3e
00000310: ab56 e73d 2478 f2bd f7f6 733e 3672 1cbe
00000320: 7f61 61be 661f 99bd a923 303e fe19 e93d
00000330: ff31 5abd 988a 80bd 4741 973d fbab ffbc
00000340: be09 93bd caf0 debd 5de6 80bd 37b0 d1bd
00000350: eb1d ed3d 2e84 85bd 612b 21be 0fdd 843a
00000360: b4a6 5dbe f09f c53d 2b04 a5bd bd5f 893c
00000370: 00d1 99bc c082 333e 684b 85be 54bb 0fbd
00000380: c6be 9cbb e43b 55bc 5761 3bbe 72a9 52be
00000390: e86d 09be 986b 5b3e 1e23 7a3e c701 47be
000003a0: 7880 60be 5dc9 903d ab2e 73be e4d0 95bc
000003b0: 2b85 583e e9fe ef3d d2bc 04be 5075 ad3d

19.bias f4 [10]
0.029755447 0.09758368 0.1797294 -0.10088956 -0.05197931 -0.061677232 -0.016558617 0.02261701
0.05192732 0.077631846
00000000: b2c1 f33c f4d9 c73d fc0a 383e 309f cebd
00000010: 42e8 54bd 44a1 7cbd f0a5 87bc 4f47 b93c
00000020: beb1 543d 72fd 9e3d
