conv1_model_weights.pth (torch, 134404 bytes, 14 tensors)

0.weight f4 [32, 1, 1, 3, 3]
0	0x3d185733	0.037192535
1	0xbcfd204a	-0.030899186
2	0x3e5bbbba	0.21458331
3	0x3e83c3f3	0.25735435
4	0x3e64bda1	0.22337963
5	0x3d8c0f1f	0.068388216
6	0xbe265ba0	-0.1624589
7	0xbe1cd386	-0.15315065
8	0x3c57a2c8	0.013161369
9	0xbe1b215c	-0.15149444
10	0xbefbae30	-0.49156332
11	0x3e9d85d7	0.30766174
12	0xbd89e387	-0.067328505
13	0x3e15423b	0.14576046
14	0x3eafc4ea	0.3432992
15	0x3ab7fa51	0.0014036392
16	0xbea9a0dc	-0.33130538
17	0x3e2063e9	0.15663113
18	0xbeb459c7	-0.35224745
19	0xbcdaada9	-0.026694136
20	0xbe5484e9	-0.20753826
21	0xbd872c2c	-0.06600222
22	0x3e6e6243	0.23279671
23	0x3eb864b2	0.36014324
24	0xbcc349c5	-0.023838887
25	0xbb86b1e6	-0.0041105626
26	0x3c5245dc	0.012834039
27	0xbddb189b	-0.106980525
28	0xbd3e34cc	-0.04643707
29	0x3e84b874	0.25921977
30	0x3e152308	0.14564145
31	0xbe532091	-0.20617892
32	0xbe659725	-0.22420938
33	0x3df68058	0.120361984
34	0xbc9d941c	-0.019235663
35	0xbb44acbc	-0.0030010184
36	0x3e092c2d	0.13395758
37	0x3ea8a8e4	0.32941353
38	0xbed5b734	-0.41741335
39	0x3e801aaa	0.25020343
40	0x3df5bb79	0.11998648
41	0xbddce5f8	-0.107860506
42	0xbe8e0859	-0.27740744
43	0x3eb13a4f	0.34614798
44	0xbeca52f5	-0.39516416
45	0xbe0b5cf4	-0.13609678
46	0x3dc0496a	0.093890026
47	0xbe9a3017	-0.30114815
48	0xbe76a179	-0.24085034
49	0x3e9e9156	0.30970258
50	0x3df00db0	0.11721361
51	0xbe57fda4	-0.2109285
52	0x3eb7aa5e	0.35872167
53	0x3ede84ea	0.4346078
54	0x3ea67d49	0.3251746
55	0xbe25e41b	-0.16200297
56	0xbe31caf9	-0.17362584
57	0xbcef8cb0	-0.02924189
58	0x3eb3c811	0.35113576
59	0xbe5ddba5	-0.21665819
60	0x3dd85c7c	0.10564515
61	0xbe89b0c6	-0.2689268
62	0x3d71c4e9	0.05902568
63	0x3eb86247	0.3601248
64	0x3e36b303	0.17841725
65	0xbec88ef6	-0.3917157
66	0x3cdb289e	0.026752766
67	0xbe588196	-0.21143183
68	0xbe4724ef	-0.19447683
69	0x3ea4a03b	0.32153496
70	0x3e7af211	0.24506404
71	0xbe845341	-0.25844768
72	0xbdc47443	-0.09592488
73	0x3e9c96b0	0.30583715
74	0x3e7fb45b	0.24971144
75	0xbe7351ed	-0.23761721
76	0x3c32f88c	0.010923516
77	0xbe630174	-0.22168523
78	0xbcb17306	-0.021661293
79	0xbd157925	-0.036492486
80	0xbdc2e159	-0.09515638
81	0x3ea7e8a0	0.32794666
82	0x3e04d608	0.12972271
83	0x3e816763	0.2527419
84	0x3d888cde	0.06667493
85	0x3e5ce15a	0.2157034
86	0x3e54cd59	0.20781459
87	0x3e804e95	0.25059953
88	0x3efaf11c	0.49012077
89	0x3e411464	0.18855435
90	0xbe405dd0	-0.18785787
91	0xbe9948d2	-0.2993837
92	0x3d883f85	0.066527404
93	0xbe0125fd	-0.12612148
94	0xbe740215	-0.23828919
95	0xbe6cc09b	-0.23120348
96	0x3e14f4e4	0.14546543
97	0x3e36cdeb	0.17851989
98	0xbe92752a	-0.28605014
99	0x3e15ef78	0.14642131
100	0xbea82b8a	-0.32845718
101	0x3e3a9a9d	0.18223043
102	0x3e8dfd40	0.27732277
103	0xbdfccec9	-0.12344129
104	0xbe4b3991	-0.19846179
105	0xbc0c9ff7	-0.0085830605
106	0x3e8068f1	0.25080064
107	0xbdc2e532	-0.09516372
108	0x3e3088c9	0.1723968
109	0x3e9d5c08	0.30734277
110	0x3eacbdc6	0.33738536
111	0xbe1c3944	-0.1525622
112	0xbeb46048	-0.35229707
113	0x3dd76045	0.10516409
114	0x3df8c836	0.12147562
115	0xbeb6acc5	-0.35678688
116	0xbdae74e2	-0.085183874
117	0xbdd5865c	-0.10426018
118	0x3ec68074	0.38769877
119	0xbdb06438	-0.08612865
120	0xbd6f3f47	-0.058409955
121	0x3ec5b6b2	0.38615948
122	0xbe792c43	-0.24333291
123	0xbea342a1	-0.3188677
124	0xbe6332bb	-0.22187321
125	0x3ea3b4da	0.31973916
126	0xbe45086e	-0.19241497
127	0xbc94515a	-0.018105198
128	0x3de4a13f	0.11163568
129	0xbe846604	-0.25859082
130	0x3dbde100	0.09271431
131	0xbe80c019	-0.2514656
132	0x3e7de115	0.24792893
133	0xbe2e012d	-0.16992636
134	0x3d1ebdf5	0.038755376
135	0xbd676787	-0.056495216
136	0x3e2a0c97	0.16606365
137	0xbebbdfe2	-0.36694247
138	0x3eb2a8e9	0.34894493
139	0x3e8466df	0.25859734
140	0xbedb42bc	-0.42824352
141	0x3dffe4a9	0.12494785
142	0x3ba424fb	0.005009291
143	0xbde23440	-0.11045122
144	0xbe32f6be	-0.17476937
145	0xbdb69346	-0.08914809
146	0xbe10c91b	-0.14139216
147	0xbe5e5910	-0.21713662
148	0xbde129d8	-0.10994309
149	0x3cd8ba86	0.026456129
150	0x3ea6706c	0.32507646
151	0xbe966130	-0.29371023
152	0xbcbe77d8	-0.023250505
153	0x3ec9c0a8	0.39404798
154	0xbe574c77	-0.21025263
155	0xbd791ec4	-0.060820356
156	0xbde37015	-0.11105362
157	0xbe88fe41	-0.2675648
158	0x3e4573d8	0.19282472
159	0xbe906183	-0.28199396
160	0x3e4325d9	0.19057406
161	0x3e4e0193	0.20117788
162	0xbeb25730	-0.34832144
163	0xbcd53fc8	-0.02603139
164	0x3e1d3619	0.15352668
165	0x3e0e3452	0.13887146
166	0x3e856436	0.26053017
167	0x3e856500	0.2605362
168	0x3e7223e8	0.2364651
169	0xbe9e0e45	-0.30870262
170	0xbe84067a	-0.2578619
171	0x3d6c3572	0.057668157
172	0x3d81278e	0.063063726
173	0xbe323f9b	-0.17407076
174	0xbb52f46a	-0.003218914
175	0x3d92dd78	0.07171148
176	0xbe836e1f	-0.25669953
177	0x3eae22a3	0.340108
178	0xbd97d2ba	-0.0741324
179	0x3de8c774	0.11366168
180	0xbe7f828d	-0.24952145
181	0xbe905e3a	-0.2819689
182	0xbe5e6588	-0.21718419
183	0x3e5b7cd6	0.2143434
184	0x3e3841ab	0.179938
185	0x3e182ea6	0.14861545
186	0x3e9f65cf	0.3113236
187	0x3df0993f	0.117479794
188	0xbe465cd5	-0.1937135
189	0x3e9a19e4	0.30097878
190	0xbe096dfc	-0.13420862
191	0xbe923afa	-0.2856062
192	0xbe3d7e69	-0.18505253
193	0x3da4f4be	0.08054493
194	0x3dfe05d6	0.12403457
195	0x3e5a39de	0.21311137
196	0x3e21da5c	0.15805954
197	0xbe687260	-0.2269988
198	0x3e8255ea	0.25456172
199	0x3e822523	0.25418958
200	0xbee84da5	-0.45371738
201	0x3e94c6fc	0.29058063
202	0x3ea0cf88	0.31408334
203	0xbc54f473	-0.012997734
204	0xbe423337	-0.1896485
205	0xbe620836	-0.22073445
206	0xbe4713a1	-0.19441082
207	0x3dc4ae96	0.09603612
208	0x3ea19d1d	0.3156518
209	0xbe0e8f88	-0.1392194
210	0xbea34372	-0.31887394
211	0x3cf91086	0.030403387
212	0xbe6aa69a	-0.22915116
213	0x3eb3a471	0.35086396
214	0x3ecacfd7	0.39611694
215	0xbeb44b0e	-0.35213512
216	0x3d91ae41	0.071133144
217	0x3e24849d	0.16066213
218	0xbdba3628	-0.09092361
219	0x3e94927d	0.29018012
220	0x3d19073c	0.037360415
221	0x3e574bc1	0.21024992
222	0xbe8ad46e	-0.27115196
223	0xbdfc3e37	-0.12316554
224	0xbdacedcf	-0.08443796
225	0x3eb68766	0.35650176
226	0xbe9ca9b0	-0.3059821
227	0xbe24b830	-0.16085887
228	0xbea47f39	-0.32128313
229	0xbe0ffc2b	-0.14061038
230	0x3ecfa554	0.40555823
231	0xbde7ac5b	-0.11312171
232	0x3e4f8812	0.2026675
233	0x3e779a0c	0.24179858
234	0x3e836d3e	0.25669283
235	0x3d80e155	0.06292979
236	0x3e835414	0.25650084
237	0x3e8210bb	0.2540339
238	0x3e36d315	0.17853959
239	0x3ee7a56e	0.452434
240	0x3d96668c	0.07343778
241	0x3f0b78ad	0.5448101
242	0x3ecd90c3	0.40149507
243	0x3dbca590	0.09211266
244	0x3e4af3b8	0.19819534
245	0x3eda2fb1	0.4261451
246	0xbe03a506	-0.1285592
247	0x3e4bf87b	0.19919007
248	0x3e8a55cd	0.27018586
249	0x3ed15566	0.40885466
250	0x3ecc270f	0.3987355
251	0x3e832038	0.25610518
252	0xbe2eaadc	-0.17057365
253	0xbe413ba3	-0.18870406
254	0xbe1112ca	-0.14167324
255	0x3e8a6161	0.2702742

0.bias f4 [32]
0	0xbddd62e8	-0.108098805
1	0xbe2a84d0	-0.16652226
2	0xbe0b5eaf	-0.13610338
3	0x3d86c9e0	0.06581473
4	0xbe86bdf1	-0.2631679
5	0x3e13286b	0.14370887
6	0xbb368f22	-0.002785631
7	0xbdc32f32	-0.09530486
8	0xbe5ab3ba	-0.21357623
9	0x3de06026	0.10955839
10	0xbe21ae57	-0.15789162
11	0x3dae8b0b	0.08522614
12	0xbe4e2506	-0.20131311
13	0xbe339625	-0.17537744
14	0x3e0683df	0.13136242
15	0xbe5c972d	-0.21542044
16	0xbebe50ea	-0.37171108
17	0xbdeedd23	-0.11663272
18	0xbceeb581	-0.029139282
19	0xbd6746d1	-0.05646402
20	0xbc3d5c98	-0.011557721
21	0x3d2909d7	0.04126915
22	0xbe9b2eeb	-0.30309233
23	0xbe147437	-0.14497457
24	0xbe7dc47e	-0.24781987
25	0xbd8e4fa4	-0.06948784
26	0x3e20d0b7	0.15704618
27	0x3e7375c5	0.23775394
28	0x3d97f5fc	0.07419965
29	0xbe07a1d8	-0.13245332
30	0x3d793824	0.060844555
31	0xbe107cdf	-0.14110135

3.weight f4 [32, 32, 1, 2, 2]
0	0xbda7c9a4	-0.08192757
1	0x3be1c997	0.0068904865
2	0x3d1f8d55	0.038953144
3	0xbb7ea4aa	-0.0038855472
4	0x3bb6ef18	0.0055827014
5	0xbd928437	-0.07154124
6	0xbe1004f7	-0.14064394
7	0x3cc271af	0.02373585
8	0xbdd722e6	-0.10504703
9	0xbd29ce3f	-0.041456457
10	0x3d03b6f8	0.032156914
11	0x3b610dc1	0.0034340473
12	0xbd4393d3	-0.047748398
13	0xbd87b6e0	-0.066266775
14	0xbdd0cf5d	-0.101958014
15	0xbc9b9d56	-0.018995922
16	0xbda79b53	-0.081839226
17	0xbe030ff6	-0.12799057
18	0x3d576587	0.05258706
19	0xbdc70b96	-0.09719007
20	0xbd502b11	-0.05082232
21	0xbdfa0095	-0.12207142
22	0xbd8468bf	-0.06465291
23	0xbe05f9ce	-0.13083574
24	0xbd8fc0e4	-0.07019213
25	0x3d11dadd	0.035609115
26	0xbdf05464	-0.11734846
27	0xbd24239e	-0.04007303
28	0x3bc858ac	0.006114086
29	0xbdaecca7	-0.08535128
30	0xbde94303	-0.113897346
31	0xbc818e8f	-0.015815048
32	0xbd504833	-0.050850105
33	0x3c1a8e65	0.009433364
34	0xbdd02be1	-0.10164619
35	0xbbe2559d	-0.0069071786
36	0xbd8491f9	-0.064731546
37	0xbd85ea2a	-0.06538804
38	0xbd059244	-0.032610193
39	0xbc8c0722	-0.017093245
40	0xbdb8e250	-0.09027541
41	0xbdb23caf	-0.08702981
42	0xbe2beca9	-0.16789497
43	0x3ca251e8	0.019814447
44	0xbdbafb9b	-0.09130021
45	0xbc944d77	-0.018103344
46	0xbd6a2cec	-0.057171747
47	0xbdf09684	-0.117474586
48	0xbc93d6c4	-0.018046744
49	0xbbb02ffd	-0.0053768144
50	0xbdc17d66	-0.09447746
51	0xbd221554	-0.03957112
52	0xbc2bc2a4	-0.010483418
53	0xbd1eb9a9	-0.038751278
54	0xbb3217fb	-0.0027174938
55	0xbda05d5f	-0.07830309
56	0xbe30f294	-0.17280036
57	0xbd690331	-0.05688781
58	0xbde71576	-0.1128339
59	0xbdbc5810	-0.09196484
60	0x39cfc97f	0.00039632243
61	0xbdc8dc2d	-0.0980762
62	0xbdbbaa50	-0.09163344
63	0x3d1e2b10	0.038615286
64	0xbdb0b334	-0.0862793
65	0xbc8477ed	-0.016170466
66	0xbd852795	-0.0650169
67	0xbd80aaea	-0.06282599
68	0xbcf23ef6	-0.029571038
69	0xbe0d7e71	-0.13817765
70	0x3d97ad89	0.07406146
71	0xbdb24e8c	-0.08706388
72	0xbd5e54dc	-0.054280147
73	0xbe204797	-0.1565231
74	0xbe2c44b7	-0.16823088
75	0xbd13b865	-0.036064524
76	0x3d1494f4	0.036274865
77	0x3ba9ef9e	0.0051860353
78	0xbddf4b41	-0.109030254
79	0xbd99f353	-0.075171135
80	0xbd7fef59	-0.06248412
81	0xbd18d84a	-0.037315644
82	0xbdbba764	-0.091627866
83	0xbbcb3d8d	-0.006202406
84	0xbd0da27d	-0.03457879
85	0xbd0f2662	-0.034948714
86	0xbdbb36a4	-0.09141281
87	0xbc917946	-0.017758023
88	0xbc326b8a	-0.010889897
89	0xbdca16c9	-0.09867627
90	0xbd2c9ab4	-0.042139724
91	0xbdba1bbe	-0.09087323
92	0x3d29d5a6	0.041463517
93	0xbcd0fc29	-0.025510864
94	0xbd1c0b45	-0.038096685
95	0xbd951cb9	-0.07280869
96	0x3cd2800c	0.025695823
97	0xbdcb5c96	-0.09929769
98	0xbdd2d793	-0.10295024
99	0xbca2f333	-0.019891357
100	0x3c2822e9	0.0102622295
101	0xba004258	-0.00048926985
102	0x3d8d8042	0.06909229
103	0x3e0872ce	0.13325045
104	0xbd2e11e6	-0.042497538
105	0xbddf3344	-0.1089845
106	0xbda58d7e	-0.08083628
107	0xbd7bc4c2	-0.06146694
108	0xbd9a1539	-0.07523579
109	0xbb589963	-0.003305041
110	0x3d16d0a4	0.03682007
111	0xbddd0688	-0.10792261
112	0x3d0245f4	0.031804994
113	0xbd2d14fa	-0.042256333
114	0xbe0d4281	-0.137949
115	0xbe18bf93	-0.1491683
116	0xbd93e9bb	-0.07222315
117	0xbacc2fca	-0.0015578207
118	0xbd70cdc8	-0.05879
119	0x3d387e57	0.045042362
120	0xbdde95ea	-0.108684376
121	0xbcd88de5	-0.026434848
122	0xbcfb3496	-0.030664723
123	0xbe0aab77	-0.13541971
124	0x3b94ffdf	0.004547104
125	0xbdd7af83	-0.10531523
126	0x3c818b70	0.01581356
127	0xbd32d364	-0.04365863
128	0xbd564ef8	-0.052321404
129	0xbdcf6f60	-0.10128665
130	0xbd864bf7	-0.06557458
131	0xbe07b52e	-0.13252708
132	0xbd1599ea	-0.036523737
133	0x3d9508f1	0.07277096
134	0x3d54648d	0.051853705
135	0x3da7fb61	0.082022436
136	0x3e7206a5	0.23635347
137	0x3cee4b27	0.02908857
138	0x3d9016c6	0.07035594
139	0x3d1fcdc4	0.039014593
140	0xbcbf1549	-0.02332558
141	0xbd360cb8	-0.044445723
142	0xbdb8dbe9	-0.090263195
143	0x3dc9c3f6	0.0985183
144	0xbd0ebc99	-0.03484783
145	0x3de8f222	0.11374308
146	0xbd993b21	-0.07481981
147	0x3e82a344	0.25515187
148	0xbc71d7d8	-0.014760934
149	0xbe1024ba	-0.1407651
150	0xbdbeb8bb	-0.09312578
151	0xbd4bf677	-0.049795594
152	0xbdd727c4	-0.105056316
153	0x3d5fce4c	0.0546401
154	0xbe150cba	-0.14555636
155	0x3dc6fdd0	0.0971638
156	0xbdbf9031	-0.09353674
157	0x3e073460	0.13203573
158	0xbdcc9912	-0.09990133
159	0x3e529e36	0.20568165
160	0x3d16459a	0.03668747
161	0xbd00a1cc	-0.0314043
162	0xbc258c03	-0.010104182
163	0x3d1f211e	0.038849942
164	0xbda1c610	-0.078991055
165	0xbda5754e	-0.08079015
166	0xbdca6b40	-0.098837376
167	0xbe36fdaa	-0.17870203
168	0x3dce3e5d	0.100704886
169	0x3d6ff331	0.058581535
170	0xbb337c1e	-0.0027387212
171	0xbcbd6338	-0.0231186
172	0xbc6e88cd	-0.014558983
173	0x3ce4ceda	0.027930666
174	0xbd360f40	-0.044448137
175	0x3df56fe2	0.119842306
176	0x3c9114c9	0.017710106
177	0x3d36ced7	0.04463085
178	0x3c8441fb	0.016144743
179	0x3d91618b	0.07098683
180	0x3e0b628e	0.13611814
181	0x3e4ce15f	0.20007847
182	0x3cee401e	0.029083308
183	0x3df1f186	0.11813645
184	0x3daa2ebe	0.083096966
185	0xbcf735c7	-0.03017701
186	0x3c890c5d	0.016729528
187	0xbd853c06	-0.06505589
188	0xbdf35465	-0.11881331
189	0x3e59b964	0.21262127
190	0xbe382d8d	-0.17986126
191	0x3e130201	0.14356233
192	0x3ce1ab4c	0.027547501
193	0x3dd21cd8	0.10259408
194	0x3d175651	0.036947552
195	0x3dbda9b7	0.09260886
196	0x3e3b6154	0.18298846
197	0xbdc04da3	-0.09389808
198	0xbdaec47f	-0.085335724
199	0x3d959b44	0.07305005
200	0xbbefc259	-0.007316869
201	0x3bd6bba6	0.006553131
202	0xbc1c5796	-0.0095423665
203	0xbd911064	-0.070832044
204	0x3d458bbb	0.04822896
205	0x3d4444f3	0.047917318
206	0x3b6a0b58	0.0035712328
207	0x3d0eff92	0.0349117
208	0x3d3fb7bd	0.046806086
209	0x3daac387	0.08338075
210	0x3b2ed5d5	0.0026677747
211	0x3da980d1	0.08276523
212	0xbe06c775	-0.13162024
213	0x3d06f6c8	0.032950193
214	0x3d379cbb	0.044827204
215	0x3e1f87a0	0.1557908
216	0xbc5b1e2d	-0.013373894
217	0x3d6be267	0.05758896
218	0x3d3fc60a	0.046819724
219	0x3e5922f6	0.21204743
220	0x3d20d13d	0.039262045
221	0x3ce0967a	0.027415503
222	0xbdd4c655	-0.10389391
223	0x3da6a3ca	0.08136709
224	0x3d781cf3	0.060574483
225	0xbd67af8a	-0.05656389
226	0x3c926928	0.017872408
227	0x3dc0c9ac	0.09413466
228	0x3e44d8dc	0.1922335
229	0xbccaf201	-0.0247736
230	0xbe2dd111	-0.16974284
231	0x3cf8f574	0.030390479
232	0xbd20eca9	-0.039288197
233	0xbe414693	-0.18874578
234	0xbe29ff4f	-0.16601299
235	0xbe2d7946	-0.16940793
236	0xbe24e1a1	-0.16101696
237	0xbe30a531	-0.17250516
238	0xbd07d4c5	-0.033161897
239	0xbe2d47bc	-0.16921896
240	0x3d5df5c4	0.05418946
241	0x3dee94cc	0.116494745
242	0xbd391a89	-0.04519132
243	0x3d3046fe	0.043036453
244	0x3e28c096	0.16479716
245	0x3e4fb199	0.20282592
246	0xbd96a0b1	-0.07354868
247	0x3e599ace	0.2125046
248	0x3de713c3	0.11283066
249	0xbd50de11	-0.05099303
250	0xbda8c625	-0.08240918
251	0xbe00da2b	-0.12583224
252	0x3d8dac95	0.06917683
253	0x3e279deb	0.16368835
254	0xbdc71f40	-0.09722757
255	0x3ce4628b	0.02787902

3.bias f4 [32]
0	0xbd304df4	-0.043043092
1	0xbdc67731	-0.09690703
2	0xbc85184d	-0.01624694
3	0xbcb9e1da	-0.022690702
4	0xbcc82b51	-0.024434717
5	0xbcfc27cc	-0.030780695
6	0x3c09a7d6	0.008401832
7	0xbd2d770d	-0.042349864
8	0xbe8293a9	-0.2550328
9	0xbe164cc5	-0.14677723
10	0xbdfc9f14	-0.12335029
11	0xbc74cf6d	-0.014942032
12	0xbd1d8e80	-0.038465977
13	0xbe2b680c	-0.1673891
14	0xbd77742a	-0.060413517
15	0xbdd09b27	-0.10185843
16	0xbe09dedf	-0.13463925
17	0xbe13efee	-0.14446995
18	0xbd42ff7b	-0.047606926
19	0xbd8bc883	-0.06825354
20	0xbdfd07ed	-0.12355027
21	0xbd94178b	-0.07231053
22	0xbd3ed980	-0.046594143
23	0xbcf86fd7	-0.030326767
24	0x3c47407b	0.012161369
25	0xbddb54b0	-0.10709512
26	0xbdf943fb	-0.12171169
27	0xbdb99692	-0.09061922
28	0xbc32a6eb	-0.010904054
29	0xbe1d3933	-0.15353851
30	0xbe0780ea	-0.1323277
31	0xbd212c9d	-0.039349187

6.weight f4 [32, 32, 1, 2, 2]
0	0xbdeb126a	-0.114781216
1	0x3da5f488	0.08103281
2	0xbc9c5441	-0.019083144
3	0xbd82fc3b	-0.063957654
4	0x3d92b715	0.071638264
5	0x3db0c4a5	0.08631257
6	0x3d9867d3	0.07441678
7	0x3dab64b2	0.083688155
8	0x3d09672b	0.033545654
9	0x3c6bc372	0.0143898595
10	0xbe04055a	-0.12892666
11	0x3a7d36f5	0.00096593733
12	0x3e801934	0.25019228
13	0x3d55b072	0.052170224
14	0x3e3d0595	0.1845916
15	0x3e41389e	0.18869254
16	0x3e06d184	0.13165861
17	0xbc16f066	-0.009212589
18	0x3cf85244	0.030312665
19	0x3c7d7e87	0.015472061
20	0x3e10003c	0.1406259
21	0x3dabd879	0.08390898
22	0x3c963775	0.01833699
23	0x3c860898	0.01636152
24	0x3d8e9aae	0.069630966
25	0x3cc30fdc	0.023811273
26	0x3d968498	0.07349509
27	0x3e15a23c	0.14612669
28	0x3d6696ab	0.056296032
29	0x3d86902d	0.06570468
30	0x3e1889f5	0.14896376
31	0x3e0b067e	0.13576695
32	0x3e21c26b	0.15796821
33	0x3e02cdb1	0.12773778
34	0x3ccc9a67	0.024975969
35	0x3ea9c85c	0.33160675
36	0x3d7ac755	0.061225254
37	0x3d0cf5b6	0.034414016
38	0x3cb2a0cc	0.02180519
39	0xbdcc91a5	-0.09988717
40	0x3d1c7204	0.03819467
41	0x3dac363a	0.084087804
42	0x3e103dd7	0.1408609
43	0x3df4b715	0.119489826
44	0x3dbf5883	0.09343054
45	0xbcb70aaf	-0.022343962
46	0x3e0018c8	0.12509453
47	0x3bc06e1f	0.0058725025
48	0xbd1cbed1	-0.038267914
49	0x3d6f3eb7	0.05840942
50	0x3cf89ea4	0.030349083
51	0x3d97cc04	0.0741196
52	0x3981bdf6	0.0002474633
53	0x3d4e26f0	0.050330102
54	0xbd76340d	-0.060108233
55	0x3da1bec1	0.078977115
56	0x3db056c6	0.08610301
57	0x3c86341a	0.016382266
58	0xbceb7b97	-0.028745456
59	0x3dace1ae	0.084414825
60	0x3e3e8267	0.18604432
61	0xbcff55e5	-0.031168887
62	0x3d1778de	0.036980502
63	0x3d106bb3	0.03525896
64	0x3d1a7813	0.037712168
65	0x3d09738e	0.033557467
66	0x398232de	0.0002483343
67	0x3d6d2d45	0.0579045
68	0x3e52e9f1	0.20597054
69	0x3d994549	0.07483918
70	0x3dd72450	0.10504973
71	0xbd0fdc1a	-0.035122015
72	0xb8ab82c8	-8.178275e-05
73	0x3e2d8201	0.16944124
74	0x3df8231f	0.12116074
75	0x3dd2f250	0.10300124
76	0x3d8dee98	0.06930274
77	0x3d55f7b7	0.052238192
78	0x3df4784f	0.119370095
79	0x3daa457f	0.083140366
80	0x3e538488	0.20656025
81	0xbd8f330c	-0.06992158
82	0x3c4cb521	0.012494356
83	0xbcb7b190	-0.022423536
84	0x3d125aee	0.03573125
85	0x3dd1b06b	0.10238727
86	0x3d00b2ef	0.031420644
87	0xbc2d1faf	-0.010566636
88	0x3e1f5a6e	0.1556184
89	0x3d434d08	0.047680885
90	0x3d520f33	0.051284026
91	0x3dbc5033	0.09194984
92	0x3d88a59b	0.06672212
93	0x3deddeb5	0.116147436
94	0x3e2de833	0.16983108
95	0xbd0bf0f0	-0.034165323
96	0x3bad7d6f	0.005294494
97	0x3d64384f	0.055717763
98	0xbe055a02	-0.13022617
99	0xbc491afe	-0.012274502
100	0x3d934c19	0.07192249
101	0x3c74f59a	0.014951134
102	0x3dd15b8a	0.10222538
103	0x3c8d7682	0.017268423
104	0x3cc416ca	0.023936648
105	0x3cdf63c5	0.027269254
106	0x3e2bd520	0.1678052
107	0x3df90797	0.12159651
108	0x3bc67e4f	0.0060575376
109	0x3d51f00e	0.051254325
110	0x3db4c6d4	0.08826986
111	0x3e08b79e	0.13351294
112	0x3e083f73	0.13305454
113	0x3da81344	0.082067996
114	0x3dbee455	0.09320895
115	0xbd5b5737	-0.05354997
116	0x3eb9c5d3	0.3628374
117	0x3e74c29b	0.23902361
118	0x3e0995c0	0.13436031
119	0x3e1f0b24	0.15531594
120	0x3e015a7a	0.1263217
121	0x3da0c144	0.078493625
122	0x3d9d95b5	0.0769457
123	0x3da9ffad	0.083007194
124	0x3db1d0a0	0.0868237
125	0x3ad2a30a	0.0016070318
126	0x3c2ddf38	0.0106123015
127	0x3ca98c61	0.02069682
128	0x3d9437d0	0.07237208
129	0xbd9168f2	-0.07100095
130	0x3cb92fcd	0.022605801
131	0xbc0255ea	-0.007955054
132	0xbd1cbc70	-0.038265646
133	0xbd5a76b7	-0.05333587
134	0xbbd93660	-0.0066287965
135	0xbc3da59c	-0.011575129
136	0x3b186f79	0.0023259802
137	0xbddd926e	-0.10818945
138	0xbd938cfb	-0.07204624
139	0xbdfe0012	-0.12402357
140	0x3be50db1	0.0069901575
141	0xbb0488f2	-0.0020223227
142	0x3cee82b8	0.029115066
143	0xbe0430a8	-0.12909186
144	0xbde49675	-0.1116151
145	0xbdceaeb2	-0.10091914
146	0xbb7a4e6c	-0.0038193716
147	0xbd5ab743	-0.05339743
148	0x3cb4c060	0.022064388
149	0xbe2db903	-0.16965108
150	0x3cbb6452	0.022874985
151	0xbd5ceca6	-0.053936623
152	0xbce6db6a	-0.028180797
153	0x3de269f5	0.11055366
154	0xbe0fbd3c	-0.14037031
155	0x3c18f198	0.009334944
156	0x3ca888a4	0.020572968
157	0xbd82d363	-0.06387975
158	0x3caee164	0.021347709
159	0x3c7ff539	0.0156224305
160	0xbd513199	-0.05107269
161	0xbd86c0da	-0.06579752
162	0xbdc5fae8	-0.09666997
163	0xbdf7fcb7	-0.121087484
164	0xbdef9e89	-0.1170016
165	0xbc14b01c	-0.009075191
166	0xbcd9c9d9	-0.026585506
167	0xbc786ff0	-0.015163407
168	0xbdd8f283	-0.105931304
169	0xbd5bcb0a	-0.05366043
170	0xbddb06a0	-0.10694623
171	0xbe100cac	-0.14067334
172	0x3c60dd7a	0.013724679
173	0xbddec259	-0.108769126
174	0xbd90ec9b	-0.07076379
175	0x3b6a0594	0.0035708891
176	0xbd399c36	-0.04531499
177	0xbd84977e	-0.06474207
178	0xbcc93a38	-0.024563894
179	0xbe22da26	-0.1590353
180	0xbda822c3	-0.08209755
181	0xbda7d1f5	-0.08194343
182	0xbdf672f8	-0.12033647
183	0xbe1295cf	-0.1431496
184	0xbc6fe94b	-0.014643024
185	0xbe1f5a3c	-0.15561765
186	0xbe0163c9	-0.12635721
187	0x3cd44309	0.025910871
188	0xbe23bc7d	-0.15989871
189	0x3baf46ae	0.005349002
190	0xbe131c10	-0.14366174
191	0xbde9671a	-0.11396618
192	0xbe00d075	-0.1257952
193	0xbd7ae83f	-0.061256643
194	0xbd831d33	-0.06402054
195	0xbdb702ea	-0.08936103
196	0xbdd1fc69	-0.102532215
197	0xbd4ca7e8	-0.049964815
198	0xbe1deb1e	-0.15421721
199	0xbd4d3493	-0.050098967
200	0xbd07fb68	-0.033198744
201	0xbd8cb608	-0.06870657
202	0xbcf03c54	-0.029325642
203	0xbe0841e8	-0.13306391
204	0xbc7281e6	-0.014801478
205	0xbded5b8f	-0.11589729
206	0x3cdfe722	0.027331892
207	0xbcaa2b6c	-0.020772658
208	0xbdf07fd7	-0.117431335
209	0xbd916756	-0.07099788
210	0xbdec62e7	-0.115423016
211	0xbdd42ead	-0.10360465
212	0xbd30dde0	-0.043180346
213	0xbda176f0	-0.07884014
214	0xbd99ca60	-0.07509303
215	0xbd5b3baa	-0.053523697
216	0xbc7d7ca7	-0.015471614
217	0x3b86c57b	0.004112897
218	0x3baeee8c	0.0053384956
219	0xbd68a3f7	-0.056796994
220	0xbe0e6129	-0.13904251
221	0xbb815766	-0.0039471863
222	0xbdf4a9e6	-0.11946468
223	0xbba4bdc4	-0.0050275046
224	0xbd517661	-0.051138286
225	0xbda0d9c9	-0.07854039
226	0xbcaac885	-0.020847568
227	0x3d823f0a	0.0635968
228	0xbcf61cf8	-0.03004311
229	0xbdbea00e	-0.09307872
230	0x3b226a67	0.002478266
231	0xbb4d87e7	-0.0031361522
232	0xbdb4b780	-0.08824062
233	0xbdde466d	-0.108532764
234	0xbe1b0370	-0.1513803
235	0xbde24d2e	-0.11049877
236	0xbd902129	-0.07037575
237	0xbe0b1cda	-0.13585225
238	0xbcf3f378	-0.02977918
239	0x3c8c07d1	0.01709357
240	0xbd23c052	-0.039978333
241	0xbd7a92c7	-0.061175134
242	0xbde7e06b	-0.11322101
243	0xbcd71a62	-0.026257697
244	0xbe03a66f	-0.12856458
245	0x3c14d8fb	0.009084935
246	0xbe175b8c	-0.14781016
247	0xbde3fb7a	-0.1113195
248	0xbbfd19fa	-0.007724044
249	0x38fff6cd	0.00012205318
250	0xbb877f47	-0.0041350457
251	0xbd0d54d3	-0.034504723
252	0xbddb1603	-0.10697558
253	0xbd0b458d	-0.034001876
254	0xbd6ab684	-0.057302967
255	0xbdabab26	-0.08382253

6.bias f4 [32]
0	0xbe52568a	-0.20540825
1	0xbdd37991	-0.10325921
2	0xbe2a3a48	-0.16623795
3	0x3d8e2dba	0.069423154
4	0xbe60b3d0	-0.21943593
5	0xbe2b8559	-0.16750087
6	0xbe34b17f	-0.17645834
7	0xbdd01d7d	-0.101618744
8	0xbd42cacf	-0.047556695
9	0xbe80ed41	-0.2518101
10	0xbd2ca00b	-0.042144816
11	0xbdc15bc4	-0.09441331
12	0xbd6c9b41	-0.05776525
13	0xbc09ed30	-0.008418366
14	0xbde3f4de	-0.11130689
15	0xbe53a7e3	-0.20669512
16	0xbde9ca80	-0.11415577
17	0xbe061b37	-0.13096319
18	0x3e4376c1	0.1908827
19	0xbcb96ecc	-0.02263584
20	0xbe2d46b6	-0.16921505
21	0xbe015557	-0.12630211
22	0xbdefdf1c	-0.117124766
23	0x3d52edfa	0.051496483
24	0xbdcea3e5	-0.10089854
25	0xbda2daea	-0.07951911
26	0xbdbfa78f	-0.09358131
27	0xbd835053	-0.06411805
28	0xbe2e1895	-0.17001565
29	0xbcee9b36	-0.029126745
30	0xbdee3f30	-0.11633146
31	0xbd87c15c	-0.06628677

9.weight f4 [32, 32, 1, 2, 2]
0	0x3db2fc29	0.08739502
1	0x3e1597ee	0.14608738
2	0x3e42ca28	0.19022429
3	0xbdee55b4	-0.1163744
4	0xbcbda56e	-0.023150172
5	0x3dbc39e9	0.09190733
6	0x3cfc26b2	0.03078017
7	0x3da35896	0.07975881
8	0x3dbc3e6e	0.09191595
9	0xbd2b302a	-0.04179398
10	0xbd049031	-0.032364074
11	0x3c592204	0.013252739
12	0xbaeae9d9	-0.0017922475
13	0x3de8887c	0.11354157
14	0x3d831eb5	0.06402341
15	0xbd837808	-0.064193785
16	0x3e311ed1	0.17296912
17	0xbc410926	-0.011781966
18	0x3dfefa59	0.12450094
19	0xbe0ba053	-0.13635378
20	0x3d02b53c	0.03191112
21	0x3c551f48	0.013007946
22	0x3e2bad72	0.16765383
23	0xbe155318	-0.14582479
24	0x3e126fa9	0.14300407
25	0x3db4a3a7	0.08820277
26	0x3e29e1a3	0.1658998
27	0xbe1f98f1	-0.15585686
28	0x3ce90b0a	0.028447647
29	0x3d1a3d58	0.03765616
30	0x3e2cd1be	0.16876885
31	0xbd9e6ab4	-0.07735196
32	0xbdaa90ab	-0.083283745
33	0xbd227efe	-0.03967189
34	0xbd12f4dc	-0.035878047
35	0x3d69fc85	0.057125587
36	0xbbf4775b	-0.0074605173
37	0x3dc38040	0.09545946
38	0x3e19b68f	0.15011047
39	0xbe156f03	-0.14593129
40	0xbdd2c65d	-0.10291741
41	0xbd80fda5	-0.06298379
42	0xb9540000	-0.00020217896
43	0xbd1b5d50	-0.037930787
44	0x3e0e426c	0.13892525
45	0x3e40e925	0.18838938
46	0x3d24a4a2	0.04019607
47	0x3e057442	0.1303263
48	0x3d6a0772	0.057136007
49	0xbde3c123	-0.11120822
50	0x3e043af7	0.12913118
51	0xbd00fcab	-0.031490963
52	0xbe043ab1	-0.12913014
53	0xbde2ab34	-0.11067811
54	0xbd098c5b	-0.03358112
55	0x3baccd36	0.0052734865
56	0x3deef6bd	0.11668155
57	0xbcba386b	-0.02273198
58	0x3e14e9a5	0.14542253
59	0xbc2c9559	-0.010533654
60	0x3e01e035	0.12683184
61	0x3ddbeaae	0.10738121
62	0x3e52d936	0.20590672
63	0xbb6b2512	-0.003588025
64	0xbb20fef2	-0.0024566022
65	0x3e191d37	0.14952551
66	0x3e00f0ee	0.12591907
67	0x3dd57336	0.10422365
68	0x3e0cab69	0.13737263
69	0xbcb00553	-0.021486914
70	0xbcb989c0	-0.022648692
71	0x3dd9ac1e	0.10628532
72	0x3c19079e	0.009340195
73	0x3dd50e61	0.10403133
74	0xbc6eb74d	-0.0145700695
75	0x3c15b621	0.009137661
76	0xbb98a863	-0.004658745
77	0x3ca75350	0.020425469
78	0x3d845a2f	0.06462514
79	0xbe2f3dfc	-0.17113489
80	0x3dd29488	0.10282236
81	0x3e30fc9b	0.17283861
82	0xbc641b1e	-0.013922481
83	0xbc14d67a	-0.009084338
84	0x3e2d00ae	0.1689479
85	0xbd8e2418	-0.06940478
86	0x3d812a62	0.06306912
87	0xbd871e1e	-0.06597541
88	0x3e06a338	0.131482
89	0x3e105abe	0.14097115
90	0x3e0af17e	0.13568684
91	0x3b213c21	0.002460249
92	0x3cec86a3	0.028872794
93	0x3d2cae62	0.042158492
94	0xbdee9a68	-0.116505444
95	0xbe233236	-0.15937123
96	0xbd6af9c5	-0.057367105
97	0x3de557d4	0.111983925
98	0xbcde9d0d	-0.027174497
99	0xbd4ed936	-0.050500117
100	0x3e2b4f88	0.16729558
101	0xbcfd57db	-0.030925682
102	0x3e14eea7	0.14544164
103	0xbe9e266f	-0.30888698
104	0xbdef55a5	-0.11686257
105	0xbe06100c	-0.13092059
106	0xbdcf7616	-0.10129945
107	0x3e06f9a7	0.13181172
108	0xbc6124c7	-0.013741679
109	0xbda9fb2a	-0.08299859
110	0x3e0b6f5b	0.13616697
111	0xbdf5f32f	-0.12009274
112	0x3e84c8e6	0.25934523
113	0x3e621611	0.2207873
114	0xbc96ffcb	-0.018432518
115	0xbd34fb91	-0.044185225
116	0xbd8a8768	-0.06764108
117	0x3de6b875	0.11265651
118	0x3e0b383b	0.13595669
119	0xbe41f503	-0.18941121
120	0x3da600ca	0.08105619
121	0x3e10ed78	0.14153087
122	0x3e0b7b4e	0.13621256
123	0x3d6d9ad9	0.058009002
124	0x3d5b564b	0.053549092
125	0x3d93e427	0.07221251
126	0xbcb50483	-0.022096878
127	0x3d88f14f	0.06686651
128	0xbdb0352e	-0.08603893
129	0xbdbbf382	-0.09177305
130	0xba810ae1	-0.0009845161
131	0xbbba5503	-0.0056864037
132	0x3cda474b	0.026645323
133	0x3d8ec374	0.069708735
134	0x3dc82ef6	0.09774582
135	0xbb2d07ef	-0.0026402434
136	0x3d68bbb9	0.05681965
137	0x3d9c97bf	0.07646131
138	0xbcb845b4	-0.022494175
139	0x3cd9d087	0.026588691
140	0xbd84951f	-0.06473755
141	0xbe61d02b	-0.22052066
142	0xbe12306a	-0.14276281
143	0x3d452cd6	0.048138462
144	0x3d99b808	0.07505804
145	0xbd292847	-0.041298177
146	0x3a8686a4	0.0010263515
147	0xbd754c52	-0.059887238
148	0xbd8d37a4	-0.06895378
149	0xbe0cea98	-0.13761365
150	0xbdf6790d	-0.12034807
151	0xbe114e29	-0.14189972
152	0x3ccdff01	0.02514601
153	0xbcaf030d	-0.02136376
154	0xbdd11c2c	-0.102104515
155	0xbd8810e2	-0.06643845
156	0x3d5915d5	0.052999336
157	0x3c92d916	0.01792578
158	0x3de5307c	0.11190888
159	0xbd038cdd	-0.03211676
160	0x3d53f921	0.05175126
161	0x3b8bb13c	0.0042630713
162	0xbbc0f04c	-0.0058880206
163	0xbd0d14b2	-0.034443565
164	0xbdbe4acc	-0.0929161
165	0xbd7c4589	-0.06158975
166	0xbdb09b8c	-0.08623418
167	0xbdca487e	-0.09877108
168	0xbd2a6876	-0.041603528
169	0x3bdb4f19	0.006692779
170	0xbc7b98fe	-0.0153563
171	0xbdb08ab9	-0.08620209
172	0x3decde36	0.11565821
173	0x3d53db09	0.05172256
174	0x3dc9ed8c	0.098597616
175	0xbb864179	-0.0040971604
176	0x3d43ba10	0.047784865
177	0xbd05a4e6	-0.032627963
178	0xbde18926	-0.11012487
179	0xbd1532ef	-0.036425527
180	0xbda63249	-0.0811506
181	0xbd3b92c3	-0.04579426
182	0x3d07af79	0.03312633
183	0xbd268ee6	-0.040663622
184	0x3d99c87b	0.07508942
185	0x3d2d2a3d	0.04227661
186	0xbd96c034	-0.073608786
187	0x3c44ef1a	0.012019897
188	0xbe0b4d21	-0.13603641
189	0xbdd94704	-0.10609248
190	0xbd937933	-0.07200851
191	0xbe051da7	-0.12999593
192	0x3e047fd7	0.12939392
193	0x3c2add81	0.010428787
194	0x3d077fdc	0.03308092
195	0x3adabf42	0.0016689079
196	0x3d80e972	0.06294526
197	0xbc920fe5	-0.017829845
198	0x3cfb54d6	0.030680101
199	0x3cf863a2	0.030320946
200	0xbc4f7846	-0.012662953
201	0x3d332de8	0.04374495
202	0xbde26384	-0.11054137
203	0xbce84dcc	-0.028357409
204	0xbacc47f2	-0.0015585406
205	0xbdf5c2ab	-0.120000206
206	0x3c1c08d0	0.009523585
207	0xbdeab369	-0.11460001
208	0x3cf4dd92	0.02989081
209	0xbcc2ea65	-0.023793409
210	0x3df47d47	0.11937957
211	0x3dbd560a	0.09244926
212	0xbd5cb4ec	-0.053883478
213	0x3d204f96	0.0391384
214	0xbdf918be	-0.12162922
215	0xbb31691e	-0.0027070711
216	0x3cf24888	0.029575601
217	0x3d9df21a	0.07712193
218	0x3de5cc40	0.11220598
219	0x3d9fec21	0.0780871
220	0xbd17182a	-0.03688828
221	0x3deed14d	0.11661015
222	0xbcd20a80	-0.025639772
223	0x3d24d2d1	0.040240113
224	0x3d20b621	0.03923619
225	0xbdb533b5	-0.08847753
226	0xbd800755	-0.062513985
227	0xbcbf5739	-0.02335702
228	0xbc0002a5	-0.0078131305
229	0x3d2651de	0.04060542
230	0xbda19124	-0.078890115
231	0xbdcc5e89	-0.09978969
232	0x3d44bc8e	0.048031382
233	0xbc0150ff	-0.007892846
234	0x3db27186	0.08713059
235	0x3d4a03e3	0.049320113
236	0xbd14c39a	-0.036319353
237	0x3c8424a1	0.016130747
238	0x3d04578f	0.032310065
239	0x3c0eccf3	0.008715856
240	0xbd57c52e	-0.05267828
241	0xbc96cdbb	-0.018408647
242	0xbdbbb3ec	-0.09165177
243	0xbe036ac9	-0.12833704
244	0x3b175fbe	0.0023097838
245	0xbe123fd7	-0.14282165
246	0xbc0df4d3	-0.008664328
247	0xbe0e1a9a	-0.13877335
248	0x3c163fea	0.009170512
249	0x3db8f8d0	0.09031832
250	0x3c810f5f	0.0157544
251	0x3d1df7fb	0.03856657
252	0x3df5d821	0.12004114
253	0x3d766dce	0.06016331
254	0x3d69fb15	0.057124216
255	0x3db34cd5	0.08754889

9.bias f4 [32]
0	0xbc6a7b1d	-0.014311579
1	0xbd739708	-0.059470206
2	0xbd2fe856	-0.042946182
3	0xbe4c3415	-0.19941743
4	0xbd2e6b0b	-0.042582553
5	0xbd7a9786	-0.06117966
6	0xbd63f93c	-0.05565761
7	0xbd9cdd45	-0.07659391
8	0xbe2280df	-0.15869473
9	0xbdd5091c	-0.10402128
10	0xbe0f52ba	-0.13996401
11	0x3e2efe99	0.17089309
12	0xbc94a5a4	-0.01814539
13	0x3ca676ad	0.02032026
14	0xbe45ccd7	-0.19316421
15	0xbd9520f9	-0.0728168
16	0xbe0e4fe3	-0.13897662
17	0xbdf1406e	-0.11779867
18	0xbd15059f	-0.036382314
19	0xbe0e5920	-0.13901186
20	0xbabe1d2a	-0.0014504541
21	0xbdae17d8	-0.085006416
22	0xbdfdc3ff	-0.12390899
23	0xbcabccff	-0.020971773
24	0xbe24dda1	-0.1610017
25	0xbe205ea2	-0.156611
26	0xbcdb37ad	-0.026759947
27	0x3d43e05f	0.0478214
28	0xbd323d3f	-0.04351544
29	0xbdde4808	-0.108535826
30	0xbd22d6c8	-0.039755613
31	0x3e081162	0.13287881

12.weight f4 [16, 32, 1, 2, 2]
0	0x3de0bb83	0.10973265
1	0x3db49f8c	0.08819494
2	0xbc891223	-0.016732281
3	0xbdf584ec	-0.119882435
4	0x3af2bc40	0.0018519238
5	0xbd6f0c4e	-0.058361344
6	0xbd865fab	-0.06561216
7	0x3c9a762a	0.018855173
8	0xbd2d9358	-0.042376846
9	0x3d10a520	0.035313725
10	0xbc8732a5	-0.016503641
11	0xbdbc78dc	-0.092027396
12	0xbdd98ae0	-0.106221914
13	0x3da69d49	0.081354685
14	0xbe5fde74	-0.21862203
15	0xbe36ed68	-0.17864001
16	0x3c8a9427	0.016916348
17	0xbb157eb3	-0.0022811114
18	0xbc1cb1e9	-0.009563901
19	0xbdfdc735	-0.12391511
20	0x3e09b07c	0.1344623
21	0x3e4125d8	0.18862092
22	0xbe8091c0	-0.25111198
23	0xbc42c8ca	-0.011888692
24	0xbc80074f	-0.015628485
25	0x3d2f4fe4	0.0428008
26	0xbcc95a1c	-0.0245791
27	0xbe3645a0	-0.17799997
28	0x3d7d65b5	0.061864574
29	0xbe4e3761	-0.20138313
30	0xbd703f79	-0.058654282
31	0x3caac73d	0.020846957
32	0xbe03621e	-0.12830397
33	0x3d978c48	0.073998034
34	0xbe8c0885	-0.2735025
35	0xbe44e2ac	-0.19227093
36	0xbe3c23f5	-0.18373092
37	0x3b9f63ca	0.0048641907
38	0x3bfacbab	0.0076536736
39	0xbe0d080d	-0.13772602
40	0x3e053051	0.13006712
41	0xbe02d177	-0.12775217
42	0xbd1384b6	-0.036015235
43	0xbe0e96ce	-0.13924715
44	0x3d1093fb	0.035297375
45	0x3da4f8eb	0.0805529
46	0x3dd09931	0.10185469
47	0x3d8bfb65	0.06835059
48	0x3da35399	0.07974929
49	0xbdbdb68a	-0.09263332
50	0xbd4a981b	-0.049461465
51	0x3d21efc4	0.0395353
52	0xbd3e26e3	-0.046423804
53	0xbe07bf4c	-0.13256568
54	0x3de88b09	0.11354644
55	0xb81658af	-3.584538e-05
56	0x3da59107	0.080843024
57	0x3d7ca728	0.06168285
58	0xbe15ecce	-0.14641115
59	0xbc327ce4	-0.010894034
60	0x3e026bd4	0.12736446
61	0x3dc636e5	0.09678439
62	0x3c4571b7	0.0120510375
63	0xbdbd7b49	-0.092520304
64	0xbd2cc17d	-0.042176712
65	0x3d570d9b	0.05250321
66	0xbe6ed667	-0.23323976
67	0xbe5eaf0c	-0.21746463
68	0xbceb01dd	-0.028687412
69	0x3d8a4d1f	0.06752991
70	0xbe25b998	-0.1618408
71	0x3d0fe6f3	0.03513236
72	0xbdbd38d8	-0.09239358
73	0x3e0f0545	0.13966854
74	0xbe09c38b	-0.134535
75	0xbe494557	-0.19655357
76	0x3d0b1736	0.033957683
77	0x3db02ae2	0.08601929
78	0xbcb6f83c	-0.022335164
79	0xbd81a1b7	-0.06329673
80	0xbd02c49e	-0.03192579
81	0xbe1ee623	-0.15517478
82	0xbdd2e659	-0.102978416
83	0xbe1bc663	-0.15212397
84	0x3d6b3bd1	0.057430092
85	0x3dff8f40	0.12478495
86	0x3c42c5b5	0.011887957
87	0x3e373778	0.17892253
88	0x3a7eb4c1	0.00097162655
89	0xbd188a67	-0.037241366
90	0xbcf7f22f	-0.03026685
91	0xbdbc25e4	-0.091869146
92	0x3d08002d	0.033203293
93	0xbd6f005f	-0.058349963
94	0xbdfe26c2	-0.12409736
95	0xbe7f4ecc	-0.24932402
96	0xbdb48d32	-0.08815993
97	0x3df1a154	0.11798349
98	0xbe6e2c68	-0.23259127
99	0xbe501b22	-0.2032285
100	0x3ca51368	0.020150855
101	0x3c287b2e	0.010283275
102	0x3db28281	0.08716298
103	0x3db48f90	0.08816445
104	0xbcbb4f8e	-0.022865083
105	0xbd5a82db	-0.05334745
106	0xbcc60469	-0.024172025
107	0xbcf249b2	-0.029576156
108	0xbb6c4d9e	-0.0036057006
109	0x3dccc0c9	0.09997708
110	0x3da7203f	0.08160447
111	0x3d733bbe	0.059383146
112	0xbd82508c	-0.06363019
113	0xbd6caf42	-0.057784326
114	0x3a70f83c	0.0009192263
115	0xbdf83669	-0.12119753
116	0xbe113558	-0.14180505
117	0xbb9300de	-0.0044861874
118	0xbd428c78	-0.047497243
119	0xbce06a48	-0.027394429
120	0x3cd9a3dc	0.026567392
121	0x3d0cd707	0.034384754
122	0xbcbfead2	-0.0234274
123	0x3c1281dd	0.008942095
124	0x3da62810	0.0811311
125	0xbbec99e5	-0.007220494
126	0xbbfc6511	-0.0077024777
127	0x3d2f2115	0.04275616
128	0x3df6567a	0.12028213
129	0xbe36595a	-0.17807522
130	0x3ba91675	0.005160148
131	0xbd96b27c	-0.07358262
132	0x3da6dd6b	0.08147701
133	0x3d83d8f5	0.06437866
134	0x3dbed828	0.09318572
135	0x3d515c23	0.05111326
136	0x3e11b14e	0.14227793
137	0xbab5fe99	-0.001388508
138	0x3d7c37d1	0.06157667
139	0xbd00cac2	-0.031443365
140	0xbc05f557	-0.008176169
141	0xbc175cb7	-0.009238414
142	0x3e18484f	0.14871334
143	0xbd542cc1	-0.051800493
144	0xbd01adde	-0.031659953
145	0xbd76e5e0	-0.06027782
146	0xbcc4da0d	-0.024029756
147	0x3ddfe337	0.1093201
148	0xbd8056e0	-0.0626657
149	0xbd3b8549	-0.045781408
150	0x3c00988d	0.007848871
151	0xbd96abe6	-0.07357006
152	0x3e21c417	0.15797459
153	0xbe14d41c	-0.14534038
154	0xbe02f41d	-0.12788434
155	0xbe985853	-0.29754886
156	0xbd619750	-0.055075943
157	0x3e310f23	0.1729093
158	0x3d00573d	0.031333197
159	0xbdf732be	-0.12070225
160	0x3d176da8	0.03696981
161	0xbe34781c	-0.17623943
162	0x3e0bbb3d	0.13645644
163	0xbe0ce863	-0.13760523
164	0x3b280399	0.002563691
165	0x3d06be2b	0.032896202
166	0x3e213fe4	0.15747029
167	0x3c820c2f	0.01587495
168	0xbb3f528c	-0.002919349
169	0x3da1f9b0	0.07908952
170	0x3c95e735	0.018298725
171	0xbd0ee278	-0.034883946
172	0xbd8056a3	-0.06266525
173	0xbe38baa8	-0.18039954
174	0x3cbb3d38	0.02285634
175	0xbcf5eccc	-0.03002014
176	0xbe04daa9	-0.12974037
177	0x3cecb4f2	0.028894875
178	0xbd8999fd	-0.06718824
179	0x3d67aef9	0.05656335
180	0xbdeec8dd	-0.116594054
181	0xbdaedff4	-0.085388094
182	0xbe2592fb	-0.1616935
183	0xbe660782	-0.22463802
184	0xbdc5ec91	-0.09664262
185	0x3ded0c8a	0.11574657
186	0x3d985932	0.07438888
187	0xbd7709d9	-0.060312126
188	0xba5de7e7	-0.0008465037
189	0x3d39beac	0.045347854
190	0x3d37ce40	0.04487443
191	0x3c8d5992	0.017254625
192	0xbcb0d09b	-0.021583846
193	0xbd3c4b08	-0.045969993
194	0x3cd66663	0.026171869
195	0xbe190ee5	-0.14947088
196	0xbc42a8e8	-0.011881091
197	0xbd54d4b9	-0.05196068
198	0x3de3a77b	0.11115929
199	0xbda42541	-0.08014918
200	0xbe058d96	-0.13042292
201	0x3e0b18c1	0.13583662
202	0x3dd1bdb2	0.1024126
203	0x3d005fa4	0.03134121
204	0xbb04f239	-0.0020285978
205	0xbd85ead4	-0.065389305
206	0xbd8f5a73	-0.06999674
207	0xbd236f90	-0.039901316
208	0x3ddf3fc5	0.10900835
209	0xbebcbcba	-0.36862737
210	0x3e0f9acc	0.14023894
211	0x3c4d78bb	0.012540991
212	0x3cc4f900	0.024044514
213	0x3d89df17	0.06732004
214	0xbd2394ca	-0.03993682
215	0x3e40bef5	0.18822844
216	0xbc9236f0	-0.017848462
217	0x3d29af93	0.041427206
218	0xbcf1a072	-0.029495452
219	0x3c9c0d66	0.019049358
220	0x3e0b04ec	0.13576096
221	0xbe93e714	-0.28887236
222	0x3d258c81	0.040417198
223	0xbe2be0dd	-0.16784997
224	0x3d8f8b7f	0.07009029
225	0xbe08fbcc	-0.13377303
226	0x3c5e7dd7	0.013579807
227	0xbdceedf3	-0.10103979
228	0x3d9b749d	0.075906016
229	0xbddbc817	-0.107315235
230	0xbdda4833	-0.10658302
231	0xbd45f9b5	-0.048333842
232	0xbd301c66	-0.042995833
233	0xbde603d7	-0.11231201
234	0xbb393d74	-0.0028265389
235	0x3dfd591d	0.12370513
236	0x3cf29e44	0.029616483
237	0xbd4f5653	-0.050619435
238	0x3c8fec21	0.01756865
239	0xbd652045	-0.055938978
240	0xbc65c72e	-0.014024539
241	0xbe4a3186	-0.19745454
242	0xbe325464	-0.17415005
243	0x3c01ba8a	0.00791801
244	0x3c283f77	0.010269037
245	0x3ca8efab	0.020622095
246	0xbd314c96	-0.04328593
247	0xbd674130	-0.056458652
248	0xbe11faca	-0.14255825
249	0xbe007d6e	-0.12547848
250	0xbdd01386	-0.10159974
251	0xbe056744	-0.13027674
252	0x3d80895f	0.062762015
253	0xbe6da0c5	-0.2320586
254	0xbea971c4	-0.3309461
255	0xbce3cff0	-0.027809113

12.bias f4 [16]
0	0x3e76c49a	0.24098435
1	0xbd94f00c	-0.07272348
2	0xbcde9110	-0.02716878
3	0x3b6d6a6a	0.0036226758
4	0xbacf0968	-0.001579565
5	0xbd937827	-0.072006516
6	0xbdf25559	-0.11832685
7	0xbcba5b4c	-0.022748612
8	0x3e933554	0.28751624
9	0xbe66234e	-0.22474405
10	0xbdbf31c0	-0.09335661
11	0xbda67eb1	-0.08129633
12	0xbdb68462	-0.08911969
13	0x3e8493b7	0.25893947
14	0xbcafc78a	-0.021457452
15	0xbc326ffc	-0.010890957

17.weight f4 [24, 720]
0	0x3dfa337c	0.12216851
1	0x3e44d634	0.19222337
2	0x3cc64510	0.024202853
3	0xbe22d30c	-0.1590082
4	0xbd0e5334	-0.034747317
5	0xbda1c712	-0.07899298
6	0x3d3e037b	0.046390038
7	0x3d7ea16c	0.062165663
8	0xbd13c0fa	-0.03607271
9	0x3dd3687d	0.10322664
10	0x3e4bdec0	0.19909191
11	0x3a5eae77	0.0008494625
12	0xbdebc5d9	-0.11512346
13	0xbd647937	-0.055779662
14	0xbddb2bf3	-0.10701742
15	0x3cda54fa	0.026651848
16	0x3dc2ce48	0.09512001
17	0x3bdbfb3c	0.006713299
18	0x3e2be9e4	0.16788441
19	0x3e22e2b4	0.15906793
20	0x3d0f66d9	0.035010193
21	0x3d43cef4	0.047804788
22	0xbd88a4d6	-0.06672065
23	0xbdc9c3da	-0.09851809
24	0x3d388927	0.045052674
25	0x3da826db	0.08210536
26	0xbb81b5fb	-0.0039584613
27	0x3e2d09e3	0.16898303
28	0x3dd113f7	0.10208886
29	0x3d50cd7a	0.050977208
30	0x3d647dfb	0.055784207
31	0xbd9a3afd	-0.07530782
32	0xbd5f9830	-0.054588497
33	0x3dc72ac6	0.09724955
34	0x3ddec05e	0.10876535
35	0x3d284fad	0.04109161
36	0x3dfc146b	0.12308582
37	0x3d9a37ce	0.07530175
38	0x3d666b41	0.05625463
39	0xbd1e7f06	-0.038695358
40	0xbde4ac42	-0.11165668
41	0xbdabe838	-0.083939016
42	0x3e266598	0.16249692
43	0x3db7d8fb	0.089769326
44	0x3cf1b79b	0.029506495
45	0xbdc95e49	-0.098324366
46	0xbe6a0b9f	-0.22855996
47	0xbe647a13	-0.22312193
48	0xbe6d7913	-0.23190717
49	0xbcd1904d	-0.025581503
50	0xbe8ac098	-0.27100062
51	0xbe8e5671	-0.27800325
52	0x3e19587f	0.14975165
53	0xbe3aca00	-0.1824112
54	0xbce7fd6e	-0.028319087
55	0xbe01d671	-0.12679459
56	0xbdcfe594	-0.101512104
57	0xbe0d73f6	-0.13813767
58	0xbd7a0b55	-0.061045963
59	0xbe31eb45	-0.17374904
60	0xbe15148d	-0.14558621
61	0x3c4aa135	0.012367536
62	0xbda0930a	-0.078405455
63	0xbe6cf477	-0.23140131
64	0xbe28ee06	-0.16497049
65	0xbe51dc02	-0.20494083
66	0xbdd67744	-0.10471967
67	0x3d031c16	0.032009207
68	0xbe0fd507	-0.14046107
69	0xbda71cd0	-0.081597924
70	0x3cef75de	0.029231008
71	0xbd2b08f3	-0.04175658
72	0xbe3bf5a2	-0.1835542
73	0xbe173b0e	-0.14768621
74	0xbe5a6d21	-0.21330692
75	0xbe1b9c37	-0.1519631
76	0x3bf4937b	0.00746387
77	0xbe1ffcfe	-0.15623853
78	0xbe11bbef	-0.14231847
79	0xb8c87360	-9.5582334e-05
80	0xbdf6dc39	-0.12053723
81	0xbea6c7f6	-0.32574433
82	0xbd6dbe30	-0.058042705
83	0xbe75562b	-0.23958652
84	0xbe6cbb08	-0.23118222
85	0x3d445664	0.04793395
86	0xbe3a6c60	-0.18205404
87	0xbd9c1af5	-0.07622329
88	0x3cdf1a90	0.027234346
89	0xbdf20a56	-0.11818378
90	0x3d925dcc	0.071467966
91	0x3d960b5f	0.073263876
92	0x3da7a733	0.081861876
93	0x3dbbe0ba	0.091737226
94	0xbd496a1e	-0.049173467
95	0xbd3ecd33	-0.046582412
96	0x3d3af02b	0.0456392
97	0x3db091cf	0.08621561
98	0x3d9031b0	0.07040727
99	0x3d4c1623	0.0498258
100	0x3cd5bb20	0.026090205
101	0x3dbf700e	0.093475446
102	0x3d95bab3	0.07311001
103	0xbda42f65	-0.08016852
104	0x3d080a65	0.033213038
105	0x3db70e28	0.08938247
106	0x3d62019b	0.055177312
107	0x3d71479c	0.058906183
108	0xbd92b33b	-0.07163092
109	0x3cd93dd3	0.026518738
110	0xbd5a8b9c	-0.053355798
111	0x3d80156c	0.06254086
112	0xbd58cce2	-0.052929766
113	0x3d0ec4eb	0.034855764
114	0x3cc753ef	0.024332015
115	0x3dc5e566	0.09662895
116	0x3d03ec74	0.03220792
117	0x3d202443	0.039097082
118	0x3d222f02	0.03959561
119	0xbd912c76	-0.070885584
120	0x3d7db227	0.061937477
121	0xbdbd25e1	-0.092357405
122	0xbdc2d1ca	-0.0951267
123	0xbdaf3b21	-0.085562
124	0x3d96a2c9	0.073552676
125	0x3d75cbbd	0.060008753
126	0x3ced814e	0.028992321
127	0x3db65404	0.089027435
128	0xbd6c23a4	-0.057651177
129	0x3d69285c	0.056923255
130	0xbdb36d4f	-0.08761083
131	0xbcc040e4	-0.023468442
132	0xbd51c18d	-0.051209975
133	0x3d2b52a4	0.04182686
134	0x3d02eb8a	0.03196291
135	0x3e956164	0.29175866
136	0x3e80ce69	0.25157478
137	0x3e85e2b1	0.26149514
138	0xbe8aec03	-0.27133188
139	0xbd86d0ed	-0.06582818
140	0x3d407268	0.046984106
141	0x3e7ab8e6	0.24484596
142	0x3dd7fd06	0.10546307
143	0x3d2cfb9a	0.042232133
144	0x3ed6cc0a	0.41952544
145	0x3e73dcde	0.23814723
146	0x3e57dfc8	0.2108146
147	0xbe59ec74	-0.21281606
148	0xbd6bbb97	-0.057551946
149	0x3dfb5f32	0.122740164
150	0x3e343a60	0.17600393
151	0x3c7f5e47	0.015586442
152	0xbc526ba8	-0.01284305
153	0x3e2383ca	0.15968242
154	0x3e4c13a7	0.19929372
155	0x3e0155d3	0.12630396
156	0xbe8c165f	-0.27360818
157	0xbe0a1a74	-0.13486654
158	0xbdd37a15	-0.1032602
159	0x3e3d6694	0.18496162
160	0x3dcc9d73	0.099909686
161	0x3e55b539	0.20869912
162	0xbc479b1b	-0.012182976
163	0x3e28214d	0.16418953
164	0xbd9ea384	-0.07746032
165	0xbe06da96	-0.13169321
166	0xbd6e46f4	-0.058173135
167	0xbdbbfff2	-0.09179677
168	0x3e9ec0e8	0.3100655
169	0x3e144dfc	0.14482874
170	0x3e8c72fb	0.27431473
171	0x3e9af6e0	0.30266476
172	0x3e5d3339	0.21601571
173	0xbdc3d6d6	-0.09562461
174	0x3da99e8a	0.08282192
175	0xbd09ccd1	-0.033642594
176	0xbe4ea9d9	-0.20181979
177	0x3e93fad8	0.28902316
178	0x3ec6fb9a	0.38863832
179	0xbc72d3fd	-0.01482105
180	0xbe19ef1d	-0.1503262
181	0xbd3530b9	-0.04423592
182	0xbdbece68	-0.093167126
183	0xbd73b80c	-0.059501693
184	0xbccd7b8b	-0.025083324
185	0xbdf2d8fc	-0.11857793
186	0x3e0fb534	0.14033967
187	0x3d7fcaaf	0.062449154
188	0xbe160512	-0.14650372
189	0xbd94d613	-0.07267394
190	0xbdeb2822	-0.11482264
191	0xbd883214	-0.06650177
192	0xbd1db51d	-0.0385028
193	0xbd9c18ca	-0.07621916
194	0xbd74d416	-0.059772573
195	0x3dec9c07	0.11553197
196	0x3d2cd29a	0.042193033
197	0xbde9df7e	-0.11419581
198	0xbd898d03	-0.06716349
199	0x3d1f0e8c	0.038832232
200	0xbe1d93b8	-0.15388381
201	0xbd026f82	-0.031844623
202	0xbd83b383	-0.064307235
203	0x3d105d3a	0.035245158
204	0x3d8366ad	0.06416068
205	0x3d6c7cc6	0.05773618
206	0xbd85f326	-0.065405175
207	0xbda21c16	-0.07915513
208	0xbd784926	-0.060616635
209	0xbd8f6509	-0.07001693
210	0xbd1a69b5	-0.037698466
211	0xbd66e3b3	-0.056369495
212	0xbdf8fad5	-0.121572174
213	0x3deb8e3b	0.11501738
214	0x3d9e8d1b	0.077417575
215	0xbe005000	-0.12530518
216	0xbda6c86c	-0.08143696
217	0xbd27ffbf	-0.041015383
218	0xbdc47321	-0.095922716
219	0x3d87d9c6	0.06633334
220	0x3d542cf5	0.051800687
221	0xbe38b0aa	-0.18036142
222	0x3d8e4dcc	0.06948432
223	0x3dec783b	0.1154637
224	0xbe1ecfe0	-0.15508986
225	0xbbc8ab0e	-0.006123907
226	0x3ca24e50	0.019812733
227	0xbe042401	-0.1290436
228	0x3d9bf234	0.07614556
229	0x3d66af4f	0.05631953
230	0xbd8ec1f4	-0.069705874
231	0x3d598e85	0.053114433
232	0x3da17d83	0.078852676
233	0xbd1530a6	-0.036423348
234	0xbd0d31f4	-0.034471467
235	0x3d4923e9	0.049106512
236	0xbd8f5af2	-0.06999768
237	0x3dc034d0	0.09385073
238	0x3d872004	0.06597903
239	0xbd90d9ad	-0.07072768
240	0x3daf5395	0.08560864
241	0x3d1f2e6a	0.038862623
242	0xbd2f71fd	-0.042833317
243	0x3b928e75	0.0044725486
244	0x3d2ff7d9	0.042960975
245	0xbdd15245	-0.1022077
246	0x3cd46586	0.025927316
247	0x3d731be6	0.059352778
248	0xbd9345ad	-0.07191024
249	0x3da1dd0c	0.079034895
250	0x3da930e9	0.08261282
251	0x3d9dae04	0.076992065
252	0x3bbfb965	0.005850958
253	0x3bb481cb	0.0055086366
254	0xbd31986a	-0.043358244
255	0x3db8080b	0.08985909

17.bias f4 [24]
0	0xbd022cc6	-0.03178098
1	0x3d146b29	0.03623501
2	0xbda4897a	-0.08034034
3	0x3c479def	0.01218365
4	0xbd060341	-0.032717947
5	0x3e104d01	0.14091875
6	0xbdc92279	-0.09821028
7	0xbdb2d679	-0.08732314
8	0x3e54cf5b	0.20782225
9	0x3d3a2216	0.045442663
10	0x3cf2dd25	0.029646466
11	0xbd7bf6e0	-0.061514735
12	0xbd3acd62	-0.045606025
13	0x3d94b01a	0.07260151
14	0x3daa7e29	0.083248444
15	0xbd67ea65	-0.05662002
16	0xbd60aaa0	-0.05485022
17	0xbcf0425b	-0.029328516
18	0x3c8da79c	0.017291836
19	0x3dad229a	0.08453865
20	0xbd8cbf57	-0.06872433
21	0xbc6717a0	-0.014104754
22	0xbcea70b2	-0.02861819
23	0xbd89bb7c	-0.06725213
