conv1lr_0.01_model_weights.pth (torch, 134594 bytes, 14 tensors)

0.weight f4 [32, 1, 1, 3, 3]
0	0x3cc317c9	0.023815053
1	0xbaa15e5c	-0.0012311446
2	0x3e86ff3b	0.263666
3	0x3eaa7654	0.33293402
4	0x3ea842b5	0.32863393
5	0x3dc25ff4	0.09490958
6	0xbe3ac1c4	-0.18237978
7	0xbe34c56c	-0.17653435
8	0x3992afb4	0.000279782
9	0xbe41a568	-0.18910754
10	0xbf04e410	-0.51910496
11	0x3ea3f158	0.32020068
12	0xbdf1a9cf	-0.117999665
13	0x3e032011	0.12805201
14	0x3eaf4568	0.3423264
15	0xbb1a6fbc	-0.0023565134
16	0xbe91ed53	-0.28501377
17	0x3e4a54cf	0.19758914
18	0xbec300ec	-0.3808664
19	0xbcda01c0	-0.026612163
20	0xbe36eccb	-0.17863767
21	0xbdc3b4ad	-0.095559455
22	0x3e7d354f	0.24727367
23	0x3ebf8d14	0.37412322
24	0xbcc5ba7b	-0.024136772
25	0x3d118761	0.035529498
26	0x3c7430ab	0.0149041815
27	0xbe094893	-0.13406591
28	0xbd8892a3	-0.06668594
29	0x3e83203d	0.25610533
30	0x3e06bdd2	0.13158348
31	0xbe683380	-0.22675896
32	0xbe7b4cb9	-0.24540986
33	0x3e1a6c41	0.15080358
34	0x3c647aff	0.01394534
35	0xbbf3f80a	-0.00744534
36	0x3df26729	0.118360825
37	0x3e9c0756	0.30474347
38	0xbef4d787	-0.47820684
39	0x3e799879	0.2437457
40	0x3dd93eb2	0.10607661
41	0xbe30446f	-0.17213605
42	0xbe9a95bc	-0.30192363
43	0x3ea642ac	0.32472742
44	0xbedaac20	-0.42709446
45	0xbdbbe92c	-0.091753334
46	0x3d821a28	0.06352645
47	0xbeb39a8f	-0.35078856
48	0xbe6b3077	-0.22967707
49	0x3ea838fe	0.32855982
50	0x3dc11584	0.09427932
51	0xbe6936d5	-0.22774823
52	0x3ee51461	0.4474211
53	0x3edc86e9	0.43071678
54	0x3e9e2a73	0.3089176
55	0xbe26b791	-0.16280963
56	0xbe5f0065	-0.21777494
57	0xbd15fffb	-0.036621075
58	0x3eb53ad9	0.3539646
59	0xbe79998c	-0.2437498
60	0x3dd5bdd0	0.104365945
61	0xbe87dfc9	-0.26537922
62	0x3d3a474c	0.04547815
63	0x3eb3cb0b	0.35115847
64	0x3e0fb6e8	0.14034617
65	0xbed7c02c	-0.42138803
66	0x3ceb486b	0.028721055
67	0xbe6c138f	-0.23054336
68	0xbe45d9e3	-0.19321398
69	0x3ea64a96	0.3247878
70	0x3e7d69cf	0.24747394
71	0xbe892aa2	-0.2679034
72	0xbde43e85	-0.11144737
73	0x3e9f187f	0.31073377
74	0x3e82e272	0.2556339
75	0xbe878fe2	-0.2647696
76	0xbcce4bb1	-0.025182577
77	0xbe8422cd	-0.258078
78	0xbd23386c	-0.03984873
79	0xbd68e087	-0.05685475
80	0xbdef5d42	-0.116877094
81	0x3e962d56	0.29331464
82	0x3e667d04	0.22508627
83	0x3eb15c6f	0.34640834
84	0xbd616826	-0.055030964
85	0x3e72ed12	0.23723248
86	0x3e7c9a84	0.24668318
87	0x3e64e22b	0.22351901
88	0x3f0ed60a	0.5579535
89	0x3e81c9df	0.25349328
90	0xbe439cf2	-0.19102839
91	0xbe900cd6	-0.28134793
92	0x3dd9df85	0.10638336
93	0xbdf93e3c	-0.121700734
94	0xbe7e12ae	-0.24811813
95	0xbe6fe758	-0.23428094
96	0x3e14d5c6	0.14534673
97	0x3e1665fb	0.1468734
98	0xbea7e277	-0.32789966
99	0x3dd84583	0.10560133
100	0xbec00cee	-0.37509865
101	0x3e098f5d	0.13433595
102	0x3e8d6405	0.2761537
103	0xbe0f960c	-0.14022082
104	0xbe7764ad	-0.24159499
105	0x3cb0789e	0.02154189
106	0x3e9c2c71	0.30502656
107	0xbddf32a5	-0.108983316
108	0x3e108813	0.14114408
109	0x3eaeae90	0.34117556
110	0x3eb8b166	0.36072844
111	0xbe2dde55	-0.16979344
112	0xbeb5ba71	-0.35493806
113	0x3da60a97	0.081074886
114	0x3de77a61	0.11302639
115	0xbec7a325	-0.38991657
116	0xbdfd93af	-0.12381684
117	0xbda4aa8d	-0.080403425
118	0x3ec5cbbd	0.38632002
119	0xbdd1f730	-0.102522254
120	0xbd313125	-0.04325976
121	0x3ebb3c08	0.36569238
122	0xbe8a0eab	-0.26964316
123	0xbeada22a	-0.33912784
124	0xbe76a8f7	-0.24087892
125	0x3e92b760	0.2865553
126	0xbe389a08	-0.18027508
127	0xbbc714fc	-0.0060754996
128	0x3e013818	0.12619054
129	0xbe5ee13f	-0.21765612
130	0x3dcbb12e	0.09945904
131	0xbe6a7d3b	-0.22899334
132	0x3e97a28c	0.296162
133	0xbe14522f	-0.14484476
134	0x3d874f5b	0.06606933
135	0xbd852df7	-0.06502908
136	0x3e01d1a6	0.12677631
137	0xbedafcc3	-0.42770967
138	0x3eb93f1d	0.36180964
139	0x3e76ed92	0.24114063
140	0xbede9de0	-0.43479824
141	0x3ddcc16e	0.10779081
142	0x3b8cd5d7	0.0042979526
143	0xbe0c7f29	-0.13720383
144	0xbe201c72	-0.15635851
145	0xbd3ac485	-0.045597572
146	0xbdb780ba	-0.089600995
147	0xbe54def1	-0.2078817
148	0xbdcd265d	-0.10017083
149	0x3d38454c	0.04498796
150	0x3ea7c820	0.3276987
151	0xbe9ce57b	-0.3064383
152	0xbd1fe5e4	-0.0390376
153	0x3ed13e51	0.40867856
154	0xbe53bae4	-0.20676762
155	0xbd746682	-0.05966807
156	0xbe077f6e	-0.13232204
157	0xbe8306cb	-0.2559112
158	0x3e7a7b22	0.24461034
159	0xbea94cbd	-0.3306636
160	0x3e22ee8f	0.15911315
161	0x3e4b1bec	0.1983487
162	0xbebe733a	-0.37197286
163	0xbced5ded	-0.028975451
164	0x3e3859d3	0.18003015
165	0x3df1a53f	0.11799096
166	0x3e699ecd	0.22814484
167	0x3e90ad6e	0.28257316
168	0x3e699bcd	0.2281334
169	0xbe9e17a4	-0.3087741
170	0xbe895d2b	-0.26828894
171	0xbab10f18	-0.0013508527
172	0x3cd25c75	0.025678853
173	0xbe32d2d4	-0.17463237
174	0xbd9c08fa	-0.076189
175	0x3cfe753e	0.031061765
176	0xbe8f9cb0	-0.2804923
177	0x3e90fe66	0.2831909
178	0xb8c8aba6	-9.568715e-05
179	0x3e564819	0.2092594
180	0xbe6c5118	-0.2307781
181	0xbe8d40d9	-0.27588537
182	0xbe5b879f	-0.21438454
183	0x3e7d3895	0.24728616
184	0x3e4f2389	0.202284
185	0x3e1a2fc1	0.15057279
186	0x3ebc20c5	0.3674375
187	0x3e29e33d	0.16590591
188	0xbe4a3f9f	-0.19750832
189	0x3e9bbe51	0.30418637
190	0xbe10d1a5	-0.14142473
191	0xbe9ab6d8	-0.30217624
192	0xbe26f387	-0.16303836
193	0x3dcf9830	0.10136449
194	0x3ddcc82f	0.107803695
195	0x3e709eef	0.23498128
196	0x3e335a87	0.17515002
197	0xbe87e170	-0.26539183
198	0x3e83592b	0.25653967
199	0x3e7c6c4a	0.24650684
200	0xbef5796e	-0.47944206
201	0x3e8fc012	0.28076226
202	0x3ea0d9dd	0.31416216
203	0xbd8fe272	-0.07025613
204	0xbe60f074	-0.21966726
205	0xbe6ba4e3	-0.23012118
206	0xbe5b2e5a	-0.214044
207	0x3df3c3e6	0.11902599
208	0x3ea0c762	0.31402117
209	0xbe13ec37	-0.14445578
210	0xbe98dbb7	-0.2985513
211	0x3c9b0ce3	0.018927043
212	0xbe7a0ee4	-0.24419743
213	0x3ec2784a	0.37982398
214	0x3ec642e5	0.3872291
215	0xbebf274a	-0.37334663
216	0x3d3611de	0.044450633
217	0x3e200800	0.15628052
218	0xbd8c598d	-0.06853018
219	0x3e69f82f	0.22848581
220	0x3c832562	0.016009036
221	0x3e3fffab	0.18749873
222	0xbea83eb7	-0.32860348
223	0xbe2bcc88	-0.16777241
224	0xbdf428e3	-0.11921861
225	0x3ebdc003	0.37060556
226	0xbe9d6e45	-0.3074819
227	0xbe1f78d6	-0.15573439
228	0xbeb96d45	-0.3621618
229	0xbe1463ca	-0.14491192
230	0x3ede5a46	0.43428248
231	0xbe2bdd64	-0.16783673
232	0x3e4ad16d	0.19806452
233	0x3e80bc7d	0.25143805
234	0x3e841bf9	0.2580259
235	0x3e2f02bf	0.17090891
236	0x3eb808d5	0.35944238
237	0x3e59b12c	0.21258992
238	0x3e3abc75	0.18235953
239	0x3eec2725	0.46123615
240	0x3da1d870	0.0790261
241	0x3f14509e	0.5793551
242	0x3edc0f7d	0.42980567
243	0x3b853156	0.004064719
244	0x3e5cb0f0	0.21551871
245	0x3ee9faae	0.45699066
246	0xbde6d659	-0.11271352
247	0x3e912755	0.2835032
248	0x3e998bd9	0.29989508
249	0x3f05c368	0.5225129
250	0x3ef71bd7	0.48263428
251	0x3e6ef828	0.23336852
252	0xbe038b49	-0.12846102
253	0xbe144a00	-0.14481354
254	0xbdbc28b1	-0.09187449
255	0x3ea65e1b	0.32493672

0.bias f4 [32]
0	0xbe1eb6f8	-0.15499485
1	0xbe401e6d	-0.18761607
2	0xbdd58d2d	-0.10427318
3	0x3d33e0bf	0.043915506
4	0xbea27f41	-0.31737712
5	0x3e37c2e1	0.17945434
6	0xbcf7b9ea	-0.030240018
7	0xbdecee8c	-0.11568937
8	0xbe820234	-0.25392306
9	0x3de2cd17	0.11074274
10	0xbe0f74df	-0.14009427
11	0x3dd9042b	0.10596498
12	0xbe5c9cff	-0.21544264
13	0xbe417efe	-0.188961
14	0x3e1052e6	0.14094123
15	0xbe686a80	-0.22696877
16	0xbee038dc	-0.4379338
17	0xbe176b03	-0.14786915
18	0xbdbbc4af	-0.09168374
19	0xbe4c1216	-0.19928774
20	0xbc306662	-0.010766597
21	0x3c003517	0.007825158
22	0xbeb9d7a1	-0.36297324
23	0xbe1eef72	-0.15521029
24	0xbe9153e7	-0.28384325
25	0xbdb7425a	-0.089482024
26	0x3e2c3f0b	0.16820924
27	0x3e6c7835	0.2309273
28	0x3d3e0cad	0.046398807
29	0xbe1b6459	-0.15174998
30	0x3d394734	0.04523392
31	0xbe10f451	-0.141557

3.weight f4 [32, 32, 1, 2, 2]
0	0xbda7c9a4	-0.08192757
1	0x3be1c997	0.0068904865
2	0x3d1f8d55	0.038953144
3	0xbb7ea4aa	-0.0038855472
4	0x3bb6ef18	0.0055827014
5	0xbd928437	-0.07154124
6	0xbe1004f7	-0.14064394
7	0x3cc271af	0.02373585
8	0xbdd722e6	-0.10504703
9	0xbd29ce3f	-0.041456457
10	0x3d03b6f8	0.032156914
11	0x3b610dc1	0.0034340473
12	0xbd4393d3	-0.047748398
13	0xbd87b6e0	-0.066266775
14	0xbdd0cf5d	-0.101958014
15	0xbc9b9d56	-0.018995922
16	0xbda79b53	-0.081839226
17	0xbe030ff6	-0.12799057
18	0x3d576587	0.05258706
19	0xbdc70b96	-0.09719007
20	0xbd502b11	-0.05082232
21	0xbdfa0095	-0.12207142
22	0xbd8468bf	-0.06465291
23	0xbe05f9ce	-0.13083574
24	0xbd8fc0e4	-0.07019213
25	0x3d11dadd	0.035609115
26	0xbdf05464	-0.11734846
27	0xbd24239e	-0.04007303
28	0x3bc858ac	0.006114086
29	0xbdaecca7	-0.08535128
30	0xbde94303	-0.113897346
31	0xbc818e8f	-0.015815048
32	0xbd504833	-0.050850105
33	0x3c1a8e65	0.009433364
34	0xbdd02be1	-0.10164619
35	0xbbe2559d	-0.0069071786
36	0xbd8491f9	-0.064731546
37	0xbd85ea2a	-0.06538804
38	0xbd059244	-0.032610193
39	0xbc8c0722	-0.017093245
40	0xbdb8e250	-0.09027541
41	0xbdb23caf	-0.08702981
42	0xbe2beca9	-0.16789497
43	0x3ca251e8	0.019814447
44	0xbdbafb9b	-0.09130021
45	0xbc944d77	-0.018103344
46	0xbd6a2cec	-0.057171747
47	0xbdf09684	-0.117474586
48	0xbc93d6c4	-0.018046744
49	0xbbb02ffd	-0.0053768144
50	0xbdc17d66	-0.09447746
51	0xbd221554	-0.03957112
52	0xbc2bc2a4	-0.010483418
53	0xbd1eb9a9	-0.038751278
54	0xbb3217fb	-0.0027174938
55	0xbda05d5f	-0.07830309
56	0xbe30f294	-0.17280036
57	0xbd690331	-0.05688781
58	0xbde71576	-0.1128339
59	0xbdbc5810	-0.09196484
60	0x39cfc97f	0.00039632243
61	0xbdc8dc2d	-0.0980762
62	0xbdbbaa50	-0.09163344
63	0x3d1e2b10	0.038615286
64	0xbdb0b334	-0.0862793
65	0xbc8477ed	-0.016170466
66	0xbd852795	-0.0650169
67	0xbd80aaea	-0.06282599
68	0xbcf23ef6	-0.029571038
69	0xbe0d7e71	-0.13817765
70	0x3d97ad89	0.07406146
71	0xbdb24e8c	-0.08706388
72	0xbd5e54dc	-0.054280147
73	0xbe204797	-0.1565231
74	0xbe2c44b7	-0.16823088
75	0xbd13b865	-0.036064524
76	0x3d1494f4	0.036274865
77	0x3ba9ef9e	0.0051860353
78	0xbddf4b41	-0.109030254
79	0xbd99f353	-0.075171135
80	0xbd7fef59	-0.06248412
81	0xbd18d84a	-0.037315644
82	0xbdbba764	-0.091627866
83	0xbbcb3d8d	-0.006202406
84	0xbd0da27d	-0.03457879
85	0xbd0f2662	-0.034948714
86	0xbdbb36a4	-0.09141281
87	0xbc917946	-0.017758023
88	0xbc326b8a	-0.010889897
89	0xbdca16c9	-0.09867627
90	0xbd2c9ab4	-0.042139724
91	0xbdba1bbe	-0.09087323
92	0x3d29d5a6	0.041463517
93	0xbcd0fc29	-0.025510864
94	0xbd1c0b45	-0.038096685
95	0xbd951cb9	-0.07280869
96	0x3cd2800c	0.025695823
97	0xbdcb5c96	-0.09929769
98	0xbdd2d793	-0.10295024
99	0xbca2f333	-0.019891357
100	0x3c2822e9	0.0102622295
101	0xba004258	-0.00048926985
102	0x3d8d8042	0.06909229
103	0x3e0872ce	0.13325045
104	0xbd2e11e6	-0.042497538
105	0xbddf3344	-0.1089845
106	0xbda58d7e	-0.08083628
107	0xbd7bc4c2	-0.06146694
108	0xbd9a1539	-0.07523579
109	0xbb589963	-0.003305041
110	0x3d16d0a4	0.03682007
111	0xbddd0688	-0.10792261
112	0x3d0245f4	0.031804994
113	0xbd2d14fa	-0.042256333
114	0xbe0d4281	-0.137949
115	0xbe18bf93	-0.1491683
116	0xbd93e9bb	-0.07222315
117	0xbacc2fca	-0.0015578207
118	0xbd70cdc8	-0.05879
119	0x3d387e57	0.045042362
120	0xbdde95ea	-0.108684376
121	0xbcd88de5	-0.026434848
122	0xbcfb3496	-0.030664723
123	0xbe0aab77	-0.13541971
124	0x3b94ffdf	0.004547104
125	0xbdd7af83	-0.10531523
126	0x3c818b70	0.01581356
127	0xbd32d364	-0.04365863
128	0xbd9ed1d5	-0.07754866
129	0xbe5ded60	-0.21672583
130	0xbd340f34	-0.04395981
131	0xbe3a280e	-0.18179342
132	0xbd0f767e	-0.035025112
133	0x3e00e0a9	0.12585701
134	0x3d8945da	0.06702776
135	0x3da39c87	0.079888396
136	0x3e811b38	0.2521608
137	0x3d9c6db1	0.076381095
138	0x3d6ba40a	0.057529487
139	0x3cb925ad	0.022600973
140	0xbde50847	-0.111832194
141	0xbda07ee5	-0.07836703
142	0xbdee348b	-0.116311155
143	0x3d7882e3	0.0606717
144	0x3d2189dd	0.039438117
145	0x3dfbba7d	0.12291429
146	0xbd4cb460	-0.049976707
147	0x3e8768eb	0.26447234
148	0xbd858bc4	-0.06520799
149	0xbe014ab8	-0.12626159
150	0xbe1e7bcd	-0.15476914
151	0xbd8703c4	-0.06592515
152	0xbdd05189	-0.101718016
153	0x3cf68ad7	0.0300955
154	0xbe2f22f3	-0.17103176
155	0x3da45f6a	0.08026011
156	0xbddbddfc	-0.107356995
157	0x3de6737d	0.112524964
158	0xbdd6d283	-0.10489371
159	0x3e5051ee	0.20343754
160	0xbcd25fc8	-0.025680438
161	0xbd40583c	-0.046959147
162	0xbe05e670	-0.13076186
163	0xbd98c4b3	-0.074593924
164	0x3d122bfe	0.035686485
165	0xbdeb4067	-0.11486893
166	0xbc9ab443	-0.018884784
167	0xbe9e42d1	-0.30910352
168	0x3de29178	0.11062902
169	0x3d5873a2	0.05284465
170	0xbcca01de	-0.024659093
171	0xbd2de182	-0.04245139
172	0xbc7d882f	-0.015474363
173	0x3d2ff7e2	0.04296101
174	0xbdfd95aa	-0.12382062
175	0x3e192996	0.1495727
176	0xba8bbfbe	-0.0010662002
177	0x3b976dc5	0.00462124
178	0xbcd1d02e	-0.025611963
179	0xbc8b9551	-0.017038973
180	0x3d881399	0.06644363
181	0x3e5366f0	0.20644736
182	0xbd19eaf4	-0.037577584
183	0x3e66cfe1	0.22540237
184	0x3d5db495	0.054127295
185	0xbd51f9f7	-0.051263776
186	0xbcc10bf4	-0.02356527
187	0xbdc325f4	-0.09528723
188	0xbda6ff21	-0.08154131
189	0x3e5fad77	0.21843515
190	0xbe66e963	-0.22549967
191	0x3e075334	0.13215333
192	0x3d2cf808	0.04222873
193	0x3dd94f44	0.10610822
194	0xbbd7a46d	-0.0065808804
195	0x3d461e27	0.0483686
196	0x3e906e21	0.28209022
197	0xbdcb8960	-0.099383116
198	0xbdd5ad11	-0.104334004
199	0x3ddddde9	0.10833342
200	0xbd995f3c	-0.07488868
201	0xbc4a6fd5	-0.012355764
202	0xbb6ce3bf	-0.003614649
203	0xbdcfcc37	-0.10146373
204	0x3d1ade3a	0.037809588
205	0x3c803bcb	0.015653512
206	0xbd19682d	-0.037452865
207	0xbccfb448	-0.02535452
208	0x3d8e1cf5	0.06939117
209	0x3dc3a679	0.095532365
210	0x3bc18de4	0.0059068073
211	0x3d8495c0	0.06473875
212	0xbe13271a	-0.14370385
213	0x3c4571cf	0.01205106
214	0x3ae95412	0.0017801544
215	0x3e0b35e7	0.13594781
216	0x3ce0758e	0.027399804
217	0x3cf9ed15	0.030508557
218	0x3d88e203	0.06683733
219	0x3e49f53d	0.19722457
220	0x3c947afe	0.018125053
221	0xbca228f5	-0.01979492
222	0xbdef517b	-0.11685463
223	0x3d40394f	0.046929654
224	0x3d5d9cad	0.054104496
225	0xbe077a69	-0.1323029
226	0xbc5e1d99	-0.013556861
227	0x3d09ea07	0.03367045
228	0x3e4b5476	0.19856438
229	0xbd049025	-0.03236403
230	0xbe8ce065	-0.2751495
231	0x3d17304c	0.036911294
232	0x3d80921a	0.06277867
233	0xbe5e6c74	-0.21721059
234	0xbdec35c5	-0.11533693
235	0xbe65f8f9	-0.22458257
236	0xbd9371cf	-0.07199442
237	0xbe59bca5	-0.21263368
238	0x3c38d250	0.011280611
239	0xbea87718	-0.3290336
240	0x3d4c2185	0.049836654
241	0x3dfd7b05	0.1237698
242	0xbd772de1	-0.060346488
243	0x3c336eb5	0.010951688
244	0x3e31d15e	0.17365023
245	0x3e4cc59d	0.19997258
246	0xbd53be9d	-0.051695455
247	0x3e89be18	0.26902843
248	0x3de9dffd	0.114196755
249	0x3cc3a1c2	0.023880843
250	0xbdc66e7a	-0.096890405
251	0xbdde6116	-0.108583614
252	0x3dff7e44	0.12475255
253	0x3e1978ec	0.14987534
254	0xbe15f057	-0.14642464
255	0x3d8cfca3	0.06884124

3.bias f4 [32]
0	0xbd304df4	-0.043043092
1	0xbdfb3d09	-0.12267501
2	0xbca2602f	-0.019821255
3	0xbddf0545	-0.10889677
4	0x3be32d79	0.006932911
5	0xbd2573b5	-0.04039355
6	0x3bbd3453	0.00577406
7	0xbd2d770d	-0.042349864
8	0xbe99642c	-0.29959238
9	0xbe164cc5	-0.14677723
10	0xbdfc9f14	-0.12335029
11	0xbc74cf6d	-0.014942032
12	0xbdcbe603	-0.09955981
13	0xbe2b680c	-0.1673891
14	0xbd77742a	-0.060413517
15	0xbde321f7	-0.11090463
16	0xbe09dedf	-0.13463925
17	0xbe1b7359	-0.1518072
18	0xbd42ff7b	-0.047606926
19	0xbd8bc883	-0.06825354
20	0xbdd62617	-0.10456484
21	0xbd94178b	-0.07231053
22	0xbdd79483	-0.10526373
23	0xbce6f2e3	-0.02819199
24	0x3d90fd94	0.07079616
25	0xbddb54b0	-0.10709512
26	0xbde1828b	-0.11011227
27	0xbdb99692	-0.09061922
28	0x3cc4b26d	0.024010861
29	0xbe360621	-0.17775775
30	0xbe0780ea	-0.1323277
31	0xbd212c9d	-0.039349187

6.weight f4 [32, 32, 1, 2, 2]
0	0xbdeb126a	-0.114781216
1	0x3da5f488	0.08103281
2	0xbc9c5441	-0.019083144
3	0xbd82fc3b	-0.063957654
4	0x3d89304d	0.06698666
5	0x3dd293fc	0.10282132
6	0x3db1df29	0.086851425
7	0x3d2d0ad4	0.042246655
8	0x3d3c2322	0.045931943
9	0x3d13d553	0.036092114
10	0xbe06e726	-0.13174114
11	0xbc0dda29	-0.0086579705
12	0x3e3e8453	0.18605165
13	0x3d50168b	0.05080275
14	0x3e407367	0.18794023
15	0x3e23044d	0.1591961
16	0x3ddbed65	0.10738639
17	0xbb0ab6e5	-0.0021166143
18	0xbbf1aa91	-0.0073750694
19	0x3cece33c	0.028916948
20	0x3ded009c	0.11572382
21	0x3dcc4a0a	0.09975059
22	0x3bd31725	0.006441968
23	0x3d420fd0	0.04737836
24	0x3d2aa6d5	0.04166301
25	0x3bf2d60c	0.0074107703
26	0x3d64ee65	0.055891413
27	0x3d996e66	0.0749176
28	0x3d6696ab	0.056296032
29	0x3d86902d	0.06570468
30	0x3e1889f5	0.14896376
31	0x3e0b067e	0.13576695
32	0x3e4a2a9f	0.19742821
33	0x3e08fb82	0.13377193
34	0x395c4f50	0.00021010381
35	0x3eae6d7b	0.34067902
36	0x3d7ac755	0.061225254
37	0x3d0cf5b6	0.034414016
38	0x3cb2a0cc	0.02180519
39	0xbdcc91a5	-0.09988717
40	0x3d1c7204	0.03819467
41	0x3dac363a	0.084087804
42	0x3e103dd7	0.1408609
43	0x3df4b715	0.119489826
44	0x3dbf5883	0.09343054
45	0xbcb70aaf	-0.022343962
46	0x3e0018c8	0.12509453
47	0x3bc06e1f	0.0058725025
48	0xbd2aa1ce	-0.041658215
49	0x3d5638fa	0.05230043
50	0x3e0edcce	0.13951418
51	0x3de50b94	0.11183849
52	0x3981bdf6	0.0002474633
53	0x3d4e26f0	0.050330102
54	0xbd76340d	-0.060108233
55	0x3da1bec1	0.078977115
56	0x3db056c6	0.08610301
57	0x3c86341a	0.016382266
58	0xbceb7b97	-0.028745456
59	0x3dace1ae	0.084414825
60	0x3e4faa95	0.20279916
61	0xbc5cc01c	-0.013473537
62	0x3d5a44e6	0.053288363
63	0x3d3adfa2	0.04562343
64	0x3d1a7813	0.037712168
65	0x3d09738e	0.033557467
66	0x398232de	0.0002483343
67	0x3d6d2d45	0.0579045
68	0x3e45e8f7	0.1932715
69	0x3d67cd3a	0.056592204
70	0x3db239f9	0.08702464
71	0xbd021fd2	-0.031768627
72	0xb8ab82c8	-8.178275e-05
73	0x3e2d8201	0.16944124
74	0x3df8231f	0.12116074
75	0x3dd2f250	0.10300124
76	0x3d8dee98	0.06930274
77	0x3d55f7b7	0.052238192
78	0x3df4784f	0.119370095
79	0x3daa457f	0.083140366
80	0x3e5825d0	0.21108174
81	0xbd8ac8a2	-0.06776549
82	0xbbb7d8f8	-0.0056105815
83	0xbd23d503	-0.039998066
84	0x3d125aee	0.03573125
85	0x3dd1b06b	0.10238727
86	0x3d00b2ef	0.031420644
87	0xbc2d1faf	-0.010566636
88	0x3df5c201	0.11999894
89	0x3cceb3d6	0.025232237
90	0x3d9d6de1	0.07686973
91	0x3da2f49c	0.07956812
92	0x3d3f8541	0.04675794
93	0x3e10dd14	0.14146835
94	0x3e4a277a	0.19741622
95	0xbccc0a69	-0.024907308
96	0xba87548e	-0.0010324882
97	0x3d32f714	0.043692663
98	0xbe0ec1b8	-0.13941085
99	0xbd090478	-0.033451527
100	0x3d934c19	0.07192249
101	0x3c74f59a	0.014951134
102	0x3dd15b8a	0.10222538
103	0x3c8d7682	0.017268423
104	0x3c64ac0c	0.013957035
105	0x3cb5c07c	0.02218651
106	0x3e54302c	0.20721501
107	0x3e6e1dda	0.23253575
108	0x3bc67e4f	0.0060575376
109	0x3d51f00e	0.051254325
110	0x3db4c6d4	0.08826986
111	0x3e08b79e	0.13351294
112	0x3e016e94	0.12639838
113	0x3da1fd1d	0.07909606
114	0x3d91f858	0.07127446
115	0xbd42d04b	-0.047561925
116	0x3ebc4be0	0.36776638
117	0x3e578d57	0.2105001
118	0x3dd0c274	0.10193339
119	0x3e067c72	0.1313341
120	0x3e015a7a	0.1263217
121	0x3da0c144	0.078493625
122	0x3d9d95b5	0.0769457
123	0x3da9ffad	0.083007194
124	0x3db1d0a0	0.0868237
125	0x3ad2a30a	0.0016070318
126	0x3c2ddf38	0.0106123015
127	0x3ca98c61	0.02069682
128	0x3d9437d0	0.07237208
129	0xbd9168f2	-0.07100095
130	0x3cb92fcd	0.022605801
131	0xbc0255ea	-0.007955054
132	0xbd1cbc70	-0.038265646
133	0xbd5a76b7	-0.05333587
134	0xbbd93660	-0.0066287965
135	0xbc3da59c	-0.011575129
136	0x3b186f79	0.0023259802
137	0xbddd926e	-0.10818945
138	0xbd938cfb	-0.07204624
139	0xbe0b2925	-0.13589914
140	0x3be50db1	0.0069901575
141	0xbb0488f2	-0.0020223227
142	0x3cee82b8	0.029115066
143	0xbe0430a8	-0.12909186
144	0xbde49675	-0.1116151
145	0xbdceaeb2	-0.10091914
146	0xbb7a4e6c	-0.0038193716
147	0xbd5ab743	-0.05339743
148	0x3cb4c060	0.022064388
149	0xbe2db903	-0.16965108
150	0x3cbb6452	0.022874985
151	0xbd5ceca6	-0.053936623
152	0xbce6db6a	-0.028180797
153	0x3de269f5	0.11055366
154	0xbe0fbd3c	-0.14037031
155	0x3c18f198	0.009334944
156	0x3ca888a4	0.020572968
157	0xbd82d363	-0.06387975
158	0x3caee164	0.021347709
159	0x3c7ff539	0.0156224305
160	0xbd513199	-0.05107269
161	0xbd86c0da	-0.06579752
162	0xbdc5fae8	-0.09666997
163	0xbdf7fcb7	-0.121087484
164	0xbdef9e89	-0.1170016
165	0xbc14b01c	-0.009075191
166	0xbcd9c9d9	-0.026585506
167	0xbc786ff0	-0.015163407
168	0xbdd8f283	-0.105931304
169	0xbd5bcb0a	-0.05366043
170	0xbddb06a0	-0.10694623
171	0xbe100cac	-0.14067334
172	0x3c60dd7a	0.013724679
173	0xbddec259	-0.108769126
174	0xbd90ec9b	-0.07076379
175	0x3b6a0594	0.0035708891
176	0xbd399c36	-0.04531499
177	0xbd84977e	-0.06474207
178	0xbcc93a38	-0.024563894
179	0xbe22da26	-0.1590353
180	0xbda822c3	-0.08209755
181	0xbda7d1f5	-0.08194343
182	0xbdf672f8	-0.12033647
183	0xbe1295cf	-0.1431496
184	0xbc6fe94b	-0.014643024
185	0xbe1f5a3c	-0.15561765
186	0xbe0163c9	-0.12635721
187	0x3cd44309	0.025910871
188	0xbe23bc7d	-0.15989871
189	0x3baf46ae	0.005349002
190	0xbe131c10	-0.14366174
191	0xbde9671a	-0.11396618
192	0xbe00d075	-0.1257952
193	0xbd7ae83f	-0.061256643
194	0xbd831d33	-0.06402054
195	0xbdb702ea	-0.08936103
196	0xbdd1fc69	-0.102532215
197	0xbd4ca7e8	-0.049964815
198	0xbe1deb1e	-0.15421721
199	0xbd4d3493	-0.050098967
200	0xbd07fb68	-0.033198744
201	0xbd8cb608	-0.06870657
202	0xbcf03c54	-0.029325642
203	0xbe0841e8	-0.13306391
204	0xbc7281e6	-0.014801478
205	0xbded5b8f	-0.11589729
206	0x3cdfe722	0.027331892
207	0xbcaa2b6c	-0.020772658
208	0xbdf07fd7	-0.117431335
209	0xbd916756	-0.07099788
210	0xbdec62e7	-0.115423016
211	0xbe0331ee	-0.12812015
212	0xbd30dde0	-0.043180346
213	0xbda176f0	-0.07884014
214	0xbd99ca60	-0.07509303
215	0xbd5b3baa	-0.053523697
216	0xbc7d7ca7	-0.015471614
217	0x3b86c57b	0.004112897
218	0x3baeee8c	0.0053384956
219	0xbd68a3f7	-0.056796994
220	0xbe0e6129	-0.13904251
221	0xbb815766	-0.0039471863
222	0xbdf4a9e6	-0.11946468
223	0xbba4bdc4	-0.0050275046
224	0xbda91543	-0.082560085
225	0xbde1f2a1	-0.11032606
226	0xbd5413a4	-0.051776543
227	0xbc113a26	-0.008863961
228	0xbcf61cf8	-0.03004311
229	0xbdbea00e	-0.09307872
230	0x3b226a67	0.002478266
231	0xbb4d87e7	-0.0031361522
232	0xbdb4b780	-0.08824062
233	0xbdde466d	-0.108532764
234	0xbe1b0370	-0.1513803
235	0xbde24d2e	-0.11049877
236	0xbd902129	-0.07037575
237	0xbe0b1cda	-0.13585225
238	0xbcf3f378	-0.02977918
239	0x3c8c07d1	0.01709357
240	0xbd23c052	-0.039978333
241	0xbd7a92c7	-0.061175134
242	0xbde7e06b	-0.11322101
243	0xbc30672f	-0.010766788
244	0xbe03a66f	-0.12856458
245	0x3c14d8fb	0.009084935
246	0xbe175b8c	-0.14781016
247	0xbde3fb7a	-0.1113195
248	0xbbfd19fa	-0.007724044
249	0x38fff6cd	0.00012205318
250	0xbb877f47	-0.0041350457
251	0xbd0d54d3	-0.034504723
252	0xbddb1603	-0.10697558
253	0xbd0b458d	-0.034001876
254	0xbd6ab684	-0.057302967
255	0xbdabab26	-0.08382253

6.bias f4 [32]
0	0xbe8e5331	-0.27797845
1	0xbe2c629a	-0.16834489
2	0xbe598137	-0.21240698
3	0x3d66d985	0.056359787
4	0xbe5499d8	-0.20761812
5	0xbe78ebaf	-0.24308656
6	0xbe486f2f	-0.19573663
7	0xbdd01d7d	-0.101618744
8	0xbe174319	-0.1477169
9	0xbe90416a	-0.28174907
10	0xbdcb28f7	-0.09919923
11	0xbdf8c63a	-0.12147184
12	0xbd6e6d53	-0.05820973
13	0xbc198fa1	-0.009372623
14	0xbe1aa113	-0.15100507
15	0xbe75dfa4	-0.24011093
16	0xbde9ca80	-0.11415577
17	0xbe3d313f	-0.18475817
18	0x3e3776a8	0.17916358
19	0xbd489024	-0.04896559
20	0xbe2d46b6	-0.16921505
21	0xbe3f6cc5	-0.18693836
22	0xbdefdf1c	-0.117124766
23	0x3ca8addf	0.02059072
24	0xbe22244c	-0.15834159
25	0xbe229666	-0.15877685
26	0xbe379c8a	-0.17930809
27	0xbde58f24	-0.112089425
28	0xbe46db3e	-0.19419572
29	0x3c5ca150	0.013466194
30	0xbe270d92	-0.1631377
31	0xbdf203dc	-0.11817142

9.weight f4 [32, 32, 1, 2, 2]
0	0x3dea307c	0.11435029
1	0x3e438c60	0.19096518
2	0x3e505add	0.20347162
3	0xbd873f44	-0.06603864
4	0xbd8e0380	-0.06934261
5	0x3dbc39e9	0.09190733
6	0x3cfc26b2	0.03078017
7	0x3da35896	0.07975881
8	0x3dbdbba2	0.09264304
9	0xbd2b302a	-0.04179398
10	0xbd049031	-0.032364074
11	0x3c592204	0.013252739
12	0xbe2b5355	-0.16731007
13	0x3d52c25a	0.05145488
14	0xbdc66a32	-0.09688224
15	0xbe64c79a	-0.22341767
16	0x3e693ae1	0.22776367
17	0xbb16ff6d	-0.002304043
18	0x3e2ab7c6	0.16671667
19	0xbde7df9b	-0.11321946
20	0x3d88ef70	0.06686294
21	0x3d0b1d2f	0.03396338
22	0x3e4439c7	0.19162665
23	0xbdd4be83	-0.103879
24	0x3e3215cd	0.17391129
25	0x3dd3427a	0.10315414
26	0x3e3b9880	0.18319893
27	0xbe208f81	-0.15679742
28	0x3ce90b0a	0.028447647
29	0x3d1a3d58	0.03765616
30	0x3e2cd1be	0.16876885
31	0xbd9e6ab4	-0.07735196
32	0xbd86f395	-0.06589428
33	0xbda86804	-0.082229644
34	0xbd95d5a0	-0.07316136
35	0x3d8d64e4	0.06904009
36	0x3cc32a24	0.023823805
37	0x3decfaf3	0.11571302
38	0x3e30faf1	0.17283227
39	0xbdf5a318	-0.11993998
40	0xbdd694f4	-0.10477629
41	0xbe07bd15	-0.13255723
42	0xbe12cef0	-0.14336753
43	0xbde8d7fd	-0.113693215
44	0x3dca707d	0.09884737
45	0x3e10d7ff	0.14144896
46	0xbd753c8b	-0.05987219
47	0x3d725a73	0.05916829
48	0x3e1a8068	0.15088046
49	0xbe7e37f6	-0.24826035
50	0x3e0b6169	0.13611378
51	0xbd8fa0f3	-0.070131205
52	0xbdcf307f	-0.10116672
53	0xbda9ca01	-0.08290482
54	0xbdcd880e	-0.10035716
55	0xbd84cd61	-0.064844854
56	0x3dd5a373	0.10431566
57	0x3d893672	0.06699838
58	0x3deb9eb0	0.115048766
59	0xbc16d5bf	-0.0092062345
60	0x3df3315f	0.11874651
61	0x3df97674	0.12180796
62	0x3e66a446	0.22523603
63	0x3cff7feb	0.031188926
64	0xbb20fef2	-0.0024566022
65	0x3e191d37	0.14952551
66	0x3e00f0ee	0.12591907
67	0x3dd57336	0.10422365
68	0x3e0cab69	0.13737263
69	0xbcb00553	-0.021486914
70	0xbcb989c0	-0.022648692
71	0x3dd9ac1e	0.10628532
72	0xbe133dc0	-0.14379025
73	0xbc070413	-0.008240717
74	0xbda03993	-0.078234814
75	0xbe279dcf	-0.16368793
76	0xba904a15	-0.0011008406
77	0x3c8b1f84	0.016982801
78	0x3d44d176	0.04805132
79	0xbe7d6661	-0.24746086
80	0x3dd29488	0.10282236
81	0x3e30fc9b	0.17283861
82	0xbc641b1e	-0.013922481
83	0xbc14d67a	-0.009084338
84	0x3e3158bc	0.17319006
85	0xbdc30804	-0.09523013
86	0x3db7e403	0.08979037
87	0xbdff6f25	-0.12472371
88	0x3e06a338	0.131482
89	0x3e105abe	0.14097115
90	0x3e0af17e	0.13568684
91	0x3b213c21	0.002460249
92	0xbc217662	-0.009854885
93	0x3d6962ee	0.056979112
94	0xbe297924	-0.16550118
95	0xbee55d8d	-0.44797936
96	0xbd3fe703	-0.04685117
97	0x3e4e28a4	0.2013269
98	0x3b731ff4	0.0037097903
99	0x3c0a0942	0.008425059
100	0x3e2b0250	0.16700101
101	0xbdabb17b	-0.08383461
102	0x3e15ef1a	0.14641991
103	0xbed87964	-0.42280114
104	0xbe377942	-0.1791735
105	0xbda01e36	-0.07818262
106	0xbe2f870f	-0.17141365
107	0x3e2cc3b8	0.16871536
108	0xbdcacd40	-0.099024296
109	0xbde001c2	-0.10937835
110	0x3e22b0a3	0.15887694
111	0xbd501ce5	-0.050808806
112	0x3ebb5f20	0.36596012
113	0x3e7fe289	0.2498876
114	0x3cbfd363	0.023416227
115	0xbd87d84c	-0.06633052
116	0xbda93e61	-0.08263851
117	0x3d550bc2	0.052013166
118	0x3debdcd9	0.11516733
119	0xbe82ca84	-0.25545132
120	0x3d61b051	0.05509979
121	0x3e10e8f8	0.1415137
122	0x3e515354	0.20441943
123	0x3e03ab78	0.12858379
124	0x3d5b564b	0.053549092
125	0x3d93e427	0.07221251
126	0xbcb50483	-0.022096878
127	0x3d892081	0.06695653
128	0xbdb0352e	-0.08603893
129	0xbdbbf382	-0.09177305
130	0xba810ae1	-0.0009845161
131	0xbbba5503	-0.0056864037
132	0x3cda474b	0.026645323
133	0x3d8ec374	0.069708735
134	0x3dc82ef6	0.09774582
135	0xbb2d07ef	-0.0026402434
136	0x3d68bbb9	0.05681965
137	0x3d9c97bf	0.07646131
138	0xbcb845b4	-0.022494175
139	0x3cd9d087	0.026588691
140	0xbdeefcb1	-0.11669291
141	0xbe61d02b	-0.22052066
142	0xbe4761e8	-0.19470942
143	0xbb7ada0d	-0.003827694
144	0x3d99b808	0.07505804
145	0xbdbf685f	-0.09346079
146	0x3a8686a4	0.0010263515
147	0xbd754c52	-0.059887238
148	0xbd8d37a4	-0.06895378
149	0xbe0cea98	-0.13761365
150	0xbdf6790d	-0.12034807
151	0xbe114e29	-0.14189972
152	0x3ccdff01	0.02514601
153	0xbd95e11b	-0.07318326
154	0xbdd11c2c	-0.102104515
155	0xbd8810e2	-0.06643845
156	0x3d5915d5	0.052999336
157	0x3c92d916	0.01792578
158	0x3de5307c	0.11190888
159	0xbd038cdd	-0.03211676
160	0x3d53f921	0.05175126
161	0x3b8bb13c	0.0042630713
162	0xbbc0f04c	-0.0058880206
163	0xbd0d14b2	-0.034443565
164	0xbdbe4acc	-0.0929161
165	0xbde8df50	-0.113707185
166	0xbdb09b8c	-0.08623418
167	0xbdca487e	-0.09877108
168	0xbd2a6876	-0.041603528
169	0x3bdb4f19	0.006692779
170	0xbc7b98fe	-0.0153563
171	0xbdb08ab9	-0.08620209
172	0x3decde36	0.11565821
173	0x3d53db09	0.05172256
174	0x3dc9ed8c	0.098597616
175	0xbb864179	-0.0040971604
176	0x3d43ba10	0.047784865
177	0xbd05a4e6	-0.032627963
178	0xbde18926	-0.11012487
179	0xbd1532ef	-0.036425527
180	0xbda63249	-0.0811506
181	0xbd3b92c3	-0.04579426
182	0x3d07af79	0.03312633
183	0xbd268ee6	-0.040663622
184	0x3d99c87b	0.07508942
185	0x3d2d2a3d	0.04227661
186	0xbd96c034	-0.073608786
187	0x3c44ef1a	0.012019897
188	0xbe0b4d21	-0.13603641
189	0xbdd94704	-0.10609248
190	0xbd937933	-0.07200851
191	0xbe051da7	-0.12999593
192	0x3e047fd7	0.12939392
193	0x3c2add81	0.010428787
194	0x3d077fdc	0.03308092
195	0x3adabf42	0.0016689079
196	0x3d80e972	0.06294526
197	0xbc920fe5	-0.017829845
198	0x3cfb54d6	0.030680101
199	0x3cf863a2	0.030320946
200	0xbd849ce7	-0.06475239
201	0xbc090250	-0.008362368
202	0xbe268841	-0.16262914
203	0xbda4c276	-0.08044903
204	0xbacc47f2	-0.0015585406
205	0xbdf5c2ab	-0.120000206
206	0x3c1c08d0	0.009523585
207	0xbdeab369	-0.11460001
208	0x3cf4dd92	0.02989081
209	0xbcc2ea65	-0.023793409
210	0x3df47d47	0.11937957
211	0x3dbd560a	0.09244926
212	0xbd5cb4ec	-0.053883478
213	0xbc557913	-0.013029355
214	0xbdf918be	-0.12162922
215	0xbb31691e	-0.0027070711
216	0x3cf24888	0.029575601
217	0x3d9df21a	0.07712193
218	0x3de5cc40	0.11220598
219	0x3d9fec21	0.0780871
220	0xbdb58e8f	-0.088650815
221	0x3d83f75e	0.06443666
222	0xbd9e851b	-0.077402316
223	0xbc3ce4d0	-0.0115291625
224	0x3d20b621	0.03923619
225	0xbe0f2205	-0.13977821
226	0xbd800755	-0.062513985
227	0xbcbf5739	-0.02335702
228	0xbc0002a5	-0.0078131305
229	0xbc3da435	-0.011574795
230	0xbda19124	-0.078890115
231	0xbdcc5e89	-0.09978969
232	0x3d44bc8e	0.048031382
233	0xbd74f16a	-0.059800543
234	0x3db27186	0.08713059
235	0x3d4a03e3	0.049320113
236	0xbd14c39a	-0.036319353
237	0xbd13926f	-0.03602832
238	0x3d04578f	0.032310065
239	0xbd2ddfbb	-0.042449694
240	0xbd57c52e	-0.05267828
241	0xbd8e0800	-0.0693512
242	0xbdbbb3ec	-0.09165177
243	0xbe036ac9	-0.12833704
244	0x3b175fbe	0.0023097838
245	0xbe123fd7	-0.14282165
246	0xbc0df4d3	-0.008664328
247	0xbe3eecb8	-0.18644989
248	0x3c163fea	0.009170512
249	0x3db8f8d0	0.09031832
250	0x3c810f5f	0.0157544
251	0x3d1df7fb	0.03856657
252	0x3df5d821	0.12004114
253	0x3d766dce	0.06016331
254	0x3d69fb15	0.057124216
255	0x3db34cd5	0.08754889

9.bias f4 [32]
0	0xbcf86c9e	-0.03032523
1	0xbde4ac54	-0.111656815
2	0xbdc4cb3b	-0.09609076
3	0xbe9482fc	-0.29006183
4	0xbd2e6b0b	-0.042582553
5	0xbce2b0c0	-0.027672172
6	0xbc802502	-0.015642647
7	0xbe03ad65	-0.12859114
8	0xbe6e7ccc	-0.23289794
9	0xbda15e82	-0.07879354
10	0xbe411364	-0.18855053
11	0x3e4b91a1	0.19879772
12	0xbc94a5a4	-0.01814539
13	0xbd2282f5	-0.03967567
14	0xbe59597d	-0.21225543
15	0xbd676dbb	-0.05650113
16	0xbe15fb52	-0.14646652
17	0xbdf795b2	-0.12089099
18	0xbd057c75	-0.032589395
19	0xbe812257	-0.25221512
20	0x3cb68bba	0.022283424
21	0xbe27aaab	-0.16373698
22	0xbe233592	-0.15938404
23	0x3cef1394	0.02918414
24	0xbe44f2e3	-0.19233279
25	0xbe785ce7	-0.2425419
26	0xbcdb37ad	-0.026759947
27	0x3d49602f	0.049163993
28	0xbda988c3	-0.08278038
29	0xbdde4808	-0.108535826
30	0xbd22d6c8	-0.039755613
31	0x3dd1ef58	0.10250729

12.weight f4 [16, 32, 1, 2, 2]
0	0x3de8758e	0.11350547
1	0x3dabc6db	0.08387538
2	0x3c854d90	0.016272336
3	0xbe105c69	-0.14097752
4	0x3af2bc40	0.0018519238
5	0xbd6f0c4e	-0.058361344
6	0xbd865fab	-0.06561216
7	0x3c9a762a	0.018855173
8	0xbd2d9358	-0.042376846
9	0x3d10a520	0.035313725
10	0xbc8732a5	-0.016503641
11	0xbdbc78dc	-0.092027396
12	0xbdedaf06	-0.11605649
13	0x3d8e492c	0.0694755
14	0xbe1426fb	-0.14467995
15	0xbe4ddbfb	-0.20103447
16	0x3c8a9427	0.016916348
17	0xbb157eb3	-0.0022811114
18	0xbc1cb1e9	-0.009563901
19	0xbdfdc735	-0.12391511
20	0x3d6f841d	0.058475602
21	0x3e4bf26c	0.19916695
22	0xbe344e69	-0.17608036
23	0xbc8d62b1	-0.017258974
24	0x3c058c27	0.008151091
25	0x3c434fba	0.011920864
26	0x3cbf1cec	0.02332922
27	0xbe88a1ba	-0.26685888
28	0x3d7d65b5	0.061864574
29	0xbe4e3761	-0.20138313
30	0xbd703f79	-0.058654282
31	0x3caac73d	0.020846957
32	0xbe31d25b	-0.173654
33	0x3d4fb398	0.050708383
34	0xbea432ec	-0.320701
35	0xbe816964	-0.2527572
36	0xbe1cc8e9	-0.15311016
37	0xbdf56c8c	-0.11983594
38	0xbc004330	-0.007828519
39	0xbe229e3c	-0.15880674
40	0x3e053051	0.13006712
41	0xbe02d177	-0.12775217
42	0xbd1384b6	-0.036015235
43	0xbe0e96ce	-0.13924715
44	0x3d8c8e90	0.06863129
45	0x3e087acf	0.13328098
46	0x3e153d03	0.14574055
47	0x3df55186	0.1197844
48	0x3da35399	0.07974929
49	0xbdbdb68a	-0.09263332
50	0xbd4a981b	-0.049461465
51	0x3d21efc4	0.0395353
52	0xbd3e26e3	-0.046423804
53	0xbd95b78e	-0.07310401
54	0x3d607156	0.054795586
55	0xbd74843e	-0.05969643
56	0x3bc21ee5	0.005924093
57	0x3d8a172f	0.06742703
58	0x3bca26c9	0.0061691743
59	0xbd02e179	-0.03195331
60	0x3d76a3e5	0.060214896
61	0x3d845852	0.06462158
62	0x3c9d3b7b	0.019193402
63	0xbde48c0a	-0.11159523
64	0xbe1ce303	-0.15320973
65	0x3d5b5c8c	0.053555056
66	0xbe39fd58	-0.18163049
67	0xbe8d2940	-0.27570534
68	0xbc721259	-0.014774882
69	0x3e02cd3f	0.12773608
70	0xbe032f31	-0.12810971
71	0x3d3af60f	0.045644816
72	0xbe5c475f	-0.21511601
73	0x3e258616	0.16164431
74	0xbc4ed77a	-0.012624616
75	0xbe927bf6	-0.286102
76	0x3dd348c4	0.10316613
77	0x3e3b7085	0.18304642
78	0xbdd76ea6	-0.105191514
79	0xbd31ab97	-0.04337653
80	0x3c92d209	0.017922418
81	0xbe21f2f8	-0.15815341
82	0xbe0d7499	-0.1381401
83	0xbb8aa047	-0.0042305323
84	0x3d6b3bd1	0.057430092
85	0x3dff8f40	0.12478495
86	0x3c42c5b5	0.011887957
87	0x3e373778	0.17892253
88	0x3a7eb4c1	0.00097162655
89	0xbd188a67	-0.037241366
90	0xbcf7f22f	-0.03026685
91	0xbdbc25e4	-0.091869146
92	0x3e116909	0.14200224
93	0xbd835c6b	-0.06414112
94	0xbdf3b4f0	-0.118997455
95	0xbe8a0d24	-0.2696315
96	0xbdcb6434	-0.099312216
97	0x3e041517	0.1289867
98	0xbdfcfd38	-0.12352985
99	0xbe8480a4	-0.25879395
100	0xbd231f56	-0.039824806
101	0xbd4b7313	-0.04967029
102	0x3db27a6e	0.08714758
103	0x3e19d30f	0.15021919
104	0xbcbb4f8e	-0.022865083
105	0xbd5a82db	-0.05334745
106	0xbcc60469	-0.024172025
107	0xbcf249b2	-0.029576156
108	0xbbe2476e	-0.0069054877
109	0x3ddc00a7	0.10742312
110	0x3da4f1a9	0.080539055
111	0x3d723bfb	0.059139233
112	0xbd938d09	-0.07204635
113	0xbd803587	-0.062602095
114	0xbe105b48	-0.14097321
115	0xbd85582d	-0.06510959
116	0xbe113558	-0.14180505
117	0xbb9300de	-0.0044861874
118	0xbd428c78	-0.047497243
119	0xbce06a48	-0.027394429
120	0x3cd9a3dc	0.026567392
121	0x3d0cd707	0.034384754
122	0xbcbfead2	-0.0234274
123	0x3c1281dd	0.008942095
124	0x3e0a694a	0.13516727
125	0xb9c33889	-0.0003723542
126	0xbc0131da	-0.007885421
127	0x3d2e88b7	0.04261085
128	0x3e0358d4	0.12826854
129	0xbe4fb6f8	-0.20284641
130	0x3b9c54c4	0.004770847
131	0xbda2b9de	-0.079456076
132	0x3da6dd6b	0.08147701
133	0x3c657303	0.014004472
134	0x3dbed828	0.09318572
135	0x3d515c23	0.05111326
136	0x3e11b14e	0.14227793
137	0xbab5fe99	-0.001388508
138	0x3d7c37d1	0.06157667
139	0xbd00cac2	-0.031443365
140	0x3bc04991	0.005868145
141	0xbd75ebe2	-0.06003941
142	0x3e331fb3	0.17492561
143	0xbdaa9a88	-0.08330256
144	0xbd01adde	-0.031659953
145	0xbd76e5e0	-0.06027782
146	0xbcc4da0d	-0.024029756
147	0x3ddfe337	0.1093201
148	0xbd1fe4a7	-0.03903642
149	0xbd665f3b	-0.056243163
150	0x3d508d43	0.050915968
151	0xbd9860fd	-0.07440374
152	0x3e32af51	0.1744969
153	0xbdd05564	-0.10172537
154	0xbe1fffe5	-0.1562496
155	0xbebf9df0	-0.37425184
156	0xbd619750	-0.055075943
157	0x3e310f23	0.1729093
158	0x3d00573d	0.031333197
159	0xbdf732be	-0.12070225
160	0x3d102e22	0.035200246
161	0xbde76bce	-0.11299859
162	0x3e38d030	0.18048167
163	0xbdec79d2	-0.11546673
164	0xbda07060	-0.07833934
165	0xbe90f090	-0.28308535
166	0x3e63e544	0.22255427
167	0xbe0bc322	-0.13648656
168	0x3d0da963	0.034585368
169	0x3da1f9b0	0.07908952
170	0x3c963b7a	0.018338908
171	0xbd0ee278	-0.034883946
172	0xbdf066f0	-0.11738384
173	0xbe63d0df	-0.22247647
174	0xbd32d273	-0.04365773
175	0xbd607040	-0.05479455
176	0xbe04daa9	-0.12974037
177	0x3cecb4f2	0.028894875
178	0xbd8999fd	-0.06718824
179	0x3d67aef9	0.05656335
180	0xbe2f2aef	-0.17106222
181	0xbcd0b9a6	-0.02547915
182	0xbdd1bae8	-0.10240728
183	0xbe28a20f	-0.1646807
184	0xbda0d91e	-0.07853912
185	0x3d4c6591	0.04990155
186	0x3db797da	0.0896451
187	0xbd8be8b8	-0.06831497
188	0xbd2fc31b	-0.042910676
189	0x3d283084	0.041061893
190	0xbbb03443	-0.005377324
191	0x3d0f72bc	0.03502153
192	0xbc1f4cce	-0.0097229015
193	0xbd4a95d2	-0.049459286
194	0x3ceaf3ec	0.028680764
195	0xbe3d575a	-0.18490353
196	0xbc9177b8	-0.017757282
197	0xbe85dabd	-0.26143447
198	0x3de67a2f	0.112537734
199	0xbdd6bb9a	-0.10485001
200	0xbe252ab1	-0.16129567
201	0x3e2e1958	0.17001855
202	0x3e178fdc	0.14800972
203	0x3cd18e8a	0.025580663
204	0x3d61bab0	0.05510968
205	0x3cf767d1	0.03020087
206	0xbc82a7de	-0.015949186
207	0xbe2f1af7	-0.1710013
208	0x3dc8ee68	0.098110974
209	0xbedb27ad	-0.42803708
210	0x3e0ef7b9	0.13961686
211	0x3b0c0465	0.0021364924
212	0x3cc4f900	0.024044514
213	0x3d89df17	0.06732004
214	0xbd2394ca	-0.03993682
215	0x3e40bef5	0.18822844
216	0xbc9236f0	-0.017848462
217	0x3d29af93	0.041427206
218	0xbcf1a072	-0.029495452
219	0x3c9c0d66	0.019049358
220	0x3e13acc9	0.14421381
221	0xbeb6b9d5	-0.35688654
222	0x3cc1284a	0.023578782
223	0xbe5a55aa	-0.21321741
224	0x3dadd455	0.08487765
225	0xbe12ce7c	-0.1433658
226	0x3c993971	0.018704148
227	0xbe151ce8	-0.14561808
228	0x3d9b749d	0.075906016
229	0xbddbc817	-0.107315235
230	0xbdda4833	-0.10658302
231	0xbd45f9b5	-0.048333842
232	0xbd301c66	-0.042995833
233	0xbde603d7	-0.11231201
234	0xbb393d74	-0.0028265389
235	0x3dfd591d	0.12370513
236	0xbcc09c0a	-0.023511905
237	0xbe006cd9	-0.12541522
238	0x3d308b85	0.043101806
239	0xbdb3ea84	-0.08784965
240	0xbc2e3ede	-0.010635106
241	0xbe176f56	-0.14788565
242	0xbe4e6f4f	-0.20159648
243	0x3d92c825	0.07167081
244	0x3c283f77	0.010269037
245	0x3ca8efab	0.020622095
246	0xbd314c96	-0.04328593
247	0xbd674130	-0.056458652
248	0xbe11faca	-0.14255825
249	0xbe007d6e	-0.12547848
250	0xbdd01386	-0.10159974
251	0xbe056744	-0.13027674
252	0x3d8a19d3	0.06743207
253	0xbe8fae8f	-0.28062865
254	0xbeca7675	-0.395435
255	0xbd847ae9	-0.06468756

12.bias f4 [16]
0	0x3e98455c	0.29740417
1	0xbdc644e8	-0.096811116
2	0xbcde9110	-0.02716878
3	0x39f7bd7e	0.00047252694
4	0xbbf7d4a4	-0.0075631905
5	0xbd937827	-0.072006516
6	0xbda4345e	-0.08017801
7	0xbd86d087	-0.06582742
8	0x3eadf468	0.3397553
9	0xbe8a592a	-0.27021152
10	0xbe09d8a4	-0.13461548
11	0x3cf066ec	0.029345952
12	0xbdb68462	-0.08911969
13	0x3e8c004a	0.2734397
14	0xbda42682	-0.08015157
15	0xbc326ffc	-0.010890957

17.weight f4 [24, 720]
0	0x3da2d946	0.07951598
1	0x3e3610db	0.17779867
2	0xba263ca2	-0.00063414325
3	0xbe2e10dd	-0.1699862
4	0x3c805af2	0.015668366
5	0xbd8b0850	-0.06788695
6	0x3e1c6552	0.15273026
7	0x3ce35f6a	0.027755458
8	0xbc9ad2b2	-0.018899295
9	0x3d7a6f33	0.061141204
10	0x3e3dc980	0.18533897
11	0xbd10060d	-0.03516202
12	0xbd93648b	-0.071969114
13	0xbc3513db	-0.011052097
14	0xbe1f94b5	-0.15584071
15	0x3e48ee58	0.19622171
16	0x3d7d930c	0.061907813
17	0x3deeb941	0.11656428
18	0x3e0f9b30	0.14024043
19	0x3de32649	0.11091287
20	0x3b22500e	0.0024766955
21	0x3d8079d1	0.06273235
22	0xbd08282d	-0.03324144
23	0xbd9ef7b7	-0.077620916
24	0x3e5c8a08	0.2153703
25	0x3ce7de4a	0.028304238
26	0x3dc0ddb3	0.09417286
27	0x3ddfb34f	0.10922872
28	0x3d14cde1	0.036329154
29	0x3d33e592	0.043920107
30	0x3d51cf26	0.051222943
31	0xbd1f960f	-0.038961466
32	0xbcdd8ae4	-0.027043767
33	0x3e5a56f2	0.2132223
34	0x3e1931b8	0.14960372
35	0x3e37c5a5	0.17946489
36	0x3df5e310	0.12006199
37	0x3d46d706	0.048544906
38	0x3d502c99	0.05082378
39	0xbd1ef216	-0.03880509
40	0xbda1e8a2	-0.07905699
41	0xbd6c718b	-0.05772547
42	0x3e058b31	0.13041379
43	0x3e110056	0.14160284
44	0x3da7c7a1	0.08192373
45	0xbe4e46fa	-0.20144263
46	0xbe64975d	-0.22323366
47	0xbe7f2f74	-0.24920446
48	0xbecc0aaa	-0.39851886
49	0xbd854c37	-0.065086775
50	0xbe81252d	-0.25223675
51	0xbf0849f2	-0.5323783
52	0x3e0e1f27	0.13879071
53	0xbe9a695c	-0.30158508
54	0xbdf62cbb	-0.120202504
55	0xbe24aea2	-0.16082242
56	0xbe0ab969	-0.13547291
57	0xbe721bc5	-0.23643406
58	0xbdc5372d	-0.096296646
59	0xbe047f8f	-0.12939285
60	0xbec4bb17	-0.38423988
61	0x3c6183d4	0.01376434
62	0xbda64e4a	-0.08120401
63	0xbe97e080	-0.29663467
64	0xbe31c981	-0.17362024
65	0xbea35147	-0.31897947
66	0xbe36596e	-0.17807552
67	0x3c9467ed	0.018115962
68	0xbcf5252d	-0.029924953
69	0xbe481e46	-0.19542798
70	0x3d591622	0.052999623
71	0x3e00b725	0.12569864
72	0xbe0d060c	-0.13771838
73	0xbeb0b2dc	-0.3451146
74	0xbea9e284	-0.3318063
75	0xbd976171	-0.07391632
76	0xbc81ad42	-0.015829686
77	0xbe671216	-0.22565493
78	0xbe6a7345	-0.22895534
79	0x37bb5690	2.2332446e-05
80	0xbda50278	-0.080571115
81	0xbe807532	-0.25089413
82	0xbe437b8a	-0.19090095
83	0xbec0333c	-0.3753909
84	0xbe1dd877	-0.15414606
85	0x3d22d406	0.039752983
86	0xbea669ce	-0.32502598
87	0xbddb0f8f	-0.10696327
88	0x3d5c160f	0.053731974
89	0xbe00706f	-0.1254289
90	0x3d925dcc	0.071467966
91	0x3d960b5f	0.073263876
92	0x3da7a733	0.081861876
93	0x3dbbe0ba	0.091737226
94	0xbd496a1e	-0.049173467
95	0xbd3ecd33	-0.046582412
96	0x3d3af02b	0.0456392
97	0x3db091cf	0.08621561
98	0x3d9031b0	0.07040727
99	0x3d4c1623	0.0498258
100	0x3cd5bb20	0.026090205
101	0x3dbf700e	0.093475446
102	0x3d95bab3	0.07311001
103	0xbda42f65	-0.08016852
104	0x3d080a65	0.033213038
105	0x3db70e28	0.08938247
106	0x3d62019b	0.055177312
107	0x3d71479c	0.058906183
108	0xbd92b33b	-0.07163092
109	0x3cd93dd3	0.026518738
110	0xbd5a8b9c	-0.053355798
111	0x3d80156c	0.06254086
112	0xbd58cce2	-0.052929766
113	0x3d0ec4eb	0.034855764
114	0x3cc753ef	0.024332015
115	0x3dc5e566	0.09662895
116	0x3d03ec74	0.03220792
117	0x3d202443	0.039097082
118	0x3d222f02	0.03959561
119	0xbd912c76	-0.070885584
120	0x3d7db227	0.061937477
121	0xbdbd25e1	-0.092357405
122	0xbdc2d1ca	-0.0951267
123	0xbdaf3b21	-0.085562
124	0x3d96a2c9	0.073552676
125	0x3d75cbbd	0.060008753
126	0x3ced814e	0.028992321
127	0x3db65404	0.089027435
128	0xbd6c23a4	-0.057651177
129	0x3d69285c	0.056923255
130	0xbdb36d4f	-0.08761083
131	0xbcc040e4	-0.023468442
132	0xbd51c18d	-0.051209975
133	0x3d2b52a4	0.04182686
134	0x3d02eb8a	0.03196291
135	0x3eae8a1b	0.3408974
136	0x3dd1f92c	0.10252604
137	0x3eab6410	0.3347478
138	0xbe8a0433	-0.2695633
139	0xbdb3f14e	-0.087862596
140	0xbc3bec3f	-0.0114699
141	0x3ed909e4	0.42390358
142	0x3d69768e	0.05699783
143	0xbc9796b1	-0.018504472
144	0x3ecf9ae6	0.40547866
145	0x3dcc3a9d	0.09972117
146	0x3e65e593	0.22450857
147	0xbe5a39d7	-0.21311127
148	0xbdf963da	-0.12177248
149	0xbdb4c68c	-0.08826932
150	0x3e92b3a3	0.28652677
151	0xbc6795a3	-0.014134797
152	0x3d62e366	0.055392645
153	0x3e1adc85	0.15123184
154	0x3e156677	0.14589868
155	0x3eb571b1	0.35438302
156	0xbe9f25a2	-0.310834
157	0xbe57b6b3	-0.21065788
158	0xbe99af37	-0.3001649
159	0x3e665c35	0.22496112
160	0x3dfa7208	0.12228781
161	0x3ecb5294	0.3971144
162	0xbe0412be	-0.12897775
163	0x3de2fd71	0.11083496
164	0x3dda8286	0.106694266
165	0xbe2fa63f	-0.17153262
166	0xbde9e7ed	-0.114211895
167	0xbe22560f	-0.15853141
168	0x3eac9877	0.3371007
169	0x3dec7910	0.11546528
170	0x3ec41be0	0.38302517
171	0x3e4980aa	0.19677988
172	0x3e1cd9da	0.15317479
173	0xbe268833	-0.16262893
174	0x3dc8943a	0.09793897
175	0xbe08d588	-0.13362706
176	0xbe74f5cd	-0.2392189
177	0x3e991476	0.29898423
178	0x3eb2c890	0.34918642
179	0x3d7a527e	0.061113827
180	0xbe4a190a	-0.19736114
181	0xbe1e7da1	-0.15477611
182	0xbe5f8790	-0.21829057
183	0xbcb642ff	-0.022248743
184	0xbd605206	-0.054765724
185	0xbe36257e	-0.1778774
186	0x3e2e1d35	0.17003329
187	0x3de51011	0.11184705
188	0xbe2fd40a	-0.1717073
189	0xbe2920ad	-0.16516371
190	0xbe206f5f	-0.15667485
191	0x3dec6380	0.115424156
192	0xbcad1947	-0.021130217
193	0xbe26a8bb	-0.16275303
194	0xbe07bd02	-0.13255695
195	0x3e131a51	0.14365508
196	0x3d9c7f9e	0.076415285
197	0xbdf4ed44	-0.11959317
198	0xbdccbbc8	-0.09996754
199	0x3d9a0751	0.07520927
200	0x3d4679ca	0.04845599
201	0x3cfc5aaf	0.03080496
202	0xbd9d37ff	-0.07676696
203	0x3cfb64ed	0.030687774
204	0x3d7393d9	0.05946717
205	0x3d8f7290	0.07004273
206	0xbd5f076e	-0.054450445
207	0xbe34a60d	-0.17641468
208	0xbdce9475	-0.1008691
209	0x3c2fe92e	0.010736747
210	0x3c94d53a	0.01816808
211	0xbd8c476e	-0.06849562
212	0xbe29c4e6	-0.16579017
213	0x3e05bf51	0.13061263
214	0x3d9039d3	0.07042279
215	0xbdc97f4b	-0.09838732
216	0xbe584cfb	-0.21123116
217	0x3d0301c4	0.031984106
218	0xbdd9935e	-0.10623811
219	0x3dd11225	0.10208539
220	0x3ceb70f6	0.028740387
221	0xbe8d1df1	-0.27561906
222	0x3d9fc355	0.078009285
223	0x3dfec147	0.124392085
224	0xbe14c467	-0.14528047
225	0xbbc8ab0e	-0.006123907
226	0x3ca24e50	0.019812733
227	0xbe042401	-0.1290436
228	0x3d9bf234	0.07614556
229	0x3d66af4f	0.05631953
230	0xbd8ec1f4	-0.069705874
231	0x3d598e85	0.053114433
232	0x3da17d83	0.078852676
233	0xbd1530a6	-0.036423348
234	0xbd0d31f4	-0.034471467
235	0x3d4923e9	0.049106512
236	0xbd8f5af2	-0.06999768
237	0x3dc034d0	0.09385073
238	0x3d872004	0.06597903
239	0xbd90d9ad	-0.07072768
240	0x3daf5395	0.08560864
241	0x3d1f2e6a	0.038862623
242	0xbd2f71fd	-0.042833317
243	0x3b928e75	0.0044725486
244	0x3d2ff7d9	0.042960975
245	0xbdd15245	-0.1022077
246	0x3cd46586	0.025927316
247	0x3d731be6	0.059352778
248	0xbd9345ad	-0.07191024
249	0x3da1dd0c	0.079034895
250	0x3da930e9	0.08261282
251	0x3d9dae04	0.076992065
252	0x3bbfb965	0.005850958
253	0x3bb481cb	0.0055086366
254	0xbd31986a	-0.043358244
255	0x3db8080b	0.08985909

17.bias f4 [24]
0	0xbd81aa3d	-0.063312985
1	0x3d9d5cc0	0.07683706
2	0xbda4897a	-0.08034034
3	0x3cecdeae	0.028914776
4	0xbd0a3ce4	-0.033749476
5	0x3e47188f	0.19442962
6	0xbe1769d8	-0.1478647
7	0xbdb2d679	-0.08732314
8	0x3e7645a6	0.24050006
9	0xba70a504	-0.00091798627
10	0x3d56d0b2	0.05244512
11	0xbd7bf6e0	-0.061514735
12	0xbd3acd62	-0.045606025
13	0x3cbf928e	0.023385312
14	0x3da63422	0.08115412
15	0xbd67ea65	-0.05662002
16	0xbd60aaa0	-0.05485022
17	0xbcf0425b	-0.029328516
18	0xbce60b37	-0.02808152
19	0x3dde717c	0.10861489
20	0xbdb606d2	-0.088880196
21	0x3c42f445	0.011899059
22	0xbda47dd5	-0.08031813
23	0xbd89bb7c	-0.06725213
