conv1lr_0.001_model_weights.pth (torch, 134612 bytes, 14 tensors)

0.weight f4 [32, 1, 1, 3, 3]
000000 fa e5 2f 3d 6a 30 b2 bc be 26 6f 3e 01 9f 81 3e
       0.042943932 -0.021751601 0.23354623 0.25316623
000010 76 8e 63 3e 1d c6 8b 3d 2e 4c 35 be 29 b5 28 be
       0.22222313 0.068248965 -0.17704841 -0.16475357
000020 e4 1f 1d 3c 85 ba 24 be 66 ec ff be 08 a4 9d 3e
       0.009590123 -0.16086777 -0.49985045 0.30789208
000030 56 81 b1 bd c4 54 0e 3e 06 4d b0 3e 9b e5 cc bb
       -0.08667247 0.13899523 0.34433764 -0.006252957
000040 30 9f a8 be e1 af 22 3e 87 b3 ba be 6f 23 f5 bc
       -0.3293395 0.15887405 -0.36465093 -0.029924123
000050 53 df 47 be 0b d3 ad bd 92 93 69 3e ed ea bc 3e
       -0.19518785 -0.08487519 0.228102 0.36897984
000060 20 08 29 bd 8d 60 6a bc 13 ba d8 3b e2 ff eb bd
       -0.041267514 -0.014305246 0.0066139787 -0.11523415
000070 48 4d 56 bd e9 44 83 3e bf 9a 13 3e 37 b0 55 be
       -0.052319795 0.25638512 0.144145 -0.20868002
000080 41 14 70 be 87 02 07 3e 47 9a 61 bc b0 18 5a bb
       -0.23445226 0.13184558 -0.013769693 -0.0033278875
000090 a0 db 18 3e 67 37 a5 3e 8d 04 e3 be 69 58 85 3e
       0.1492753 0.3226883 -0.4433941 0.26044014
0000a0 29 6b dd 3d b2 50 07 be b0 2c 91 be 0b 78 a9 3e
       0.10811455 -0.13214377 -0.28354406 0.33099398
0000b0 3f ef d6 be b8 43 0d be 36 bc b7 3d c4 6d 96 be
       -0.41979405 -0.13795364 0.08971445 -0.2938062
0000c0 c1 4c 7f be 14 4d 9c 3e a6 d2 03 3e 62 cf 58 be
       -0.24931623 0.30527556 0.12873325 -0.2117286
0000d0 c0 8f bd 3e 0c b0 e5 3e 66 07 af 3e 01 b9 1f be
       0.37023735 0.44860876 0.34185332 -0.15597917
0000e0 1e 9f 3b be 3e c7 25 bc 42 3e b9 3e cd ad 66 be
       -0.18322417 -0.010118304 0.3618031 -0.22527237
0000f0 bc 3c ef 3d c0 25 87 be 0a be 4b 3d f4 67 bd 3e
       0.11681506 -0.26395988 0.049741782 0.36993372
000100 1a 73 33 3e 47 d0 d2 be 01 53 19 3d da 7a 55 be
       0.17524377 -0.41174528 0.037432674 -0.20847645
000110 44 44 59 be 03 83 ab 3e 5c 9a 7d 3e d8 67 8d be
       -0.21217448 0.33498392 0.24765915 -0.2761829
000120 eb 9d e1 bd df 82 98 3e 29 b0 7c 3e c1 8f 80 be
       -0.110164486 0.29787347 0.24676575 -0.25109676
000130 f7 84 00 bc 43 f5 6e be aa 12 0e bd 42 35 60 bd
       -0.007844201 -0.23335747 -0.03468577 -0.05473829
000140 d4 b5 dd bd 61 22 af 3e 21 1a 0c 3e ac bb 8c 3e
       -0.108256966 0.34205917 0.13681842 0.27486932
000150 d7 3e 90 3d dd 5d 5b 3e 6e d4 64 3e 8e 1b 80 3e
       0.07043236 0.21422525 0.2234666 0.25021023
000160 c1 fa f3 3e db bc 47 3e 23 6e 47 be 89 29 9a be
       0.47652248 0.19505636 -0.19475608 -0.30109814
000170 57 7f 92 3d 3b 21 0a be 74 c0 78 be fe e3 6e be
       0.071531944 -0.13489239 -0.24292165 -0.2332916
000180 9c 2a 06 3e d2 87 2b 3e 11 5d 97 be e6 73 1a 3e
       0.13102192 0.1675103 -0.29563192 0.15083274
000190 8c 90 aa be db 49 2d 3e 77 1e 94 3e 01 f6 f9 bd
       -0.33313406 0.16922705 0.28929493 -0.12205125
0001a0 25 1f 5b be 4e 9b 70 3b 3c 7a 89 3e e5 65 c7 bd
       -0.213986 0.0036713663 0.2685107 -0.09736232
0001b0 71 37 29 3e ce c8 a0 3e c3 79 ab 3e b6 d0 2b be
       0.16525055 0.31403202 0.33491334 -0.16778836
0001c0 15 1d b8 be 43 3a cd 3d af 31 dd 3d 74 a6 be be
       -0.35959688 0.10020878 0.10800492 -0.3723637
0001d0 cc 5e d2 bd 06 b2 dc bd 01 b0 c2 3e fb 44 b8 bd
       -0.10271987 -0.10776143 0.38024905 -0.08997532
0001e0 6a d3 89 bd 25 ad bf 3e c8 09 80 be 51 a1 ab be
       -0.06729777 0.37436786 -0.25007463 -0.33521512
0001f0 6f 27 70 be 3b eb 9f 3e ab b4 48 be 98 fd 8c bc
       -0.23452543 0.31234154 -0.1960017 -0.017210767
000200 6a 8a f2 3d 1e cd 85 be 4e b1 b6 3d c5 48 7b be
       0.11842807 -0.26133054 0.08920537 -0.24539478
000210 6b 5c 7f 3e 85 f6 2c be 56 99 2f 3d d7 14 56 bd
       0.24937598 -0.16890915 0.042870842 -0.05226597
000220 20 ec 1d 3e 08 dc c7 be 01 f5 b6 3e d9 dd 80 3e
       0.15422106 -0.39035058 0.35733798 0.25169256
000230 c9 17 e8 be 65 c6 01 3e b2 04 d9 bb f8 06 09 be
       -0.45330647 0.12673338 -0.006622874 -0.13381565
000240 e7 d5 39 be be c6 ba bd 7d 5a 0e be 43 cf 5f be
       -0.18148004 -0.09119938 -0.13901706 -0.21856408
000250 99 bb e9 bd 5a b1 ce 3c 72 ce a5 3e 67 c1 98 be
       -0.114127345 0.025231052 0.32384068 -0.29835054
000260 c3 71 d4 bc 5f 42 c8 3e 1e f7 61 be 9b 69 7e bd
       -0.025933152 0.39113137 -0.22066924 -0.062112432
000270 80 cd f9 bd 69 0b 8d be a7 7c 4d 3e 63 f1 9a be
       -0.12197399 -0.27547768 0.20067082 -0.30262288
000280 0b 2c 35 3e f3 36 52 3e 0a c7 bc be be 09 1f bd
       0.17692582 0.20528774 -0.36870605 -0.03882765
000290 05 bb 14 3e 92 5e f3 3d 27 e9 77 3e 35 01 75 3e
       0.14524467 0.11883272 0.24210034 0.23926242
0002a0 d3 30 6a 3e 0f 9e a1 be ec 44 89 be ef 4f 5f 3d
       0.22870187 -0.31565902 -0.26810396 0.05451959
0002b0 58 92 54 3d 2c e3 46 be 5b 86 c3 bb 0b de 7a 3d
       0.051897377 -0.19422597 -0.005966944 0.061246913
0002c0 57 59 91 be 5d ab b3 3e f5 21 86 bd 4c 67 d8 3d
       -0.28388473 0.35091677 -0.065494455 0.10566577
0002d0 e7 07 81 be df ce 94 be e1 0d 63 be 9f dd 5a 3e
       -0.25201342 -0.2906408 -0.22173263 0.21373604
0002e0 13 d3 34 3e 3e 98 0f 3e 1e 9d a8 3e 73 47 fa 3d
       0.17658643 0.1402292 0.3293237 0.12220659
0002f0 75 d1 4a be 47 bb 9e 3e e9 9d 0a be 24 bb 94 be
       -0.19806464 0.31002256 -0.135368 -0.29049027
000300 b3 47 2b be ec 99 bb 3d cd 15 f3 3d cd 42 71 3e
       -0.1672657 0.09160218 0.118693925 0.23560639
000310 6a b3 2a 3e 25 88 74 be 14 93 8a 3e b0 69 80 3e
       0.16670004 -0.2388006 0.27065337 0.25080633
000320 c3 56 f4 be 96 51 96 3e a5 d7 9c 3e 09 80 10 bd
       -0.47722444 0.2935912 0.30633274 -0.035278354
000330 02 f4 4a be f0 68 6e be 69 65 5c be e3 e4 e4 3d
       -0.19819644 -0.23282218 -0.2152306 0.11176469
000340 2d 3c a1 3e 9c 9a 19 be 01 59 9d be 12 2e d0 3c
       0.31491223 -0.15000385 -0.30731967 0.025412593
000350 fa 19 7d be 0e 3f bf 3e c5 b8 c9 3e 69 d5 bd be
       -0.2471694 0.37352794 0.3939878 -0.37076882
000360 ed 8f a7 3d 2d 4f 38 3e 2f 53 ac bd 69 dd 92 3e
       0.081817485 0.17998953 -0.084143035 0.28684548
000370 b0 da 30 3d 7a 7a 57 3e 6d 5d 8e be 49 4a 07 be
       0.043177307 0.21042815 -0.27805653 -0.13211931
000380 fe 56 b5 bd 6e 37 b5 3e 9a 2b a0 be ec cb 1c be
       -0.08854483 0.35393852 -0.31283265 -0.15312165
000390 df 99 ae be 0d 48 22 be 2b f7 d4 3e 21 b2 03 be
       -0.3410177 -0.15847798 0.41594824 -0.1286092
0003a0 8d 9b 4a 3e 1d 62 7f 3e b4 10 87 3e 1b e3 94 3d
       0.197859 0.24939771 0.2637993 0.072698794
0003b0 97 32 8b 3e 37 83 81 3e 4d 3d 31 3e 9a d2 e9 3e
       0.27187034 0.2529542 0.1730854 0.4566849
0003c0 b4 8e 81 3d e2 62 06 3f ef d0 cf 3e 12 e8 c8 3d
       0.063260466 0.52494633 0.4058909 0.09809889
0003d0 a2 d3 49 3e e4 10 dc 3e 8c 5b ff bd 70 12 4a 3e
       0.19709638 0.42981637 -0.12468633 0.19733596
0003e0 bc 40 8e 3e ce 90 d9 3e 7a fd cb 3e 46 6b 84 3e
       0.27783763 0.4249329 0.39841825 0.25863093
0003f0 b5 4d 36 be 6b a9 4a be 41 c9 15 be 0c 10 87 3e
       -0.1780308 -0.1979119 -0.14627554 0.2637943

0.bias f4 [32]
000000 4c 8b f5 bd fb c3 25 be 2a 79 04 be ae 80 97 3d
       -0.119894594 -0.16188042 -0.12936845 0.073975906
000010 d5 0a 80 be 35 72 25 3e 92 6b 6e bb b8 48 bb bd
       -0.25008264 0.16156848 -0.0036380035 -0.091447294
000020 e3 8b 59 be df 41 c6 3d cd ac 24 be 6c 8f d8 3d
       -0.21244769 0.09680533 -0.16081543 0.105742306
000030 2b c8 4d be ad 8c 2e be 14 40 07 3e 91 f4 51 be
       -0.2009589 -0.17045851 0.13208038 -0.20503451
000040 16 87 c5 be 3d 9b e3 bd 04 46 9b bc ab 2c 38 bd
       -0.38579625 -0.11113594 -0.018954284 -0.044964474
000050 2d 8d c4 3b 35 fa 49 3d 8a 4b 94 be 3d 50 0a be
       0.005998275 0.04931088 -0.28963882 -0.13507171
000060 7b 94 85 be 85 5d 82 bd 31 82 16 3e 92 4e 6d 3e
       -0.26089844 -0.06365494 0.14698102 0.23174503
000070 f0 39 a3 3d 9f 05 07 be a4 d7 8b 3d 25 9e 0b be
       0.07970035 -0.13185738 0.068282396 -0.13634546

3.weight f4 [32, 32, 1, 2, 2]
000000 a4 c9 a7 bd 97 c9 e1 3b 55 8d 1f 3d aa a4 7e bb
       -0.08192757 0.0068904865 0.038953144 -0.0038855472
000010 18 ef b6 3b 37 84 92 bd f7 04 10 be af 71 c2 3c
       0.0055827014 -0.07154124 -0.14064394 0.02373585
000020 e6 22 d7 bd 3f ce 29 bd f8 b6 03 3d c1 0d 61 3b
       -0.10504703 -0.041456457 0.032156914 0.0034340473
000030 d3 93 43 bd e0 b6 87 bd 5d cf d0 bd 56 9d 9b bc
       -0.047748398 -0.066266775 -0.101958014 -0.018995922
000040 53 9b a7 bd f6 0f 03 be 87 65 57 3d 96 0b c7 bd
       -0.081839226 -0.12799057 0.05258706 -0.09719007
000050 11 2b 50 bd 95 00 fa bd bf 68 84 bd ce f9 05 be
       -0.05082232 -0.12207142 -0.06465291 -0.13083574
000060 e4 c0 8f bd dd da 11 3d 64 54 f0 bd 9e 23 24 bd
       -0.07019213 0.035609115 -0.11734846 -0.04007303
000070 ac 58 c8 3b a7 cc ae bd 03 43 e9 bd 8f 8e 81 bc
       0.006114086 -0.08535128 -0.113897346 -0.015815048
000080 33 48 50 bd 65 8e 1a 3c e1 2b d0 bd 9d 55 e2 bb
       -0.050850105 0.009433364 -0.10164619 -0.0069071786
000090 f9 91 84 bd 2a ea 85 bd 44 92 05 bd 22 07 8c bc
       -0.064731546 -0.06538804 -0.032610193 -0.017093245
0000a0 50 e2 b8 bd af 3c b2 bd a9 ec 2b be e8 51 a2 3c
       -0.09027541 -0.08702981 -0.16789497 0.019814447
0000b0 9b fb ba bd 77 4d 94 bc ec 2c 6a bd 84 96 f0 bd
       -0.09130021 -0.018103344 -0.057171747 -0.117474586
0000c0 c4 d6 93 bc fd 2f b0 bb 66 7d c1 bd 54 15 22 bd
       -0.018046744 -0.0053768144 -0.09447746 -0.03957112
0000d0 a4 c2 2b bc a9 b9 1e bd fb 17 32 bb 5f 5d a0 bd
       -0.010483418 -0.038751278 -0.0027174938 -0.07830309
0000e0 94 f2 30 be 31 03 69 bd 76 15 e7 bd 10 58 bc bd
       -0.17280036 -0.05688781 -0.1128339 -0.09196484
0000f0 7f c9 cf 39 2d dc c8 bd 50 aa bb bd 10 2b 1e 3d
       0.00039632243 -0.0980762 -0.09163344 0.038615286
000100 34 b3 b0 bd ed 77 84 bc 95 27 85 bd ea aa 80 bd
       -0.0862793 -0.016170466 -0.0650169 -0.06282599
000110 f6 3e f2 bc 71 7e 0d be 89 ad 97 3d 8c 4e b2 bd
       -0.029571038 -0.13817765 0.07406146 -0.08706388
000120 dc 54 5e bd 97 47 20 be b7 44 2c be 65 b8 13 bd
       -0.054280147 -0.1565231 -0.16823088 -0.036064524
000130 f4 94 14 3d 9e ef a9 3b 41 4b df bd 53 f3 99 bd
       0.036274865 0.0051860353 -0.109030254 -0.075171135
000140 59 ef 7f bd 4a d8 18 bd 64 a7 bb bd 8d 3d cb bb
       -0.06248412 -0.037315644 -0.091627866 -0.006202406
000150 7d a2 0d bd 62 26 0f bd a4 36 bb bd 46 79 91 bc
       -0.03457879 -0.034948714 -0.09141281 -0.017758023
000160 8a 6b 32 bc c9 16 ca bd b4 9a 2c bd be 1b ba bd
       -0.010889897 -0.09867627 -0.042139724 -0.09087323
000170 a6 d5 29 3d 29 fc d0 bc 45 0b 1c bd b9 1c 95 bd
       0.041463517 -0.025510864 -0.038096685 -0.07280869
000180 0c 80 d2 3c 96 5c cb bd 93 d7 d2 bd 33 f3 a2 bc
       0.025695823 -0.09929769 -0.10295024 -0.019891357
000190 e9 22 28 3c 58 42 00 ba 42 80 8d 3d ce 72 08 3e
       0.0102622295 -0.00048926985 0.06909229 0.13325045
0001a0 e6 11 2e bd 44 33 df bd 7e 8d a5 bd c2 c4 7b bd
       -0.042497538 -0.1089845 -0.08083628 -0.06146694
0001b0 39 15 9a bd 63 99 58 bb a4 d0 16 3d 88 06 dd bd
       -0.07523579 -0.003305041 0.03682007 -0.10792261
0001c0 f4 45 02 3d fa 14 2d bd 81 42 0d be 93 bf 18 be
       0.031804994 -0.042256333 -0.137949 -0.1491683
0001d0 bb e9 93 bd ca 2f cc ba c8 cd 70 bd 57 7e 38 3d
       -0.07222315 -0.0015578207 -0.05879 0.045042362
0001e0 ea 95 de bd e5 8d d8 bc 96 34 fb bc 77 ab 0a be
       -0.108684376 -0.026434848 -0.030664723 -0.13541971
0001f0 df ff 94 3b 83 af d7 bd 70 8b 81 3c 64 d3 32 bd
       0.004547104 -0.10531523 0.01581356 -0.04365863
000200 ed 41 74 bd e5 59 f5 bd a0 d3 42 bd 42 b7 02 be
       -0.059633184 -0.11980037 -0.047565103 -0.1276522
000210 85 f8 8e bc 68 28 b9 3d d7 cf 8c 3d 22 c3 ca 3d
       -0.017452488 0.0904091 0.0687558 0.099005
000220 85 58 7a 3e a9 6e 4e 3d b9 6f af 3d cf 37 83 3d
       0.2444783 0.050398502 0.08566231 0.06407129
000230 b1 e3 7d bc cc 77 29 bd b7 2a c0 bd 0b b3 c3 3d
       -0.01549618 -0.041374013 -0.09383147 0.09555634
000240 42 c4 23 bc 5f 09 09 3e 98 e6 7f bd 67 9c 8b 3e
       -0.009995522 0.13382481 -0.06247577 0.27267763
000250 a8 7f 4c bc a0 fa 01 be 1f a9 ad bd 9a 4a 1e bd
       -0.0124816075 -0.12693262 -0.08479523 -0.038645364
000260 f0 2b ad bd bc 37 8e 3d 25 ef 04 be 8d 69 e4 3d
       -0.08455646 0.06944224 -0.12981851 0.11152945
000270 57 be 8e bd 5c 8b 19 3e f9 cb b5 bd 6a b3 69 3e
       -0.06969898 0.14994568 -0.08876795 0.22822347
000280 1a d1 21 3d f8 62 ad bc 6e 07 09 bc 34 c9 26 3d
       0.039506055 -0.021165356 -0.008363588 0.040719226
000290 0b ef 7c bd 6f 06 a8 bd 76 3c 90 bd 2b b5 30 be
       -0.061751407 -0.08204352 -0.07042782 -0.1725661
0002a0 3b 72 fb 3d 5c e9 97 3d a6 56 2e 3c 0b 14 32 bc
       0.12277647 0.07417557 0.010640776 -0.010869036
0002b0 33 0e 85 bb 1c 40 1a 3d a9 07 5f bd 33 5a 06 3e
       -0.0040605306 0.037658796 -0.054450665 0.13120346
0002c0 47 0e a6 3c 43 b4 3a 3d ac 8a 9a 3c 66 88 8d 3d
       0.02027048 0.045582067 0.018864952 0.069107816
0002d0 e9 a0 02 3e 30 72 51 3e d4 28 27 3d f2 4d 01 3e
       0.12756695 0.20453715 0.04081042 0.1262739
0002e0 14 60 ba 3d 28 c6 a6 bc b2 9b b5 3c 67 78 71 bd
       0.09100357 -0.02035816 0.022168968 -0.058952715
0002f0 70 76 c4 bd 55 55 6d 3e 8d b6 2e be b8 93 29 3e
       -0.09592903 0.23177083 -0.17061825 0.16560256
000300 6b ef 47 3d d9 aa f7 3d cb e9 54 3d 32 15 d1 3d
       0.04881231 0.120931335 0.051980775 0.10209121
000310 dd 5e 4a 3e e8 ca a1 bd 85 cf 93 bd 5b 5e 97 3d
       0.1976275 -0.079000294 -0.072173156 0.07391044
000320 b7 c0 21 bb 30 69 2c 3c 44 23 02 bc 7b e2 9b bd
       -0.0024681517 0.0105231255 -0.007942978 -0.07611557
000330 1f 54 81 3d db c9 81 3d 5f c3 43 3c 9d fb 40 3d
       0.06314873 0.06337329 0.011948436 0.047114957
000340 59 21 58 3d 6a 2e b9 3d 4a c3 37 3c 4d 7d cd 3d
       0.052766178 0.09042056 0.011215994 0.10033665
000350 7c ad e7 bd b7 73 34 3d 06 5a 3e 3d 90 0b 32 3e
       -0.113123864 0.044055667 0.04647257 0.17387223
000360 77 58 f7 ba 17 f2 88 3d 38 82 83 3d 52 8e 65 3e
       -0.0018870969 0.066868 0.06421322 0.22417572
000370 9f fe 6f 3d 0b 0c 1f 3d bc 34 cf bd ba ad d4 3d
       0.058592435 0.038829844 -0.1011748 0.10384698
000380 19 5a 38 3d a7 f6 97 bd 45 ca 11 3d da d7 d3 3d
       0.0450078 -0.07420092 0.03559329 0.10343905
000390 ce 93 53 3e 37 ec 1b bc 37 c9 25 be 32 0f f5 3c
       0.20661852 -0.009516767 -0.16190039 0.029914472
0003a0 5f 3b cb bc ad ba 45 be 61 8c 13 be 5c 4f 1e be
       -0.024808584 -0.19309492 -0.14409019 -0.1545996
0003b0 c2 7a 15 be fe e2 32 be 93 15 fa bb 86 56 2a be
       -0.1459761 -0.17469403 -0.0076319664 -0.16634569
0003c0 ae 0b 89 3d a5 dc 01 3e 98 d4 0f bd ca 70 6b 3d
       0.06691681 0.12681825 -0.035114855 0.05748061
0003d0 5f aa 38 3e 66 16 59 3e ed ac 88 bd 9c a4 66 3e
       0.18033741 0.2119995 -0.06673608 0.22523731
0003e0 ad 00 fc 3d 45 25 12 bd 5b ef a4 bd 26 c2 e7 bd
       0.123048164 -0.035680074 -0.08053466 -0.11316328
0003f0 5e a5 c2 3d 1d 7b 35 3e 5c 67 9c bd 26 88 02 3d
       0.095041975 0.17722745 -0.07636902 0.031868123

3.bias f4 [32]
000000 f4 4d 30 bd 41 e3 c8 bd ec 39 60 bc 9d de db bc
       -0.043043092 -0.0980897 -0.013685685 -0.026839549
000010 02 e5 89 bc ed 1e d4 bc f3 60 4f 3c 0d 77 2d bd
       -0.016832832 -0.025893653 0.012657392 -0.042349864
000020 38 4b 8b be c5 4c 16 be 14 9f fc bd 6d cf 74 bc
       -0.27205825 -0.14677723 -0.12335029 -0.014942032
000030 69 f0 1f bd 0c 68 2b be 2a 74 77 bd 50 2c df bd
       -0.039047632 -0.1673891 -0.060413517 -0.10897124
000040 df de 09 be 6e 3c 0a be 7b ff 42 bd 83 c8 8b bd
       -0.13463925 -0.13499615 -0.047606926 -0.06825354
000050 60 a5 f4 bd 8b 17 94 bd 03 a4 7a bd 2a 9e b2 bc
       -0.11945605 -0.07231053 -0.06119157 -0.021803934
000060 6a c1 a2 3b b0 54 db bd df 01 09 be 92 96 b9 bd
       0.0049669044 -0.10709512 -0.1337962 -0.09061922
000070 9e 54 11 bb bc 14 23 be ea 80 07 be 9d 2c 21 bd
       -0.002217568 -0.15925878 -0.1323277 -0.039349187

6.weight f4 [32, 32, 1, 2, 2]
000000 6a 12 eb bd 88 f4 a5 3d 41 54 9c bc 3b fc 82 bd
       -0.114781216 0.08103281 -0.019083144 -0.063957654
000010 cd fc 94 3d 2c 4a bf 3d 49 3b a6 3d b7 38 b9 3d
       0.072747804 0.09340319 0.081167765 0.090440206
000020 1e cb 51 3d f0 2c fc 3c 33 86 f4 bd fe 60 0a bc
       0.0512191 0.030783147 -0.11939659 -0.008445976
000030 88 6c 80 3e 16 68 40 3d 9a 9d 4d 3e 81 15 40 3e
       0.25082803 0.046974264 0.20079651 0.18758203
000040 69 70 17 3e 49 77 1b bc a8 3d 0b 3d 8a 29 84 3c
       0.14788975 -0.009488889 0.033994347 0.016133089
000050 6a 62 1e 3e 9c f0 de 3d bf fc 16 3d 1a 80 42 3d
       0.1546723 0.10885736 0.03686213 0.04748545
000060 f6 18 95 3d 84 0f b8 3c e7 84 8b 3d 00 8f 07 3e
       0.072801515 0.022468336 0.068124585 0.13238144
000070 ab 96 66 3d 2d 90 86 3d f5 89 18 3e 7e 06 0b 3e
       0.056296032 0.06570468 0.14896376 0.13576695
000080 f4 15 22 3e ff c5 0e 3e 62 2a b9 3c a3 29 ab 3e
       0.15828687 0.13942717 0.022603218 0.33430204
000090 55 c7 7a 3d b6 f5 0c 3d cc a0 b2 3c a5 91 cc bd
       0.061225254 0.034414016 0.02180519 -0.09988717
0000a0 04 72 1c 3d 3a 36 ac 3d d7 3d 10 3e 15 b7 f4 3d
       0.03819467 0.084087804 0.1408609 0.119489826
0000b0 83 58 bf 3d af 0a b7 bc c8 18 00 3e 1f 6e c0 3b
       0.09343054 -0.022343962 0.12509453 0.0058725025
0000c0 0d 3e 2d bd d6 7f 78 3d 0e c8 5b 3d 91 07 c0 3d
       -0.042295504 0.06066879 0.053657584 0.09376443
0000d0 f6 bd 81 39 f0 26 4e 3d 0d 34 76 bd c1 be a1 3d
       0.0002474633 0.050330102 -0.060108233 0.078977115
0000e0 c6 56 b0 3d 1a 34 86 3c 97 7b eb bc ae e1 ac 3d
       0.08610301 0.016382266 -0.028745456 0.084414825
0000f0 b0 ae 43 3e b3 4b 1a bd d1 2f 49 3d 72 6e 3c 3d
       0.19109607 -0.03766985 0.049117867 0.046003766
000100 13 78 1a 3d 8e 73 09 3d de 32 82 39 45 2d 6d 3d
       0.037712168 0.033557467 0.0002483343 0.0579045
000110 0e 94 64 3e 60 79 8a 3d 6f b0 d8 3d 90 1a 3f bd
       0.22322103 0.06761432 0.10580527 -0.04665619
000120 c8 82 ab b8 01 82 2d 3e 1f 23 f8 3d 50 f2 d2 3d
       -8.178275e-05 0.16944124 0.12116074 0.10300124
000130 98 ee 8d 3d b7 f7 55 3d 4f 78 f4 3d 7f 45 aa 3d
       0.06930274 0.052238192 0.119370095 0.083140366
000140 74 2f 67 3e 45 d6 96 bd 2b b9 22 3c 34 6b 16 bd
       0.22576696 -0.073650874 0.009931843 -0.03672333
000150 ee 5a 12 3d 6b b0 d1 3d ef b2 00 3d af 1f 2d bc
       0.03573125 0.10238727 0.031420644 -0.010566636
000160 3d 31 1e 3e e0 36 26 3d 26 9f 91 3d 08 4f cb 3d
       0.1544847 0.040579677 0.07110433 0.099271834
000170 51 3f 9d 3d 2c 4b fe 3d 6b ef 34 3e c5 76 81 bc
       0.07678092 0.12416682 0.17669456 -0.015803704
000180 9a ce 92 3c 5b d3 5b 3d 29 5d fe bd 72 90 7a bc
       0.01792078 0.05366836 -0.12420113 -0.0152932275
000190 19 4c 93 3d 9a f5 74 3c 8a 5b d1 3d 82 76 8d 3c
       0.07192249 0.014951134 0.10222538 0.017268423
0001a0 b7 49 b0 3c 40 b3 bb 3c 31 4c 42 3e c0 25 0e 3e
       0.021519525 0.022912621 0.18974377 0.13881588
0001b0 4f 7e c6 3b 0e f0 51 3d d4 c6 b4 3d 9e b7 08 3e
       0.0060575376 0.051254325 0.08826986 0.13351294
0001c0 50 1b 1f 3e 7f 8c ad 3d 69 b8 bf 3d 9b 7c 68 bd
       0.15537763 0.08474063 0.09361345 -0.056759458
0001d0 f1 50 be 3e 17 de 6f 3e bc 8d 09 3e 07 f6 19 3e
       0.37171128 0.23424564 0.13432974 0.15035258
0001e0 7a 5a 01 3e 44 c1 a0 3d b5 95 9d 3d ad ff a9 3d
       0.1263217 0.078493625 0.0769457 0.083007194
0001f0 a0 d0 b1 3d 0a a3 d2 3a 38 df 2d 3c 61 8c a9 3c
       0.0868237 0.0016070318 0.0106123015 0.02069682
000200 d0 37 94 3d f2 68 91 bd cd 2f b9 3c ea 55 02 bc
       0.07237208 -0.07100095 0.022605801 -0.007955054
000210 70 bc 1c bd b7 76 5a bd 60 36 d9 bb 9c a5 3d bc
       -0.038265646 -0.05333587 -0.0066287965 -0.011575129
000220 79 6f 18 3b 6e 92 dd bd fb 8c 93 bd 30 45 07 be
       0.0023259802 -0.10818945 -0.07204624 -0.13209987
000230 b1 0d e5 3b f2 88 04 bb b8 82 ee 3c a8 30 04 be
       0.0069901575 -0.0020223227 0.029115066 -0.12909186
000240 75 96 e4 bd b2 ae ce bd 6c 4e 7a bb 43 b7 5a bd
       -0.1116151 -0.10091914 -0.0038193716 -0.05339743
000250 60 c0 b4 3c 03 b9 2d be 52 64 bb 3c a6 ec 5c bd
       0.022064388 -0.16965108 0.022874985 -0.053936623
000260 6a db e6 bc f5 69 e2 3d 3c bd 0f be 98 f1 18 3c
       -0.028180797 0.11055366 -0.14037031 0.009334944
000270 a4 88 a8 3c 63 d3 82 bd 64 e1 ae 3c 39 f5 7f 3c
       0.020572968 -0.06387975 0.021347709 0.0156224305
000280 99 31 51 bd da c0 86 bd e8 fa c5 bd b7 fc f7 bd
       -0.05107269 -0.06579752 -0.09666997 -0.121087484
000290 89 9e ef bd 1c b0 14 bc d9 c9 d9 bc f0 6f 78 bc
       -0.1170016 -0.009075191 -0.026585506 -0.015163407
0002a0 83 f2 d8 bd 0a cb 5b bd a0 06 db bd ac 0c 10 be
       -0.105931304 -0.05366043 -0.10694623 -0.14067334
0002b0 7a dd 60 3c 59 c2 de bd 9b ec 90 bd 94 05 6a 3b
       0.013724679 -0.108769126 -0.07076379 0.0035708891
0002c0 36 9c 39 bd 7e 97 84 bd 38 3a c9 bc 26 da 22 be
       -0.04531499 -0.06474207 -0.024563894 -0.1590353
0002d0 c3 22 a8 bd f5 d1 a7 bd f8 72 f6 bd cf 95 12 be
       -0.08209755 -0.08194343 -0.12033647 -0.1431496
0002e0 4b e9 6f bc 3c 5a 1f be c9 63 01 be 09 43 d4 3c
       -0.014643024 -0.15561765 -0.12635721 0.025910871
0002f0 7d bc 23 be ae 46 af 3b 10 1c 13 be 1a 67 e9 bd
       -0.15989871 0.005349002 -0.14366174 -0.11396618
000300 75 d0 00 be 3f e8 7a bd 33 1d 83 bd ea 02 b7 bd
       -0.1257952 -0.061256643 -0.06402054 -0.08936103
000310 69 fc d1 bd e8 a7 4c bd 1e eb 1d be 93 34 4d bd
       -0.102532215 -0.049964815 -0.15421721 -0.050098967
000320 68 fb 07 bd 08 b6 8c bd 54 3c f0 bc e8 41 08 be
       -0.033198744 -0.06870657 -0.029325642 -0.13306391
000330 e6 81 72 bc 8f 5b ed bd 22 e7 df 3c 6c 2b aa bc
       -0.014801478 -0.11589729 0.027331892 -0.020772658
000340 d7 7f f0 bd 56 67 91 bd e7 62 ec bd 77 c0 df bd
       -0.117431335 -0.07099788 -0.115423016 -0.10925382
000350 e0 dd 30 bd f0 76 a1 bd 60 ca 99 bd aa 3b 5b bd
       -0.043180346 -0.07884014 -0.07509303 -0.053523697
000360 a7 7c 7d bc 7b c5 86 3b 8c ee ae 3b f7 a3 68 bd
       -0.015471614 0.004112897 0.0053384956 -0.056796994
000370 29 61 0e be 66 57 81 bb e6 a9 f4 bd c4 bd a4 bb
       -0.13904251 -0.0039471863 -0.11946468 -0.0050275046
000380 a9 15 56 bd 59 30 ae bd 80 c8 bc bc 9e bf 62 3d
       -0.05226675 -0.08505315 -0.023044825 0.05535852
000390 f8 1c f6 bc 0e a0 be bd 67 6a 22 3b e7 87 4d bb
       -0.03004311 -0.09307872 0.002478266 -0.0031361522
0003a0 80 b7 b4 bd 6d 46 de bd 70 03 1b be 2e 4d e2 bd
       -0.08824062 -0.108532764 -0.1513803 -0.11049877
0003b0 29 21 90 bd da 1c 0b be 78 f3 f3 bc d1 07 8c 3c
       -0.07037575 -0.13585225 -0.02977918 0.01709357
0003c0 52 c0 23 bd c7 92 7a bd 6b e0 e7 bd dc 04 01 bd
       -0.039978333 -0.061175134 -0.11322101 -0.031498775
0003d0 6f a6 03 be fb d8 14 3c 8c 5b 17 be 7a fb e3 bd
       -0.12856458 0.009084935 -0.14781016 -0.1113195
0003e0 fa 19 fd bb cd f6 ff 38 47 7f 87 bb d3 54 0d bd
       -0.007724044 0.00012205318 -0.0041350457 -0.034504723
0003f0 03 16 db bd 8d 45 0b bd 84 b6 6a bd 26 ab ab bd
       -0.10697558 -0.034001876 -0.057302967 -0.08382253

6.bias f4 [32]
000000 b7 92 5a be a8 c1 e4 bd 64 94 28 be fc 99 ae 3d
       -0.2134503 -0.111697495 -0.16462857 0.08525464
000010 f1 1b 64 be 9b 8b 32 be f0 f0 36 be 7d 1d d0 bd
       -0.22276284 -0.17436068 -0.17865348 -0.101618744
000020 d0 dd 66 bd 44 4b 82 be 9f a1 2d bd b5 91 ad bd
       -0.05636388 -0.25448048 -0.042390462 -0.08475057
000030 cb 82 37 bd d7 82 0a bc 3b 4e e3 bd f4 7e 5d be
       -0.04480247 -0.008454046 -0.11098906 -0.2163046
000040 80 ca e9 bd c4 65 0b be 0e 4b 4e 3e 70 e2 ce bc
       -0.11415577 -0.1361304 0.20145819 -0.025254458
000050 b6 46 2d be c5 09 05 be 1c df ef bd 97 d0 81 3d
       -0.16921505 -0.12992008 -0.117124766 0.063386135
000060 a4 06 ee bd 04 82 b1 bd bd 3d c8 bd d8 84 87 bd
       -0.1162236 -0.08667377 -0.09777401 -0.06617135
000070 e6 2c 32 be 22 e2 cb bc 4b 2a e2 bd 5c c1 87 bd
       -0.1739994 -0.024888102 -0.11043223 -0.06628677

9.weight f4 [32, 32, 1, 2, 2]
000000 2f 06 bd 3d 17 fc 13 3e f4 43 55 3e 6a be da bd
       0.09229695 0.14451633 0.20826703 -0.1068085
000010 bb f1 9f bc e9 39 bc 3d b2 26 fc 3c c6 98 a3 3d
       -0.019524446 0.09190733 0.03078017 0.079881236
000020 31 21 a8 3d 37 df 36 bd 07 75 65 bc a2 91 b4 3b
       0.08209456 -0.044646468 -0.014004952 0.005510525
000030 be af 74 3b ee 4b d4 3d db 43 8f 3d 79 d6 6e bd
       0.0037336196 0.10366045 0.06995364 -0.058310006
000040 b3 e3 37 3e fa 7c 98 bc b7 c2 05 3e 72 f2 16 be
       0.17957954 -0.018614281 0.13062559 -0.14740923
000050 9e cf 14 3d 8a 5a 1e 3c ce 81 3a 3e d4 e9 0e be
       0.03633081 0.009665141 0.18213579 -0.13956386
000060 08 9d 16 3e d5 c5 a6 3d f5 76 39 3e 5d f5 1e be
       0.1470834 0.08143202 0.18111785 -0.15523286
000070 0a 0b e9 3c 58 3d 1a 3d be d1 2c 3e b4 6a 9e bd
       0.028447647 0.03765616 0.16876885 -0.07735196
000080 aa b4 a9 bd fe 7e 22 bd dc f4 12 bd 85 fc 69 3d
       -0.08286412 -0.03967189 -0.035878047 0.057125587
000090 20 e9 88 bb ec 3c ba 3d e2 8f 28 3e 84 cb 12 be
       -0.0041781813 0.09093651 0.16461137 -0.14335448
0000a0 63 c6 98 bd b6 19 72 bd 82 bc 86 3b bb d7 09 bc
       -0.07459714 -0.05910655 0.0041118274 -0.008413251
0000b0 87 9b 2d 3e 81 4a 48 3e 4d db 33 3d 29 4c 04 3e
       0.1695386 0.19559671 0.043910313 0.12919678
0000c0 5c d2 b4 3d ba 34 d2 bd 09 e0 10 3e 04 74 0c 3b
       0.08829185 -0.10263963 0.14147963 0.0021431455
0000d0 ab 22 e6 bd 18 2a a0 bd 63 7b 3e bc 9a 2d 0e 3c
       -0.11237081 -0.07820529 -0.011626097 0.008677864
0000e0 e1 09 ef 3d c8 75 a8 bc aa 73 28 3e ec e5 3e 38
       0.11671806 -0.020563975 0.16450372 4.551366e-05
0000f0 93 38 01 3e 66 db cd 3d 80 12 61 3e 1c 43 78 3b
       0.12619238 0.100516126 0.21979713 0.0037881797
000100 f2 fe 20 bb 37 1d 19 3e ee f0 00 3e 36 73 d5 3d
       -0.0024566022 0.14952551 0.12591907 0.10422365
000110 26 b2 0c 3e 34 9e bd bc d7 f8 97 bc 64 9b e0 3d
       0.13739833 -0.023146726 -0.018551273 0.109671384
000120 c7 bd f6 3b 73 e3 cc 3d 09 44 68 bc 46 75 43 ba
       0.0075299474 0.1000432 -0.014176377 -0.0007456135
000130 00 96 11 bc 40 89 42 3c 53 d2 a1 3d 1f 63 33 be
       -0.00888586 0.011873543 0.07901444 -0.1751828
000140 88 94 d2 3d 9b fc 30 3e 1e 1b 64 bc 7a d6 14 bc
       0.10282236 0.17283861 -0.013922481 -0.009084338
000150 7e b1 2d 3e e4 41 98 bd 00 1d 79 3d f1 82 94 bd
       0.16962239 -0.07434443 0.060818672 -0.072515376
000160 38 a3 06 3e be 5a 10 3e 7e f1 0a 3e 21 3c 21 3b
       0.131482 0.14097115 0.13568684 0.002460249
000170 77 11 08 3d 58 af 1a 3d ef 9f 01 be dd 84 40 be
       0.03321978 0.037764877 -0.12658666 -0.18800683
000180 9f b0 53 bd c4 73 e7 3d 99 88 99 bb bf f0 28 bd
       -0.05168211 0.113013774 -0.004685473 -0.04124522
000190 83 2d 32 3e 80 78 25 bd 26 ad 08 3e 0e 58 a3 be
       0.17400174 -0.04039812 0.13347301 -0.31903118
0001a0 28 92 c0 bd 32 57 e4 bd 1c 0d b9 bd 25 e9 f9 3d
       -0.09402877 -0.11149444 -0.090357035 0.12202672
0001b0 2c 5c 13 bd 57 64 ab bd 05 55 1f 3e a7 63 03 be
       -0.035976574 -0.08368748 0.15559776 -0.12830983
0001c0 f6 b1 87 3e 98 7c 5f 3e 00 5a b7 3a 00 a1 4c bd
       0.2650296 0.21824872 0.0013988614 -0.04995823
0001d0 8a fe 89 bd 0d cf d4 3d e2 24 14 3e d1 ab 45 be
       -0.067380026 0.10391054 0.14467195 -0.19303824
0001e0 c3 d7 b3 3d 89 12 0f 3e a4 7e 10 3e eb fe 74 3d
       0.08781388 0.13971914 0.1411081 0.05981342
0001f0 4b 56 5b 3d 27 e4 93 3d 83 04 b5 bc 4f f1 88 3d
       0.053549092 0.07221251 -0.022096878 0.06686651
000200 2e 35 b0 bd 82 f3 bb bd e1 0a 81 ba 03 55 ba bb
       -0.08603893 -0.09177305 -0.0009845161 -0.0056864037
000210 4b 47 da 3c 74 c3 8e 3d f6 2e c8 3d ef 07 2d bb
       0.026645323 0.069708735 0.09774582 -0.0026402434
000220 b9 bb 68 3d bf 97 9c 3d b4 45 b8 bc 87 d0 d9 3c
       0.05681965 0.07646131 -0.022494175 0.026588691
000230 1f 95 84 bd 2b d0 61 be 6a 30 12 be d6 2c 45 3d
       -0.06473755 -0.22052066 -0.14276281 0.048138462
000240 08 b8 99 3d 47 28 29 bd a4 86 86 3a 52 4c 75 bd
       0.07505804 -0.041298177 0.0010263515 -0.059887238
000250 a4 37 8d bd 98 ea 0c be 0d 79 f6 bd 29 4e 11 be
       -0.06895378 -0.13761365 -0.12034807 -0.14189972
000260 01 ff cd 3c 0d 03 af bc 2c 1c d1 bd e2 10 88 bd
       0.02514601 -0.02136376 -0.102104515 -0.06643845
000270 d5 15 59 3d 16 d9 92 3c 7c 30 e5 3d dd 8c 03 bd
       0.052999336 0.01792578 0.11190888 -0.03211676
000280 21 f9 53 3d 3c b1 8b 3b 4c f0 c0 bb b2 14 0d bd
       0.05175126 0.0042630713 -0.0058880206 -0.034443565
000290 cc 4a be bd 89 45 7c bd 8c 9b b0 bd 7e 48 ca bd
       -0.0929161 -0.06158975 -0.08623418 -0.09877108
0002a0 76 68 2a bd 19 4f db 3b fe 98 7b bc b9 8a b0 bd
       -0.041603528 0.006692779 -0.0153563 -0.08620209
0002b0 36 de ec 3d 09 db 53 3d 8c ed c9 3d 79 41 86 bb
       0.11565821 0.05172256 0.098597616 -0.0040971604
0002c0 10 ba 43 3d e6 a4 05 bd 26 89 e1 bd ef 32 15 bd
       0.047784865 -0.032627963 -0.11012487 -0.036425527
0002d0 49 32 a6 bd c3 92 3b bd 79 af 07 3d e6 8e 26 bd
       -0.0811506 -0.04579426 0.03312633 -0.040663622
0002e0 7b c8 99 3d 3d 2a 2d 3d 34 c0 96 bd 1a ef 44 3c
       0.07508942 0.04227661 -0.073608786 0.012019897
0002f0 21 4d 0b be 04 47 d9 bd 33 79 93 bd a7 1d 05 be
       -0.13603641 -0.10609248 -0.07200851 -0.12999593
000300 d7 7f 04 3e 81 dd 2a 3c dc 7f 07 3d 42 bf da 3a
       0.12939392 0.010428787 0.03308092 0.0016689079
000310 72 e9 80 3d e5 0f 92 bc d6 54 fb 3c a2 63 f8 3c
       0.06294526 -0.017829845 0.030680101 0.030320946
000320 46 78 4f bc e8 2d 33 3d 84 63 e2 bd cc 4d e8 bc
       -0.012662953 0.04374495 -0.11054137 -0.028357409
000330 f2 47 cc ba ab c2 f5 bd d0 08 1c 3c 69 b3 ea bd
       -0.0015585406 -0.120000206 0.009523585 -0.11460001
000340 92 dd f4 3c 65 ea c2 bc 47 7d f4 3d 0a 56 bd 3d
       0.02989081 -0.023793409 0.11937957 0.09244926
000350 ec b4 5c bd 96 4f 20 3d be 18 f9 bd 1e 69 31 bb
       -0.053883478 0.0391384 -0.12162922 -0.0027070711
000360 88 48 f2 3c 1a f2 9d 3d 40 cc e5 3d 21 ec 9f 3d
       0.029575601 0.07712193 0.11220598 0.0780871
000370 2a 18 17 bd 4d d1 ee 3d 80 0a d2 bc d1 d2 24 3d
       -0.03688828 0.11661015 -0.025639772 0.040240113
000380 21 b6 20 3d b5 33 b5 bd 55 07 80 bd 39 57 bf bc
       0.03923619 -0.08847753 -0.062513985 -0.02335702
000390 a5 02 00 bc de 51 26 3d 24 91 a1 bd 89 5e cc bd
       -0.0078131305 0.04060542 -0.078890115 -0.09978969
0003a0 8e bc 44 3d ff 50 01 bc 86 71 b2 3d e3 03 4a 3d
       0.048031382 -0.007892846 0.08713059 0.049320113
0003b0 9a c3 14 bd a1 24 84 3c 8f 57 04 3d f3 cc 0e 3c
       -0.036319353 0.016130747 0.032310065 0.008715856
0003c0 2e c5 57 bd bb cd 96 bc ec b3 bb bd c9 6a 03 be
       -0.05267828 -0.018408647 -0.09165177 -0.12833704
0003d0 be 5f 17 3b d7 3f 12 be d3 f4 0d bc 9a 1a 0e be
       0.0023097838 -0.14282165 -0.008664328 -0.13877335
0003e0 ea 3f 16 3c d0 f8 b8 3d 5f 0f 81 3c fb f7 1d 3d
       0.009170512 0.09031832 0.0157544 0.03856657
0003f0 21 d8 f5 3d ce 6d 76 3d 15 fb 69 3d d5 4c b3 3d
       0.12004114 0.06016331 0.057124216 0.08754889

9.bias f4 [32]
000000 fb f9 af bc 08 97 73 bd 56 e8 2f bd 4e 2a 4b be
       -0.021481505 -0.059470206 -0.042946182 -0.19840357
000010 0b 6b 2e bd 28 80 86 bd 18 82 71 bd 45 dd 9c bd
       -0.042582553 -0.065674126 -0.058961958 -0.07659391
000020 91 96 2d be 1c 09 d5 bd ba 52 0f be 7f bc 46 3e
       -0.16951968 -0.10402128 -0.13996401 0.19407843
000030 a4 a5 94 bc 26 1c 8a 3c 41 e7 44 be f9 20 95 bd
       -0.01814539 0.016859125 -0.19228841 -0.0728168
000040 4c a6 f9 bd 1d 9f fd bd af b5 12 bd 20 59 0e be
       -0.12189922 -0.12383864 -0.0358178 -0.13901186
000050 18 22 c0 3b 2a 1b bb bd ff c3 fd bd 66 d5 8c bc
       0.0058634393 -0.091360405 -0.12390899 -0.0171916
000060 7f e0 28 be d2 9f 2a be ad 37 db bc 9e 9a 8b 3d
       -0.16491888 -0.16662529 -0.026759947 0.068166
000070 03 e8 4b bd 08 48 de bd c8 d6 22 bd 18 f7 11 3e
       -0.04978181 -0.108535826 -0.039755613 0.14254415

12.weight f4 [16, 32, 1, 2, 2]
000000 95 17 dd 3d e9 cc cc 3d e8 4e d2 bc 13 e6 c4 bd
       0.107955135 0.10000021 -0.025672391 -0.09614196
000010 40 bc f2 3a 4e 0c 6f bd ab 5f 86 bd 2a 76 9a 3c
       0.0018519238 -0.058361344 -0.06561216 0.018855173
000020 58 93 2d bd 20 a5 10 3d a5 32 87 bc dc 78 bc bd
       -0.042376846 0.035313725 -0.016503641 -0.092027396
000030 d1 69 ea bd d4 d1 b2 3d 51 d5 74 be 3a 72 21 be
       -0.11445964 0.08731428 -0.23909499 -0.1576623
000040 27 94 8a 3c b3 7e 15 bb e9 b1 1c bc 35 c7 fd bd
       0.016916348 -0.0022811114 -0.009563901 -0.12391511
000050 e1 9a 03 3e 05 5e 4a 3e 65 6e 80 be 2b 02 eb 3b
       0.1285205 0.19762428 -0.25084224 0.0071718893
000060 a2 f2 1d bc 80 25 c0 3c 62 1f 30 bd 3f 3c 42 be
       -0.009640368 0.023455381 -0.04299868 -0.18968295
000070 b5 65 7d 3d 61 37 4e be 79 3f 70 bd 3d c7 aa 3c
       0.061864574 -0.20138313 -0.058654282 0.020846957
000080 1a ed 00 be 47 47 97 3d f1 a5 85 be 37 70 41 be
       -0.12590447 0.07386642 -0.26103166 -0.18890463
000090 f5 23 3c be ca 63 9f 3b ab cb fa 3b 0d 08 0d be
       -0.18373092 0.0048641907 0.0076536736 -0.13772602
0000a0 51 30 05 3e 77 d1 02 be b6 84 13 bd ce 96 0e be
       0.13006712 -0.12775217 -0.036015235 -0.13924715
0000b0 12 20 6a 3d 36 57 cb 3d 82 50 f9 3d 03 0e b1 3d
       0.05715949 0.099287435 0.12173559 0.08645251
0000c0 99 53 a3 3d 8a b6 bd bd 1b 98 4a bd c4 ef 21 3d
       0.07974929 -0.09263332 -0.049461465 0.0395353
0000d0 e7 26 3e bd fd bd 10 be 5d 7b dc 3d ff 7a 79 3b
       -0.04642382 -0.14134975 0.10765717 0.0038067696
0000e0 f6 a4 83 3d 05 a5 83 3d 58 5a 27 be c7 9a c4 3b
       0.06427948 0.06427959 -0.16343057 0.005999896
0000f0 d4 6b 02 3e e5 36 c6 3d b7 71 45 3c 49 7b bd bd
       0.12736446 0.09678439 0.0120510375 -0.092520304
000100 9f 78 25 bd 11 82 54 3d f9 33 65 be 59 87 59 be
       -0.040398236 0.051881853 -0.22383107 -0.21243037
000110 75 40 21 bd b9 3f a6 3d ce c7 2f be 07 d5 6c 3d
       -0.03936811 0.08117623 -0.17166063 0.057820346
000120 c8 0a c8 bd 94 3e 17 3e 38 95 00 be c4 a5 42 be
       -0.09767681 0.14769965 -0.12556922 -0.19008547
000130 36 17 0b 3d e2 2a b0 3d 3c f8 b6 bc b7 a1 81 bd
       0.033957683 0.08601929 -0.022335164 -0.06329673
000140 ec 53 17 bd 19 ed 38 be 95 7b e3 bd ba ec 17 be
       -0.03694527 -0.18059196 -0.11107556 -0.14836398
000150 d1 3b 6b 3d 40 8f ff 3d b5 c5 42 3c 78 37 37 3e
       0.057430092 0.12478495 0.011887957 0.17892253
000160 c1 b4 7e 3a 67 8a 18 bd 2f f2 f7 bc e4 25 bc bd
       0.00097162655 -0.037241366 -0.03026685 -0.091869146
000170 1d 54 42 3d 33 fb 6f bd da b7 09 be fa a7 81 be
       0.047443498 -0.05858917 -0.1344904 -0.25323468
000180 3e 54 c5 bd 3e 3f f9 3d 78 7e 70 be ba de 44 be
       -0.096352085 0.121702656 -0.23485744 -0.19225588
000190 0f bb c3 3c fa 06 00 3c 5a a3 a6 3d b2 cf 83 3d
       0.023892907 0.007814163 0.081366256 0.06436099
0001a0 8e 4f bb bc db 82 5a bd 69 04 c6 bc b2 49 f2 bc
       -0.022865083 -0.05334745 -0.024172025 -0.029576156
0001b0 d4 a7 98 3c 24 be f1 3d 53 bf d1 3d 89 e8 a1 3d
       0.018634714 0.118038446 0.1024157 0.07905681
0001c0 70 e5 52 bd 75 ec 61 bd 8f 6b e6 bb 26 6f d3 bd
       -0.05148834 -0.055157144 -0.007031865 -0.10323934
0001d0 58 35 11 be de 00 93 bb 78 8c 42 bd 48 6a e0 bc
       -0.14180505 -0.0044861874 -0.047497243 -0.027394429
0001e0 dc a3 d9 3c 07 d7 0c 3d d2 ea bf bc dd 81 12 3c
       0.026567392 0.034384754 -0.0234274 0.008942095
0001f0 35 6f e2 3d 66 a8 5b 3c cc 6d 42 3c 3c 42 81 3d
       0.11056367 0.013406849 0.011866998 0.06311461
000200 44 f9 01 3e a1 0d 3f be 8a a7 62 3b 4d 99 a4 bd
       0.12692744 -0.18657543 0.0034584724 -0.08037052
000210 6b dd a6 3d f5 d8 83 3d 28 d8 be 3d 23 5c 51 3d
       0.08147701 0.06437866 0.09318572 0.05111326
000220 4e b1 11 3e 99 fe b5 ba d1 37 7c 3d c2 ca 00 bd
       0.14227793 -0.001388508 0.06157667 -0.031443365
000230 20 d6 0d bc 99 8b b8 bc 13 3c 14 3e ee 93 60 bd
       -0.008657008 -0.022527503 0.14476041 -0.054828577
000240 de ad 01 bd e0 e5 76 bd 0d da c4 bc 37 e3 df 3d
       -0.031659953 -0.06027782 -0.024029756 0.1093201
000250 28 80 6a bd ce e0 4d bd eb 16 9c 3b 41 71 8d bd
       -0.057251126 -0.05026322 0.004763474 -0.06906367
000260 5a cd 28 3e 28 d6 06 be ba c3 03 be a2 4b 9a be
       0.16484585 -0.13167632 -0.12867633 -0.30135828
000270 50 97 61 bd 23 0f 31 3e 3d 57 00 3d be 32 f7 bd
       -0.055075943 0.1729093 0.031333197 -0.12070225
000280 87 36 19 3d a3 4f 35 be f9 bf 10 3e ab 4e 0d be
       0.037405517 -0.1770616 0.14135732 -0.1379954
000290 99 03 28 3b 2b be 06 3d e4 3f 21 3e 2f 0c 82 3c
       0.002563691 0.032896202 0.15747029 0.01587495
0002a0 8c 52 3f bb b0 f9 a1 3d 35 e7 95 3c 78 e2 0e bd
       -0.002919349 0.07908952 0.018298725 -0.034883946
0002b0 2f 34 84 bd 27 8b 36 be 35 ea eb 3c 5f 73 1e bd
       -0.06455266 -0.1782652 0.028798202 -0.038684245
0002c0 a9 da 04 be f2 b4 ec 3c fd 99 89 bd f9 ae 67 3d
       -0.12974037 0.028894875 -0.06718824 0.05656335
0002d0 22 3c 09 be 34 37 a4 bd 0c a8 11 be fc 15 5e be
       -0.13401845 -0.08018342 -0.14224261 -0.21688074
0002e0 d5 13 c7 bd a9 e2 ce 3d 0e be 8b 3d 4f 6a 6f bd
       -0.097205795 0.10101826 0.068233594 -0.058450993
0002f0 e7 e7 5d ba ac be 39 3d 40 ce 37 3d 92 59 8d 3c
       -0.0008465037 0.045347854 0.04487443 0.017254625
000300 ae 08 b7 bc 64 bf 50 bd 38 9d ad 3c f2 ca 17 be
       -0.022343006 -0.050963774 0.021193132 -0.14823511
000310 73 c1 ba bb 33 29 98 bd 25 49 da 3d 76 fd a1 bd
       -0.0056993305 -0.07429733 0.106584825 -0.07909672
000320 e3 65 0e be ea 31 03 3e 7f a6 d3 3d fd e7 1f 3d
       -0.13906054 0.1281201 0.10334491 0.0390396
000330 39 f2 04 bb d4 ea 85 bd 73 5a 8f bd 90 6f 23 bd
       -0.0020285978 -0.065389305 -0.06999674 -0.039901316
000340 2a da e3 3d f0 0e c0 be f0 ab 15 3e 53 24 50 bb
       0.11125596 -0.37511396 0.1461637 -0.0031759932
000350 00 f9 c4 3c f5 3c 7f 3d ca 94 23 bd f5 be 40 3e
       0.024044514 0.062313993 -0.03993682 0.18822844
000360 f0 36 92 bc 93 af 29 3d 72 a0 f1 bc 66 0d 9c 3c
       -0.017848462 0.041427206 -0.029495452 0.019049358
000370 41 86 12 3e 8e ad 96 be e9 3a 21 3d 66 08 36 be
       0.14309026 -0.29429287 0.03936282 -0.17776641
000380 2f f7 92 3d a4 3a 10 be 2d ea 36 3c 6b b3 d7 bd
       0.07176053 -0.1408487 0.01116423 -0.10532268
000390 9d 74 9b 3d 17 c8 db bd 33 48 da bd b5 f9 45 bd
       0.075906016 -0.107315235 -0.10658302 -0.048333842
0003a0 66 1c 30 bd d7 03 e6 bd 74 3d 39 bb 1d 59 fd 3d
       -0.042995833 -0.11231201 -0.0028265389 0.12370513
0003b0 a6 d3 fb 3c c6 04 78 bd 63 c2 ea 3c 54 36 7b bd
       0.03074057 -0.060551427 0.028657144 -0.06133111
0003c0 4a fb 80 bc d7 62 3e be 79 38 38 be a6 1a b0 3c
       -0.015744824 -0.18592392 -0.17990293 0.021497082
0003d0 77 3f 28 3c ab ef a8 3c 96 4c 31 bd 30 41 67 bd
       0.010269037 0.020622095 -0.04328593 -0.056458652
0003e0 ca fa 11 be 6e 7d 00 be 86 13 d0 bd 44 67 05 be
       -0.14255825 -0.12547848 -0.10159974 -0.13027674
0003f0 ac 40 a4 3d 21 22 6f be e1 8d a9 be 75 7a 2f bd
       0.08020148 -0.23352863 -0.33116058 -0.042841394

12.bias f4 [16]
000000 35 77 85 3e df 4f 8f bd 10 91 de bc 66 5f 2f 3c
       0.2606751 -0.06997656 -0.02716878 0.010703897
000010 75 dd c3 bb 27 78 93 bd 68 37 dc bd 4c 5b ba bc
       -0.0059773275 -0.072006516 -0.107527554 -0.022748612
000020 a7 cc 9c 3e 39 7c 71 be c5 66 a9 bd b1 7e a6 bd
       0.30624887 -0.23582543 -0.08271555 -0.08129633
000030 62 84 b6 bd dd 5a 8a 3e 8a c7 af bc fc 6f 32 bc
       -0.08911969 0.27022448 -0.021457452 -0.010890957

17.weight f4 [24, 720]
000000 19 44 e7 3d a2 ee 44 3e 61 6e eb 3c 08 78 19 be
       0.112922855 0.19231656 0.028739156 -0.14987195
000010 6f f6 c1 bc e4 13 50 bd f9 63 2b 3d ac fe 86 3d
       -0.023677079 -0.05080022 0.04184339 0.065915436
000020 92 66 32 bd 84 31 c4 3d 93 45 4a 3e 90 c1 e5 3a
       -0.04355485 0.09579757 0.19753103 0.0017529
000030 f0 8f d7 bd e1 6c 3b bd 79 7c b3 bd 02 73 21 3d
       -0.10525501 -0.045758132 -0.08763976 0.03941632
000040 89 9a bc 3d f4 0e a6 ba 39 4d 2a 3e 81 28 1b 3e
       0.09209163 -0.0012669251 0.1663102 0.1515217
000050 3f 1a 0f 3d 78 16 5d 3d c9 71 71 bd b6 e0 94 bd
       0.03493714 0.053976506 -0.058946405 -0.07269423
000060 50 72 7a 3d a4 be 94 3d db b1 11 3c 9a b4 25 3e
       0.061144173 0.07262924 0.008892502 0.16182175
000070 44 bf bb 3d 26 0b 51 3d 2f d1 84 3d bf 20 89 bd
       0.091673404 0.051036023 0.06485211 -0.06695699
000080 bb 3c ec bc 61 75 c0 3d 09 63 cb 3d ad 4f 28 3d
       -0.028837552 0.09397388 0.09930999 0.04109161
000090 f1 f2 0b 3e 78 ab 8d 3d 70 12 6b 3d b6 37 6c bd
       0.13666894 0.06917471 0.05739063 -0.057670318
0000a0 86 6f d8 bd 05 75 66 bd 9d 67 21 3e dc 6f b8 3d
       -0.105681464 -0.056263942 0.15762182 0.090057105
0000b0 9b b7 f1 3c 2c bf f4 bd 21 5d 66 be ad 8b 47 be
       0.029506495 -0.11950526 -0.22496463 -0.19486876
0000c0 31 c0 89 be 90 ea 10 bd ab 54 7d be 11 1d a5 be
       -0.26904443 -0.035379946 -0.2473933 -0.32248738
0000d0 52 ed 0e 3e 9e 95 32 be f8 0d 20 bd 8e d1 f2 bd
       0.13957718 -0.17439887 -0.03907582 -0.11856376
0000e0 1e 43 c5 bd 9d 0c 1c be 81 31 88 bd 8a a0 12 be
       -0.09631942 -0.15239187 -0.06650067 -0.14319053
0000f0 71 68 2d be 7f 72 c7 3b 3a fc 36 bd e1 44 71 be
       -0.16934372 0.006086647 -0.044674136 -0.23561431
000100 35 f1 20 be 9e af 51 be 49 93 ea bd e8 42 ed 3c
       -0.15717013 -0.20477149 -0.11453874 0.028962567
000110 d8 76 e0 bd dd c9 d4 bd c2 4f 01 3d 1a 91 5f bc
       -0.10960168 -0.10390065 0.031570204 -0.013645435
000120 14 fa 34 be 59 b5 23 be b0 a4 5a be 4f 07 1c be
       -0.17673522 -0.15987147 -0.21351886 -0.15237163
000130 48 1b de b7 c6 b7 11 be 08 9b 27 be 79 c8 8d bb
       -2.6477166e-05 -0.1423026 -0.16367733 -0.0043268767
000140 cc 85 fa bd 15 47 9c be 32 13 97 bd 80 79 75 be
       -0.12232551 -0.3052298 -0.07376708 -0.2397213
000150 63 b7 6c be 63 5e 27 3d da bd 4d be 35 87 42 bd
       -0.23116831 0.0408615 -0.20091954 -0.047492225
000160 d1 53 0f 3d c6 c3 ff bd cc 5d 92 3d 5f 0b 96 3d
       0.034992043 -0.12488513 0.071467966 0.073263876
000170 33 a7 a7 3d ba e0 bb 3d 1e 6a 49 bd 33 cd 3e bd
       0.081861876 0.091737226 -0.049173467 -0.046582412
000180 2b f0 3a 3d cf 91 b0 3d b0 31 90 3d 23 16 4c 3d
       0.0456392 0.08621561 0.07040727 0.0498258
000190 20 bb d5 3c 0e 70 bf 3d b3 ba 95 3d 65 2f a4 bd
       0.026090205 0.093475446 0.07311001 -0.08016852
0001a0 65 0a 08 3d 28 0e b7 3d 9b 01 62 3d 9c 47 71 3d
       0.033213038 0.08938247 0.055177312 0.058906183
0001b0 3b b3 92 bd d3 3d d9 3c 9c 8b 5a bd 6c 15 80 3d
       -0.07163092 0.026518738 -0.053355798 0.06254086
0001c0 e2 cc 58 bd eb c4 0e 3d ef 53 c7 3c 66 e5 c5 3d
       -0.052929766 0.034855764 0.024332015 0.09662895
0001d0 74 ec 03 3d 43 24 20 3d 02 2f 22 3d 76 2c 91 bd
       0.03220792 0.039097082 0.03959561 -0.070885584
0001e0 27 b2 7d 3d e1 25 bd bd ca d1 c2 bd 21 3b af bd
       0.061937477 -0.092357405 -0.0951267 -0.085562
0001f0 c9 a2 96 3d bd cb 75 3d 4e 81 ed 3c 04 54 b6 3d
       0.073552676 0.060008753 0.028992321 0.089027435
000200 a4 23 6c bd 5c 28 69 3d 4f 6d b3 bd e4 40 c0 bc
       -0.057651177 0.056923255 -0.08761083 -0.023468442
000210 8d c1 51 bd a4 52 2b 3d 8a eb 02 3d c0 be a3 3e
       -0.051209975 0.04182686 0.03196291 0.31981468
000220 31 e9 80 3e 71 8f 85 3e 6d f0 89 be 8e a8 91 bd
       0.2517791 0.26086 -0.26941243 -0.071122274
000230 94 63 cd 3c de 0c 86 3e f4 8f d9 3d be e8 4c 3c
       0.025071897 0.26181692 0.1062316 0.012506662
000240 53 93 e2 3e 2f 10 74 3e b8 7c 4b 3e 23 9c 4f be
       0.44253024 0.23834299 0.19871795 -0.20274405
000250 97 bb 6b bd cc b4 ca 3d 63 ae 48 3e 53 e4 02 3d
       -0.057551946 0.098977655 0.19597773 0.03195603
000260 82 03 f7 bc 90 b4 36 3e 9f 45 4c 3e 0b b2 21 3e
       -0.03015304 0.17842317 0.19948433 0.15790574
000270 3a de 91 be 74 1a 0a be fc 35 01 be c9 7b 42 3e
       -0.28489858 -0.13486654 -0.1261825 0.18992533
000280 c1 85 04 3e 1e 38 6b 3e 7d 1e 6c ba 63 39 28 3e
       0.12941648 0.22970626 -0.00090072287 0.16428141
000290 cb ad 81 bd 5a 56 15 be f4 46 6e bd 6b 89 b4 bd
       -0.063319765 -0.14583722 -0.058173135 -0.08815273
0002a0 f9 1a 9f 3e 24 37 31 3e 18 8f 8e 3e 01 4e 9d 3e
       0.31075266 0.1730619 0.27843547 0.30723575
0002b0 71 7c 62 3e 40 ed b8 bd 39 fc 85 3d 9d 68 e9 bc
       0.22117783 -0.09029627 0.06542248 -0.028492266
0002c0 1f eb 25 be 0d 0e 91 3e 5e bf d0 3e 9e 90 bf bc
       -0.16202973 0.28331032 0.40771002 -0.023384389
0002d0 87 8b 31 be 22 ad 2f bd 6c 6b cf bd ee 87 45 bd
       -0.17338382 -0.04288972 -0.10127911 -0.048225336
0002e0 e5 f9 e7 bc dd 3a f4 bd 51 05 14 3e 4f 4a 83 3d
       -0.028317401 -0.1192529 0.14455153 0.064106576
0002f0 d1 99 1b be ce f5 80 bd 92 76 e5 bd 3a 20 4f bd
       -0.15195395 -0.062968835 -0.11204256 -0.050567843
000300 0f 34 e4 bc 29 af b7 bd c8 f4 7e bd cf c8 f5 3d
       -0.027856855 -0.08968956 -0.06224516 0.12001192
000310 64 9e 19 3d 73 48 e9 bd ca 31 9b bd 57 0c 90 3d
       0.03750457 -0.11390772 -0.07577856 0.07033604
000320 29 5b df bd c9 f5 5f bc 11 00 6a bd f0 6c 13 3d
       -0.10906059 -0.01366944 -0.05712897 0.035992563
000330 c8 d6 6f 3d 25 3f 4c 3d 25 0a 84 bd a1 3b b5 bd
       0.05855444 0.049864907 -0.064472474 -0.08849264
000340 c2 25 2a bd 87 15 3c bd 3f c9 d2 bc 5a 00 2d bd
       -0.041539915 -0.045918968 -0.025730727 -0.042236663
000350 90 00 03 be 3f 1b e2 3d 06 49 89 3d 2a d0 f0 bd
       -0.12793183 0.11040353 0.06703381 -0.11758454
000360 91 08 ee bd fd 3a 01 bd 0f 87 ae bd 66 00 8e 3d
       -0.11622728 -0.031550396 -0.08521854 0.0693367
000370 a0 28 53 3d f1 6a 3d be 7f 4f 88 3d bf 66 d5 3d
       0.051552415 -0.18497826 0.06655788 0.10419988
000380 d5 e5 1e be 0e ab c8 bb 50 4e a2 3c 01 24 04 be
       -0.15517361 -0.006123907 0.019812733 -0.1290436
000390 34 f2 9b 3d 4f af 66 3d f4 c1 8e bd 85 8e 59 3d
       0.07614556 0.05631953 -0.069705874 0.053114433
0003a0 83 7d a1 3d a6 30 15 bd f4 31 0d bd e9 23 49 3d
       0.078852676 -0.036423348 -0.034471467 0.049106512
0003b0 f2 5a 8f bd d0 34 c0 3d 04 20 87 3d ad d9 90 bd
       -0.06999768 0.09385073 0.06597903 -0.07072768
0003c0 95 53 af 3d 6a 2e 1f 3d fd 71 2f bd 75 8e 92 3b
       0.08560864 0.038862623 -0.042833317 0.0044725486
0003d0 d9 f7 2f 3d 45 52 d1 bd 86 65 d4 3c e6 1b 73 3d
       0.042960975 -0.1022077 0.025927316 0.059352778
0003e0 ad 45 93 bd 0c dd a1 3d e9 30 a9 3d 04 ae 9d 3d
       -0.07191024 0.079034895 0.08261282 0.076992065
0003f0 65 b9 bf 3b cb 81 b4 3b 6a 98 31 bd 0b 08 b8 3d
       0.005850958 0.0055086366 -0.043358244 0.08985909

17.bias f4 [24]
000000 06 57 08 bd c8 08 3e 3d 7a 89 a4 bd b4 63 ae 3c
       -0.033286117 0.046395093 -0.08034034 0.021287777
000010 b3 e5 eb bc f9 8a 17 3e 63 0f d8 bd 79 d6 b2 bd
       -0.028796053 0.14799108 -0.1054981 -0.08732314
000020 d7 ce 5c 3e 3f 00 1d 3d 36 da 26 3d e0 f6 7b bd
       0.21563278 0.038330313 0.040735446 -0.061514735
000030 62 cd 3a bd 02 4f 89 3d 36 b9 91 3d 65 ea 67 bd
       -0.045606025 0.06704523 0.07115404 -0.05662002
000040 a0 aa 60 bd 5b 42 f0 bc d6 c0 a4 3c ca 2b c4 3d
       -0.05485022 -0.029328516 0.020111483 0.095786646
000050 ba e7 97 bd 57 62 72 bc b2 70 ea bc 7c bb 89 bd
       -0.07417245 -0.014793954 -0.02861819 -0.06725213
