local_model_weights.pth (torch, 136708 bytes, 14 tensors)

0.weight f4 [32, 3, 1, 3, 3]
000000 95 dd 1a 3e 94 e1 e2 bc 4a cb 06 3e 86 1f 38 3e
       0.1512359 -0.027695455 0.13163486 0.17980775
000010 5c 34 ac 3d 81 ba c0 bd eb 57 1e be 7c 3b 00 3e
       0.08408424 -0.09410573 -0.15463226 0.12522691
000020 99 86 02 be 6d 4c 2e bd c7 39 01 bc 37 a4 54 bd
       -0.12746657 -0.042553354 -0.00788731 -0.05191442
000030 63 ab 56 3e 24 4c e5 3d 0d b1 01 be 5c 21 12 be
       0.20963816 0.11196163 -0.12665196 -0.14270538
000040 2b b8 1b be ff 3e 1e 3e f2 88 24 bc 5a 88 8b 3c
       -0.15206973 0.15453719 -0.010042416 0.01703279
000050 3e a5 2f 3e b9 e6 38 3d 22 ad 81 3e cf d8 1b be
       0.17152879 0.04514191 0.25327402 -0.15219425
000060 23 f4 c5 3a 63 d6 95 3c d8 64 a7 bd b9 b4 b6 3e
       0.0015102666 0.018290704 -0.08173531 0.35684755
000070 86 0f 16 be fb 52 df bc 51 77 1b 3e 55 da a3 bd
       -0.14654359 -0.027261248 0.15182234 -0.08000628
000080 fb b3 ca bc a7 cb 5c bd 7f a9 7e bb 12 9b d3 bd
       -0.024744025 -0.053905156 -0.0038858352 -0.10332312
000090 b5 a7 5c 3e 60 25 af bb 70 f3 61 bd c2 10 54 3d
       0.2154835 -0.0053450316 -0.0551638 0.051773794
0000a0 9d c1 5e be ee 48 3d be e4 93 c0 3d 2c 53 99 bd
       -0.21753545 -0.18484852 0.09403208 -0.07486567
0000b0 41 47 53 3d a9 bc 6f 3e b9 18 35 3c 01 60 5e 3d
       0.051581625 0.23411812 0.011053258 0.054290775
0000c0 d5 19 e7 3d 70 d6 0d be dc 83 79 3d 14 54 f5 bc
       0.11284224 -0.13851333 0.060916767 -0.029947318
0000d0 fa c0 08 be ee 46 9b bc 5e c5 89 3d 2a 6b 91 be
       -0.13354865 -0.01895472 0.06727098 -0.28402072
0000e0 7e e1 c5 3d 4d 35 67 be 7c d2 97 3b a2 21 82 3e
       0.0966215 -0.22578926 0.004633246 0.25416285
0000f0 c7 9c 41 be ce d5 af bd 13 50 17 3d 96 b4 80 be
       -0.18907462 -0.08585702 0.0369416 -0.25137776
000100 53 2d 04 3d a4 82 30 be c9 84 b5 bc ba 05 2a 3e
       0.032269787 -0.17237335 -0.022158043 0.16603747
000110 ba 76 b6 3d d5 cf 1d 3d 9b 3d 44 3d 14 c3 02 3e
       0.08909364 0.038528282 0.047910314 0.12769729
000120 16 a9 37 be e0 d3 4e be 47 1f 0d be c5 48 d0 bd
       -0.17935595 -0.20198011 -0.13781463 -0.1017013
000130 81 05 36 3e c5 be 80 3e e5 86 4c be 63 0e b3 bd
       0.17775537 0.25145546 -0.19973333 -0.087429784
000140 8b ba 41 3e 16 75 4f 3c 2c 50 c3 bd f2 f1 e7 3d
       0.18918817 0.012662193 -0.09536776 0.11325444
000150 08 6c e6 bd f2 ab 30 3d 6b 63 51 3e db 45 0f be
       -0.11251074 0.04313273 0.20448081 -0.13991491
000160 c0 b1 a6 3d ac 40 15 3e 2d 88 b9 bd 15 5d 27 3e
       0.08139372 0.14575452 -0.090591766 0.16344102
000170 90 ec d6 bd cf 9c 99 bc 45 8b 4a bd a1 85 05 be
       -0.104943395 -0.01875153 -0.049449224 -0.13039257
000180 63 b8 a1 3d 88 40 28 3e af 76 26 bd d7 d0 db bc
       0.07896497 0.16430867 -0.04064053 -0.026832981
000190 f6 12 2e 3e 20 9f 06 bd 30 a3 e6 bd 87 56 39 3e
       0.1699942 -0.032866597 -0.11261594 0.18099414
0001a0 f4 b7 42 bd d9 f2 6a 3e ee 3b 6b bc da 99 5d 3e
       -0.047538713 0.22944202 -0.01435755 0.21640721
0001b0 06 d7 25 3e b7 c4 cd 3d f9 3e 3f bd 62 c9 3e 3e
       0.16195306 0.10047286 -0.046690915 0.18631509
0001c0 65 a9 8d 3c ce 6e 29 3d 8d 54 0a 3e 01 ae 61 3e
       0.017292688 0.041365437 0.13508816 0.22039033
0001d0 fd 5b df bd 0b 8f 30 3d 4b b2 7b 3e 89 65 1a bd
       -0.10906217 0.043105166 0.24579732 -0.037694488
0001e0 77 56 e1 3d b1 23 6d 3e a3 ef de bd 56 3b 1d bd
       0.1100282 0.23158146 -0.10885551 -0.038386665
0001f0 54 66 ba bd 83 70 63 3d 17 2b 16 3e 7a 68 40 3d
       -0.09101549 0.05552722 0.14664875 0.046974637
000200 53 ec bc bd b4 fd d3 3d a5 3b b4 bd 10 78 59 3d
       -0.09224763 0.103511244 -0.08800439 0.053093016
000210 23 a1 ef 3d c5 4f e9 3b 6a c0 41 3e 60 50 5a 3e
       0.11700656 0.007120105 0.18921056 0.21319723
000220 7a ed 23 3e 92 85 0f 3e 59 e1 d3 3d b6 6c 61 be
       0.16008559 0.14015797 0.10345716 -0.22014126
000230 cb 26 03 bd 87 9c 88 3d 1d 39 48 be 38 3d 2b be
       -0.032019418 0.0667048 -0.19553037 -0.16722572
000240 98 3c 6b 3c 68 83 3f 3e cc 21 2f be 58 05 17 be
       0.014357708 0.18702471 -0.17102736 -0.14748132
000250 1e 34 c4 3d 8f 6b 74 3d 1c e6 aa 3d be b5 e3 bc
       0.09580253 0.05967289 0.08344671 -0.027796622
000260 da 40 71 be a4 03 8c 3e 53 8d 63 3e 04 7e 50 3e
       -0.23559895 0.27346528 0.2222188 0.20360571
000270 a8 ae 15 3e f8 2a b2 3a 95 77 a6 bb 76 16 08 be
       0.14617407 0.0013593128 -0.0050801733 -0.13289818
000280 24 4e 20 be 77 42 3c be c6 ff e1 bd 7d 5b 1f bd
       -0.15654808 -0.1838473 -0.11035113 -0.03890561
000290 4a 2b 04 3e 8a 99 79 be fc f9 ed bd d6 fc 1b 3e
       0.12907138 -0.24374977 -0.11619946 0.15233168
0002a0 b7 1f c1 bd a1 8e d4 3c 3e 8b 07 3d 65 b0 25 3d
       -0.09429877 0.025946917 0.033091776 0.040451426
0002b0 d3 43 44 be 4e ec 9f bd 31 54 68 be 81 1c 0b 3e
       -0.19166498 -0.078087434 -0.22688366 0.13585092
0002c0 66 fd d1 bd 3e bf b1 3d aa 1d 7e 3e 53 bb 8f 3d
       -0.1025341 0.08679055 0.24816003 0.07018151
0002d0 ce 81 ca bd 51 f2 0e bd 5d 9e de 3d b9 e9 ee bd
       -0.098880395 -0.03489906 0.10870049 -0.11665673
0002e0 0a ae 1c 3e 89 eb d7 3d 75 91 ca bc a0 cd 26 3e
       0.15300766 0.10542972 -0.024727562 0.16289377
0002f0 2e 46 3d be 42 b1 a5 3e b6 ec 8a 3d 8f ff b4 bd
       -0.18483803 0.323618 0.0678343 -0.088378064
000300 01 e5 0f 3e 56 ce 27 be c5 7b 8e bd dd 99 57 bd
       0.14052202 -0.16387305 -0.06957201 -0.05263697
000310 b1 c8 d6 3d 84 02 9b bd cf c2 33 3e 02 fb 08 bd
       0.104874976 -0.07568839 0.17554782 -0.033442505
000320 54 93 cf bd f6 2c c0 bc 8f 3b 1a be 11 73 87 bd
       -0.101355225 -0.023458939 -0.15061782 -0.06613744
000330 60 cf e1 3c ee 18 59 be ba 68 05 3b 6f d9 20 3e
       0.027564704 -0.21200916 0.0020356611 0.15707944
000340 d9 76 73 3e aa 92 35 be 82 60 1f bd a1 2c 53 3e
       0.23775806 -0.17731729 -0.038910396 0.20622493
000350 04 98 5b 3d f3 63 70 bd 4f f4 d8 bd 9d 0d 29 bd
       0.05361177 -0.05868907 -0.10593473 -0.04127275
000360 d1 e7 63 3e d6 2e 88 bd 24 42 db 3d 58 6e fc bd
       0.222564 -0.06649558 0.10705975 -0.12325734
000370 4f 44 0d 3e e8 57 51 bc f3 e4 f6 3b d6 1c af bc
       0.13795589 -0.012777306 0.007534617 -0.021376055
000380 f5 7d 1d bd 89 1b e1 bd 02 c9 8f bd f0 78 06 3d
       -0.0384502 -0.1099158 -0.07020761 0.03283018
000390 fb cd e7 bd 93 7c 54 3d 90 db a3 bd 2a af dd 3d
       -0.113185845 0.051876616 -0.080008626 0.108244255
0003a0 be 1e 2c 3e 05 95 c6 3d cd 90 37 3e d1 d8 1d 3d
       0.16808602 0.09696392 0.17926331 0.03853685
0003b0 98 25 98 bb cd 57 35 3e de 3f 19 3e d0 cf 69 3d
       -0.0046431534 0.17709275 0.1496577 0.05708295
0003c0 95 36 4e 3e cd 3c 02 be b8 a0 c4 3c 0e 22 21 be
       0.20138009 -0.12718506 0.024002418 -0.15735647
0003d0 e6 e4 00 3e 10 ef 0e 3e 86 92 43 be 6a f1 2a 3e
       0.12587318 0.13958383 -0.19098863 0.16693655
0003e0 f5 e6 16 be 82 0d f8 bd b9 66 9d 3d f5 66 c3 bd
       -0.1473654 -0.121119514 0.076856084 -0.09541122
0003f0 ea b9 8f bc 23 2b 2e 3c 6b 23 af 3c 23 e5 d4 3b
       -0.017544705 0.010630402 0.021379193 0.006497042

0.bias f4 [32]
000000 f7 51 9c bd 65 ba 10 be 51 51 53 bd f1 27 eb bd
       -0.07632821 -0.14133604 -0.05159122 -0.114822276
000010 2e e0 a8 bc 35 d6 5f 3c 5e 83 18 be 48 7b 02 be
       -0.02061471 0.013661911 -0.14893863 -0.1274234
000020 53 3a 44 bc 9a fd 36 be c3 10 9a bd 64 2f db bd
       -0.011976796 -0.17870179 -0.07522728 -0.107023984
000030 41 6d 46 bd 83 e3 b6 bc 8a 87 18 bd dd 04 02 3d
       -0.048444036 -0.022325283 -0.037238635 0.03174292
000040 51 f9 01 be 48 9e b1 3d 29 31 94 bd 74 0a 29 be
       -0.12692763 0.08672768 -0.07235939 -0.16507894
000050 e3 89 9c 3d 15 07 4a be 02 43 75 bd 0f f2 53 be
       0.07643487 -0.19729264 -0.059878357 -0.20697807
000060 e0 09 53 be 64 80 9a bc 5a d0 f9 bc 44 ee 21 ba
       -0.20609236 -0.01886005 -0.030494858 -0.0006177167
000070 10 63 a9 3c 46 a2 a7 bc 39 e3 4f 3e 30 4b c4 3d
       0.02067712 -0.02046312 0.20301522 0.095846534

3.weight f4 [32, 32, 1, 2, 2]
000000 aa ff 7d bd ce 1d a1 3d 61 7f 20 bd 97 72 8f bd
       -0.0620114 0.07867013 -0.039183978 -0.07004278
000010 c8 09 38 bd b5 0a ca bc 24 32 12 be 8c 1b ee bc
       -0.044931203 -0.024663309 -0.1427694 -0.02906587
000020 53 0f 98 3b 0d 93 0b be 27 7a ce bb aa 6b 0e bd
       0.0046404987 -0.13630314 -0.006301183 -0.034770645
000030 f7 72 70 bd 7a 21 b7 bd ef bd 85 bd fb 80 0c bd
       -0.05870339 -0.08941932 -0.065303676 -0.034302693
000040 e0 8d 95 3d 21 fd 56 bd b5 5e 65 3d 37 40 fc bb
       0.07302451 -0.052487496 0.055998523 -0.0076980847
000050 13 18 c1 bc 21 24 a6 bd 54 64 5d bd bb 00 dd bd
       -0.02357105 -0.0811236 -0.05405076 -0.10791155
000060 aa 25 a1 bc a8 5b 82 3d 8c d6 d2 bc 31 03 40 3c
       -0.01967128 0.06365138 -0.02573707 0.011719511
000070 d2 23 01 be 1e 38 4b bd ad db 10 be 08 25 79 bd
       -0.1261132 -0.049614064 -0.141463 -0.06082633
000080 a7 eb a4 bc 8c 6a c7 3d 21 f7 93 bd fb 12 8b bc
       -0.020131899 0.09737119 -0.072248705 -0.016976824
000090 af 98 d1 3d 39 ef 1d 3d 8f f0 25 3d 7d 33 e7 3c
       0.102342 0.03855822 0.040512618 0.028222794
0000a0 bf 71 9f bd 1c 8e 7e bd 1a 7d 7b bd 09 22 8c 3c
       -0.07785367 -0.062147245 -0.061398603 0.017106073
0000b0 84 bb a6 bd b2 ee e6 bd a7 39 3e bd 02 15 70 bd
       -0.081412345 -0.11275996 -0.0464417 -0.058613785
0000c0 45 96 ca bd b2 16 b2 bd 8b 2d 49 bd 1c fd 0e 3d
       -0.09891943 -0.08695735 -0.0491157 0.034909353
0000d0 dd 2e 0e bd 5e 79 f8 bd 26 ab 27 3c cc 73 13 be
       -0.03471266 -0.12132524 0.010233676 -0.14399642
0000e0 41 be 38 bc cd f2 e4 bd 76 ea bc bb 49 c9 c7 bb
       -0.011275829 -0.11179123 -0.0057652546 -0.006096993
0000f0 7d 22 06 be 98 ff 00 be d5 a6 ff bd 5c 66 8d bd
       -0.13099094 -0.12597501 -0.124829926 -0.06904289
000100 4c de 0f be ed 2f f7 bd 0a f6 91 bc 2f a6 89 bd
       -0.14049643 -0.12069688 -0.017817516 -0.0672115
000110 50 07 fa bc dd 9e 90 bd bb cb 9d bd c1 99 ea bd
       -0.030521065 -0.07061551 -0.07704874 -0.114551075
000120 d3 ab b8 bc 83 01 a4 bd 62 f7 a1 bd 47 5a 7c bd
       -0.02254287 -0.08008101 -0.07908513 -0.061609533
000130 6f 67 10 be d7 3b 90 3c 62 19 83 bc 2a f6 9a 3c
       -0.14101957 0.017606659 -0.016003314 0.018916208
000140 30 f0 16 be d8 5f 0e be 07 62 95 bc 1e 77 63 bd
       -0.14740062 -0.13903749 -0.01823522 -0.05553352
000150 e0 e4 dd 3d 38 6c ce 3d 8c 2a 39 bd ef 83 af bd
       0.1083467 0.10079235 -0.04520659 -0.08570086
000160 18 da 68 bd 3f 40 7b 3c b2 a1 91 bd 86 0f 1d bd
       -0.056848615 0.015335142 -0.07110919 -0.038344882
000170 42 94 d9 bc c6 b8 27 be df 8d 84 bd 4f 87 93 bd
       -0.026559953 -0.16379079 -0.06472372 -0.072035424
000180 6a 27 48 bd 4c 65 40 bb e5 03 93 bd 97 71 f8 3c
       -0.048865713 -0.0029357253 -0.07178477 0.030327601
000190 f0 cc 8a bd e5 a1 86 bd 80 06 39 bc 6b 66 21 be
       -0.0677737 -0.06573848 -0.011293054 -0.15761726
0001a0 df 7c 97 bd 05 bf 62 3b da 17 85 bd 13 4b e8 bc
       -0.07396864 0.003459872 -0.0649869 -0.02835611
0001b0 94 92 5e bd 62 b9 58 bd 1a 1a 56 bd 95 c4 b8 bd
       -0.054339007 -0.05291117 -0.052270986 -0.0902187
0001c0 39 b1 9e bd db 53 c7 bc 96 60 0c 3c 4f 84 96 bc
       -0.07748646 -0.024331978 0.00856795 -0.018373637
0001d0 f5 f0 b1 3c 7b 49 9d bc eb d5 07 3c 04 ca 47 bd
       0.021721343 -0.019200077 0.008290748 -0.04877664
0001e0 fe 72 c1 bd 9b d4 b5 bd 6b ba c3 3c d5 64 41 3d
       -0.09445761 -0.08878442 0.023892602 0.0472153
0001f0 90 bb c1 bd c4 fe 58 3c aa aa db bc 5a 38 41 3d
       -0.09459603 0.013244335 -0.026814777 0.04717288
000200 ff 5f 67 bd f4 31 fc 3d 1c 37 d1 3b d0 c2 04 be
       -0.056488033 0.12314215 0.0063847434 -0.1296494
000210 4c e4 f8 3c 43 bd 23 3d 18 19 ae 3d f6 40 1f bd
       0.030382298 0.039975416 0.0850088 -0.03888031
000220 02 7d 73 3c e4 a5 11 be c5 4b cd bd dc 41 44 bd
       0.014861347 -0.14223439 -0.100242175 -0.04791437
000230 8c 3d fe bb ac 93 07 3e fd 27 0b bb 5c 32 2b bc
       -0.007758802 0.13239926 -0.0021233552 -0.010449018
000240 04 a9 0a bb cb be 1a be ce c1 5a 3c 27 5a 7e bd
       -0.002115787 -0.15111844 0.013351871 -0.062097695
000250 55 60 10 be 32 b2 0b be 4f d4 bf 3c c1 e6 0b bd
       -0.14099248 -0.13642195 0.023416666 -0.03415561
000260 63 a4 06 be b5 5e 6b 3c 90 87 de 3d 51 ef e1 3b
       -0.13148646 0.014365842 0.108657 0.006894984
000270 58 9d fb bd 85 2f 6c 3c 1b c5 ab 3c 0e 07 08 be
       -0.1228587 0.014415626 0.02096801 -0.13283941
000280 89 3e 15 3c cc 8c 18 be 48 e4 cc 3d 4e da b9 3d
       0.009109148 -0.1489746 0.10004479 0.090748414
000290 d7 97 04 3d 91 fb a1 3b d4 e6 6d 3c 48 61 a9 bb
       0.03237137 0.004943319 0.014520366 -0.0051690675
0002a0 bc 31 0a be 8d 0e b6 3c 21 80 82 bd 81 bb 39 3d
       -0.13495535 0.022223735 -0.06372095 0.045344833
0002b0 6d 7c 09 bd 5a c0 e7 bc cc e3 cc bd c7 ce 15 bc
       -0.033565927 -0.028289963 -0.10004386 -0.009143538
0002c0 02 20 b6 bd b8 49 de bc 8e 9f 3a 3d 5b 7a 29 3d
       -0.08892824 -0.027134761 0.04556232 0.041376453
0002d0 0d e1 06 bd 98 b9 9c bd 7e e8 18 be c3 75 a5 bc
       -0.03292947 -0.07652587 -0.14932439 -0.020197755
0002e0 0e 09 13 be 7e 40 e3 bd e7 49 34 3b a0 b2 b2 bd
       -0.14358923 -0.11096285 0.002750987 -0.08725476
0002f0 da ef 06 3d 94 c3 61 3d e8 4a ae bd bb 8c b9 3b
       0.032943584 0.05511816 -0.08510381 0.0056625283
000300 87 f8 f3 bd e0 69 e4 bd cd 70 e5 3c 41 19 a1 bc
       -0.11912637 -0.111530066 0.02800789 -0.019665362
000310 9e 23 a7 bd 9b 82 13 be 7d 02 07 be 50 17 b6 bd
       -0.0816109 -0.14405291 -0.13184543 -0.08891165
000320 86 ed 3b bd bc d0 b2 bc cb 58 80 bd 22 40 f7 bd
       -0.045880817 -0.021828048 -0.06266936 -0.12072779
000330 d5 35 a2 3d e7 4d bb 3d 25 de b9 ba 4b 2e 23 3d
       0.07920424 0.09145718 -0.0014180584 0.03983907
000340 81 2a b6 bd 82 5a 62 3c f7 91 00 be b2 b5 14 bd
       -0.08894826 0.013815524 -0.12555681 -0.03630609
000350 9f f4 13 be 4d ca 81 bc 33 83 1d bd 48 da 42 bc
       -0.14448784 -0.015843535 -0.0384552 -0.011892863
000360 dc e2 a8 3d b2 c2 ab bd 63 34 62 3d 23 2e ce bc
       0.08246395 -0.083867446 0.05522574 -0.025168484
000370 5f 78 3a bd 77 bb 99 3c fa cc 28 bd ee f0 8d bd
       -0.04552495 0.018766148 -0.041211106 -0.06930719
000380 c7 53 67 3b 60 4a cc 3b 75 95 19 bd 50 f0 db 3c
       0.0035297738 0.006234452 -0.03749605 0.026847988
000390 93 8e 8d bd ec e4 e7 bd 15 cb 83 bc ba 09 ff bd
       -0.069119595 -0.1132296 -0.016088048 -0.12453027
0003a0 e3 55 af 3d da 5c ec 3c 9a d2 de bd 0c d8 0f be
       0.085613035 0.028852869 -0.10880013 -0.14047259
0003b0 d3 3b 56 bd d4 f8 ae 3c 99 55 16 bd a9 a4 27 3c
       -0.052303147 0.021358885 -0.036702726 0.010232129
0003c0 83 17 ef bd ba 69 43 3d 15 5d 55 bd 67 4a 41 be
       -0.116744064 0.04770825 -0.052090723 -0.18876038
0003d0 a7 74 4f bd 88 5a 25 bd 7b 04 16 bd 0a 6c 9e bd
       -0.050648358 -0.04036954 -0.036625367 -0.077354506
0003e0 ea f1 94 bd 0d ce 15 bd c1 7f 99 bc 89 01 89 bc
       -0.07272704 -0.03657346 -0.018737676 -0.016724365
0003f0 22 8f 0e be 76 5e c0 bd 0f 14 67 bd 10 2b 3a bc
       -0.13921788 -0.09393017 -0.056415614 -0.011362806

3.bias f4 [32]
000000 d9 d1 bb bd 45 b1 99 bd 93 05 13 3c cb 7b 2c be
       -0.09170885 -0.075045146 0.008973497 -0.16844098
000010 44 02 da bd ef e5 c4 bd ff 15 87 bd 9b 2e 0c be
       -0.106449634 -0.09614169 -0.06595992 -0.13689654
000020 9b 5d c2 bc e3 15 d3 bc 3f 5e c2 3d df 0e d0 bd
       -0.023726275 -0.025767272 0.09490632 -0.101590864
000030 19 29 ba bc 20 bf 01 be 35 49 00 3d 84 78 f5 3c
       -0.022724675 -0.12670565 0.031319816 0.029964693
000040 8a 01 06 3e 12 1b 2c bd 6c 9d 87 bd 82 1b fa bd
       0.13086525 -0.042018004 -0.06621823 -0.12212278
000050 e0 02 83 3c ec 59 02 be 28 6a b3 bd 98 78 36 3b
       0.015992582 -0.12729615 -0.08760482 0.0027842876
000060 40 6c db 3c 0c a1 31 bd 38 e0 0e be 0d 74 f6 bd
       0.026785016 -0.043366477 -0.1395272 -0.12033854
000070 45 80 8b bd 0b 6f e9 bd 90 69 b2 bd 6c cb c7 bc
       -0.06811575 -0.11398133 -0.08711541 -0.024388991

6.weight f4 [32, 32, 1, 2, 2]
000000 ea e3 3b bd a4 2d 09 be a1 37 7b bd 29 f5 72 3c
       -0.045871653 -0.13396317 -0.06133235 0.014828959
000010 d9 fb 82 bd ec c0 d4 bc 3d bb b1 3d 39 e5 05 3d
       -0.063956924 -0.025970899 0.08678291 0.032689307
000020 db 3b a2 bd 2d 1b 3e bd 45 d1 83 bc 32 ac 88 bb
       -0.07921573 -0.046412636 -0.016090998 -0.004170918
000030 43 38 79 3d b6 e3 0d bd 1d bb 3f bd f4 ec e6 3d
       0.06084467 -0.03464099 -0.046809305 0.11275664
000040 85 3d 26 3d df 69 c1 bc 48 9b 9f bd 63 56 ee bb
       0.040586013 -0.023610054 -0.077932894 -0.0072734817
000050 e3 d9 17 3d d6 64 18 3d 33 b2 2e bd 53 55 bf bb
       0.037073027 0.03720554 -0.042650413 -0.005839029
000060 1c 8a 1a 3e d3 04 9e 3d e5 3a 1b 3e fc 1e 35 3d
       0.15091747 0.07715764 0.15159185 0.044219002
000070 5b bb 62 3c 07 51 42 3c 6d 32 6a bd b3 4c d9 bd
       0.013838614 0.011860139 -0.057176996 -0.10610332
000080 0f 73 cd 3d b0 44 83 bd c0 7d 3c bd b0 f0 00 bd
       0.10031711 -0.064095855 -0.046018362 -0.031479537
000090 2a 09 4f bd 7a e9 40 3d d1 45 d1 bd b9 e2 06 bd
       -0.05054585 0.04709766 -0.102183945 -0.032931063
0000a0 d0 d8 ce 3b 96 23 a2 bd 0f 7f b9 bd f1 d9 25 bd
       0.006312467 -0.07916944 -0.09057438 -0.04049105
0000b0 86 3d 86 bd a7 94 29 bd c4 28 0d bd cc ba a7 bd
       -0.065547034 -0.04140153 -0.034462705 -0.081899256
0000c0 5d 9c 71 3c 35 50 54 3d f0 dc 98 bd 01 0d 3b bd
       0.014746753 0.051834304 -0.074640155 -0.0456667
0000d0 2b 5b 08 3e c1 8c a0 3d 87 f2 49 bb 7a 84 29 3c
       0.13316028 0.07839347 -0.0030814724 0.010346526
0000e0 2b ad eb bd 73 0c 1c bd de 32 95 bd e2 5a 77 bd
       -0.115076385 -0.03809781 -0.07285093 -0.060389407
0000f0 1f ed 7e bd b1 bd d9 bb 48 b3 d1 39 77 7f 78 bd
       -0.062237855 -0.0066449274 0.0003999716 -0.060668435
000100 77 54 ea bd b6 dc c6 bc 0c d2 f0 bd 3f b7 53 bc
       -0.11441892 -0.024275165 -0.11758813 -0.012922107
000110 ab 43 01 3d 8a 09 25 bd e6 a4 8b 3d 96 54 0f bd
       0.031558674 -0.0402923 0.06818561 -0.034992777
000120 ec 6e b9 3c 2f e0 3d 3c 0a 28 61 3c fe 9d b5 bd
       0.0226359 0.011589094 0.013742456 -0.08868025
000130 66 8d a8 bd 37 91 54 bd a2 93 44 bc 6c f2 c6 bd
       -0.082300946 -0.0518963 -0.011998089 -0.09714207
000140 75 c8 73 bc c4 d3 00 3e 7e 8f 39 3c a2 11 3d 3d
       -0.014879336 0.12580782 0.011325715 0.046159394
000150 fa fe 5c 3c a0 76 dc bd af bb 94 3c e3 b1 cd bc
       0.0134885255 -0.107648134 0.0181559 -0.025109237
000160 ac 26 1d 3d 01 58 3e 3d e9 07 f2 3d 71 f6 6b bc
       0.03836696 0.046470646 0.11817915 -0.014402018
000170 f4 8e 1c bd bb 5b 3c 3d 27 3e dc 3c ec 9d bd bd
       -0.03822227 0.04598592 0.026885105 -0.09258637
000180 ea db 7e bd ff 53 d2 bd 7a 82 ff bd 08 3f f5 bd
       -0.062221445 -0.10269927 -0.12476058 -0.11974913
000190 be f9 0d bc 17 16 88 bd 98 70 1f bc f4 43 a6 3d
       -0.0086655 -0.06644838 -0.009731434 0.0811843
0001a0 8d f7 a3 3c c3 7b 71 3c 0c c3 53 bd 84 fc 88 bc
       0.020015502 0.01473898 -0.051699683 -0.016721971
0001b0 ce ce df 3d e0 9a 31 3c 99 e1 16 3e 7b c3 92 3d
       0.10928117 0.010840148 0.14734496 0.07166191
0001c0 02 8c 78 3c ed a7 19 bd 54 cb c7 bd d3 8a 3e bb
       0.015170099 -0.037513662 -0.09755579 -0.0029074445
0001d0 9a b1 c1 3d 51 34 81 bc 38 5c 7f 3d 6a 02 8f bc
       0.09457703 -0.015772017 0.062343806 -0.017457206
0001e0 37 02 70 bd 85 5d dc 3b 5f 73 c5 bd c3 8c 03 be
       -0.058595862 0.0067250156 -0.09641146 -0.12846665
0001f0 bc 37 9e 3c 70 f7 b2 bc 70 c8 73 bd ce bb 1a 3d
       0.019313686 -0.021846503 -0.059517324 0.03777676
000200 49 f2 cd 3d 3b 92 f9 3d 42 b7 4a b8 f3 29 8b bd
       0.10055978 0.121860944 -4.8331225e-05 -0.067951106
000210 8f cb ef bc 14 da 50 bd 0e 87 ff bc 11 74 46 bd
       -0.029271869 -0.050989226 -0.031192329 -0.048450533
000220 72 56 c3 bd 94 54 fb 3d 66 35 f3 bd b2 3e 62 3d
       -0.095379725 0.12271991 -0.11875419 0.055235572
000230 3f 96 fb 3c fb dd 9a 3d c2 8c 13 3b 78 2f ac bc
       0.030711291 0.07561871 0.0022514318 -0.021018729
000240 05 b6 aa bd 39 3a d3 ba 0d 60 77 bd c1 6e 15 bd
       -0.08335499 -0.0016115374 -0.060394336 -0.036482576
000250 37 f9 fc bd eb 71 be bd d2 93 9e 3d 08 90 7b 3d
       -0.123522215 -0.09299072 0.07743038 0.061416656
000260 e5 37 42 3d 4b e4 de bc a7 d2 e6 3c 69 73 26 bd
       0.047416586 -0.027208468 0.028176619 -0.040637407
000270 9f 29 f7 bd aa 56 df bd 02 26 d0 bd de 5e b4 bc
       -0.120684855 -0.10905202 -0.101634994 -0.022017892
000280 74 94 00 3d 9d a9 06 be 44 28 c7 3d a1 cb de bd
       0.031391576 -0.1315064 0.09724477 -0.10878683
000290 08 42 39 3c 10 35 0d 3b 50 00 5d 3d 74 bf a4 3e
       0.011307247 0.002154652 0.053955376 0.32177317
0002a0 32 46 37 be 4c 60 c3 bc 56 aa a2 bd 69 8d 38 3d
       -0.17897871 -0.023849629 -0.07942645 0.045056734
0002b0 b3 2c 66 3d b1 43 ad bd bf 61 b5 bd da d2 5f 3c
       0.056194972 -0.08460177 -0.08856534 0.013661111
0002c0 3f 90 14 be a6 0a 80 3c b2 59 4c bd 98 13 28 3d
       -0.1450815 0.015630078 -0.049890228 0.04103431
0002d0 6b 02 cb 3b bb eb ac 3b 4a 46 ec bc 3e 52 e7 bd
       0.0061953566 0.0052771247 -0.02884211 -0.11294983
0002e0 c5 65 4c 3d ba 7b d5 bc 18 02 1b be 2e 11 9b 3d
       0.049901742 -0.026059974 -0.15137517 0.07571636
0002f0 08 76 bc bd 2b 13 56 be 53 b5 f7 bd 4f 0c 12 3e
       -0.092022 -0.2090575 -0.12095132 0.14262508
000300 79 81 8a bd be d1 80 bc 07 8b ab bb e3 c5 19 bd
       -0.06762976 -0.015725013 -0.005235079 -0.037542235
000310 bc f4 10 3d 10 7c 0f be 02 25 9a bd a1 19 89 bc
       0.035389647 -0.1401217 -0.0752659 -0.016735854
000320 e9 fa 95 bd c0 f4 42 be 13 80 12 be 92 10 0e 3d
       -0.07323248 -0.19038677 -0.14306669 0.03468377
000330 aa 02 f8 bc 24 32 cb bc 01 1b bd 3d e4 b4 d2 3d
       -0.030274708 -0.024804182 0.09233666 0.102884084
000340 89 c8 ae bd d5 73 36 bd ff ae 12 be bf 20 f3 bd
       -0.08534343 -0.04454406 -0.14324568 -0.1187148
000350 76 97 cd 3d ba fb 0a be f9 09 e6 3c 45 80 67 3d
       0.100386545 -0.13572589 0.028080927 0.05651881
000360 15 c7 f6 bd d6 83 88 bd 09 0f 06 be 57 1f e8 3b
       -0.12049691 -0.06665771 -0.13091673 0.007083814
000370 91 f5 f8 bc 48 af 5f bb e5 45 8c bb 09 c0 92 bc
       -0.030390533 -0.0034131575 -0.004280793 -0.017913835
000380 9b 55 a0 3c 0b f3 44 bb 3b 8d 3f bd 56 8b b1 3c
       0.01957207 -0.0030052091 -0.046765547 0.021672886
000390 a3 fa a0 3d 89 8a 86 3d 6a 62 99 3d 61 c5 0f bd
       0.07860305 0.06569392 0.07489474 -0.035100345
0003a0 c7 33 d7 3c fe e7 b1 3c 59 ba b7 bc 6b cc 9e 3c
       0.026269807 0.021717068 -0.022427725 0.019384583
0003b0 03 cf ad 3d 78 a7 49 3d 32 a0 92 bc dc ab eb 3d
       0.0848675 0.049231976 -0.017898653 0.11507389
0003c0 20 20 e5 bd 42 9b 32 bd 3e 8f 3c bd 1e f3 cd 3c
       -0.11187768 -0.043605097 -0.046035044 0.025140341
0003d0 2c 8a f8 bd bb fd 73 bd bf 25 e8 bd 9d 1d 08 3c
       -0.12135729 -0.059568148 -0.113353245 0.008307842
0003e0 27 e2 c3 3d de d0 08 3b 1e 73 db bd 1d 2b b1 bd
       0.095646195 0.0020876448 -0.10715316 -0.08650801
0003f0 b4 9b 31 bd 90 f0 91 3d ae 94 c9 bd b4 44 81 3d
       -0.04336138 0.07125962 -0.098428115 0.06311932

6.bias f4 [32]
000000 36 4e ea bd 4a d9 11 be 30 1c 57 bd 7f b5 fe bc
       -0.11440699 -0.14243045 -0.052517116 -0.031092403
000010 55 e8 62 3d 87 1d 6f 3c 31 4b fe bd 60 24 ad bd
       0.05539735 0.014594442 -0.124166854 -0.084542036
000020 21 c6 f5 bd 85 bc 87 bc 61 5b 1b bd 11 7f 29 3d
       -0.12000681 -0.016569385 -0.037928943 0.041380946
000030 07 27 ff bd b8 98 5f bd 08 cd 84 bd 95 96 27 be
       -0.12458616 -0.054589003 -0.06484419 -0.16366036
000040 2e 06 0e bd ba 72 f1 3d 06 1e 0b bd 35 f3 73 bc
       -0.034673862 0.117894605 -0.03396418 -0.014889528
000050 ad df c0 bd 80 b9 c9 bd 14 1d ed bd 38 00 95 bd
       -0.09417663 -0.098498344 -0.11577812 -0.07275432
000060 d2 38 63 bd 3d 8b 86 bd 70 2b f9 bd 7a 16 3b bd
       -0.05547411 -0.06569526 -0.12166488 -0.045675732
000070 7d 2d 87 bd 34 44 da bd d0 30 dd bd 64 7b 7c bd
       -0.06600473 -0.1065754 -0.10800326 -0.061641112

9.weight f4 [32, 32, 1, 2, 2]
000000 4c 3a 18 be d2 07 a2 bd 73 3a 28 be 88 fe 0c 3c
       -0.14865988 -0.07911648 -0.16428547 0.008605607
000010 67 dd 9b 3c a7 4a 81 3d 2c 97 51 3c f3 ba 90 bd
       0.019026471 0.06313067 0.01279239 -0.07066908
000020 c2 fc 65 3c 4b 2d 92 3d a8 d8 3e 3b f2 71 01 3e
       0.014037313 0.07137545 0.0029120836 0.12641123
000030 14 d0 7b be ae bd 99 be 67 12 20 bc af 10 8f bd
       -0.24591094 -0.30027527 -0.009770012 -0.06985604
000040 4e d1 70 3c bc 8f b7 3c c2 f3 41 bd 94 20 61 3d
       0.01469834 0.022407405 -0.047351606 0.05496271
000050 80 c3 69 be c0 df ab bd 8f 8d c9 bd e3 d1 d7 bd
       -0.22828484 -0.08392286 -0.09841453 -0.105380796
000060 4f 0c 70 bd b9 76 9d 3d 86 bc b2 bd 3d 2e 75 bd
       -0.05860549 0.0768866 -0.08727364 -0.05985855
000070 69 14 d7 bd 78 32 7e 3d 3d 70 28 bb 7a d7 84 3d
       -0.1050194 0.06205985 -0.0025701665 0.064864114
000080 d1 ad 54 3c cd 11 fd bc f7 2b 21 3e 17 99 03 3e
       0.012980894 -0.030892277 0.15739428 0.12851368
000090 c1 62 9d bd 9a fa ee 3c 3c 48 94 3d f0 63 bd 3b
       -0.076848514 0.02917223 0.0724034 0.0057797357
0000a0 3b f0 e7 3c 3b 30 c6 3c a2 e2 77 3d 02 d5 49 3d
       0.028312793 0.02419292 0.06051887 0.049275406
0000b0 a9 a1 97 3c 74 b6 d4 bc 8e 79 01 bd 98 e1 30 be
       0.018509703 -0.025965907 -0.031610064 -0.17273557
0000c0 a9 d9 3d be 36 1e 4b 3e de 46 b7 bd 06 c3 5c bd
       -0.18540062 0.19835743 -0.08949064 -0.053896926
0000d0 a4 c2 d7 bb 7d af a5 3d 81 82 88 bd 88 a6 87 3c
       -0.0065844823 0.08090112 -0.06665517 0.0165589
0000e0 69 20 60 3d cc 71 3e bd bc ef bb 3d 6a 76 9d 3d
       0.05471841 -0.046495244 0.09176585 0.07688601
0000f0 8d 8a bc bc ca 03 fc 3c 34 32 81 bc dd 4e 81 3d
       -0.023015285 0.030763526 -0.015771009 0.0631387
000100 d7 64 28 3d 72 8b a7 3d 92 c4 08 3e 8f 07 c7 3d
       0.041111793 0.08180894 0.13356236 0.097182386
000110 46 1a f7 3d 79 8a 96 3d 81 a6 43 bd 2a c3 26 be
       0.12065558 0.0735063 -0.047766212 -0.16285387
000120 10 76 79 bd 5c f9 ca bd 77 d8 6f bd a1 ef 91 bd
       -0.06090361 -0.09910843 -0.058556046 -0.07125784
000130 d8 c9 6b bd 1a 2f b0 3b cc 31 93 3d a4 1e 11 bd
       -0.05756554 0.0053767087 0.071872324 -0.03542961
000140 bb 63 91 bd 51 23 bd bd 66 2a 4e bd 78 f1 d2 bd
       -0.070991 -0.09235252 -0.050333403 -0.10299963
000150 cf 9b 85 bd 52 77 03 3d 0f 98 b2 bd b2 bd a6 bd
       -0.06523859 0.032096215 -0.08720409 -0.0814165
000160 4d b3 05 bd 96 41 8d bc 65 28 0b be e1 d2 62 3d
       -0.032641698 -0.017243188 -0.13589628 0.05537689
000170 b1 46 2b 3d 0c c3 5c 3e 89 b9 bd bc e4 67 80 bd
       0.041815463 0.2155878 -0.02315976 -0.062698156
000180 04 fc 73 3d 8c 09 6b bd 45 8a 55 3d ad 1f 68 3d
       0.059566513 -0.05738215 0.052133817 0.056670833
000190 b9 2c f9 3d 42 3f d7 3c 23 82 16 3e 8d 8e f8 3d
       0.12166733 0.02627528 0.1469808 0.121365644
0001a0 4c e6 82 bd 57 79 13 be 97 6f 80 bd e8 a0 85 bb
       -0.06391582 -0.14401756 -0.06271284 -0.0040780194
0001b0 c0 b4 51 bc 66 23 7b bd 4a 9d 9b 3c 02 c5 fe 3d
       -0.012799442 -0.061313055 0.0189959 0.1243992
0001c0 d5 9e c6 3d 23 48 ac 3d 5b c8 9f bd 66 09 2b 3d
       0.096982636 0.084121965 -0.07801887 0.04175701
0001d0 22 5f de 3d 3e 49 05 3e 63 fc aa bc ed 19 c1 3c
       0.10857989 0.13016221 -0.0208723 0.023571933
0001e0 44 80 5e bd 50 5e ec bc c8 3b b6 3b 03 3b fd bd
       -0.054321542 -0.028853565 0.0055613257 -0.12364771
0001f0 5f dc 0d 3e b2 0c 0f 3e ca a3 be bc 12 76 05 3e
       0.13853596 0.13969687 -0.02327146 0.13033321
000200 c9 6d d9 bd 12 ef 21 bd fb 4f 3a 3d a2 36 d6 3c
       -0.10616643 -0.039534636 0.04548643 0.026149098
000210 19 69 77 3d b9 12 ea 3c db 56 cb 3c 2c c2 6d bd
       0.060402963 0.02857338 0.02482169 -0.058046505
000220 c3 81 10 bd b3 23 bc 3a 47 82 79 3c 4b 06 78 bc
       -0.03528 0.0014353901 0.015228814 -0.015138219
000230 d8 a7 d5 bd 65 3a 45 be dd 9c dd 3d 5b 30 b2 3d
       -0.10432404 -0.19260557 0.10820935 0.08700629
000240 75 08 fe ba 11 e3 16 3e fd 3a 97 3d bf 03 30 3d
       -0.0019381183 0.14735056 0.07384298 0.042972323
000250 0b 6a 49 bd f4 03 01 be f0 d3 40 bc ed d8 3e bd
       -0.049173396 -0.12599164 -0.01176928 -0.046593595
000260 48 62 9b bd 37 e4 9d 3d 80 34 1b 3d af 88 8a 3d
       -0.07587105 0.07709544 0.037891865 0.067643516
000270 06 ce 52 3d e3 df 11 3d 94 69 98 bd 5a 69 89 bd
       0.05146601 0.035613906 -0.074420124 -0.06709547
000280 ef e4 0e 3e 1b 2e fc 3d 1d 6b b8 3d c0 77 87 b9
       0.13954519 0.123134814 0.09004805 -0.00025838427
000290 ea ab 05 3d 83 58 a5 bd 21 e3 61 bd 25 70 12 bd
       0.032634653 -0.08073523 -0.055148248 -0.03575148
0002a0 60 96 8a bd 4a 5f fb bc 1e f0 d3 3c c3 8b 8e bc
       -0.06766963 -0.030685086 0.025871333 -0.017400628
0002b0 d2 53 a5 bd b2 f3 97 bd 7c 50 1f bc 6a 2e 9f bd
       -0.08072628 -0.07419528 -0.009723779 -0.07772525
0002c0 b6 b6 a4 bc 16 58 23 3e a4 9f 6b 3c a8 b6 82 3d
       -0.020106655 0.15951571 0.014381323 0.06382495
0002d0 e2 cf 2e 3d ac fe ac 3d 06 cf d1 3b 31 e5 5c 3d
       0.04267872 0.08447012 0.006402853 0.05392951
0002e0 b8 44 13 bd d8 d4 88 bb e3 dc cd 3d 9c ee a3 bc
       -0.035954207 -0.0041757636 0.100518964 -0.020011239
0002f0 96 b5 ce bd 00 51 38 3e 43 bc 45 3d 91 0d 43 bd
       -0.100932285 0.17999649 0.048275243 -0.04762036
000300 5a d7 bf 3d 25 12 13 3e 75 89 0e 3e 56 95 44 3c
       0.09367247 0.1436239 0.13919623 0.011998495
000310 b3 b0 c6 bd 76 94 57 bd 4c 3a 3c be 88 31 91 be
       -0.097016715 -0.052631818 -0.18381613 -0.28358102
000320 41 fa b8 bd 6e 9e 23 3d 81 fa 95 3c 85 0f 29 3d
       -0.09032107 0.039946012 0.018307926 0.041274566
000330 f0 1c d6 bd 10 fe b8 bd 76 aa 4d bd 8a 39 d9 bc
       -0.10454738 -0.090328336 -0.050211392 -0.026516695
000340 89 58 17 3d 2e 5c 5c 3a 5a a5 57 bd 9c b5 da bd
       0.036949668 0.000840607 -0.052647926 -0.106791705
000350 1a a6 b3 bc d8 9d fa 3b 3d 16 18 bd f9 75 db 3d
       -0.02192979 0.007648211 -0.037130583 0.10715861
000360 41 b2 b7 bb 99 9e fa 3b a1 6e 14 bb b2 fe 84 bd
       -0.0056059663 0.007648301 -0.0022648948 -0.06493892
000370 c1 3b 4e 3e 6b a4 45 3e 46 87 56 3d a6 63 a7 bd
       0.20139982 0.19301002 0.0523751 -0.08173303
000380 76 c0 0d bc 42 65 a4 bd 9a 2a c7 3c 08 28 be 3c
       -0.008651843 -0.08027126 0.024312306 0.023212448
000390 e6 1b 08 3e e2 62 0f 3d 9d ea ef 3d 63 26 94 3d
       0.13291892 0.03500641 0.11714671 0.07233884
0003a0 46 5f ae bb 77 42 97 bd 4d a0 52 bd 3c 93 e1 3b
       -0.005321416 -0.07385724 -0.051422406 0.006884007
0003b0 67 e5 5e 3d e8 2c ea 3d 9c 33 35 bd e1 94 16 bd
       0.054417994 0.114343464 -0.04423867 -0.036763076
0003c0 7a 33 51 3d 73 a9 1c 3e c1 0e 96 3d 85 97 8b 3d
       0.051074483 0.15299015 0.07327033 0.068160094
0003d0 92 ab 87 3d 3b 52 23 3d 71 bb 91 3d 2b 72 2f 3d
       0.06624521 0.039873343 0.0711583 0.04283349
0003e0 29 f5 63 bd f9 ed f6 3d b9 15 2e bd 56 f3 09 3d
       -0.055653725 0.120571084 -0.042501185 0.03367933
0003f0 98 59 50 bc ab ca 3d 3e 89 bc 0d 3d 12 f3 9b 3d
       -0.012716673 0.18534343 0.03460363 0.07614721

9.bias f4 [32]
000000 82 e4 a0 bd 23 2b 95 bd 27 c6 dd bc b2 cd 3b bd
       -0.078560844 -0.07283618 -0.027072025 -0.045850463
000010 6e ab c2 bd 4c fa fa bd 30 14 65 bd c9 3f d7 bd
       -0.09505354 -0.122547716 -0.055927455 -0.10510213
000020 4b b8 b3 bd ea a4 82 bd a1 f0 77 bc 6e 03 4b 3e
       -0.087753855 -0.06379111 -0.015133054 0.19825527
000030 f3 2b 91 bd 59 5f 88 bd 88 35 96 bc 8a 69 19 be
       -0.07088461 -0.06658811 -0.018336073 -0.14981666
000040 04 ff 91 3e f1 1d bc bd 02 cd cf bd b6 6b 2e bd
       0.28514874 -0.09185398 -0.10146524 -0.04258319
000050 e7 ef 47 3e b3 65 d4 bd 65 4c 01 be cc 9e aa bd
       0.19525109 -0.1037096 -0.12626798 -0.08331069
000060 37 05 a6 bd d4 99 a8 3c 06 32 38 be aa cf 15 be
       -0.081064634 0.020581163 -0.17987832 -0.14629999
000070 aa cf 74 bd e2 35 fc bd 73 51 fb 3d 6f 57 2b be
       -0.059768356 -0.12314965 0.122713946 -0.16732572

12.weight f4 [16, 32, 1, 2, 2]
000000 8e d4 33 3e 2c 40 1f bd c1 83 df bd 0c f8 5a bd
       0.17561552 -0.03887956 -0.10913802 -0.053459212
000010 08 c7 36 3e b5 ab 44 3d 9b 97 02 bd c3 9c f0 bd
       0.17849362 0.048015315 -0.031882863 -0.1174865
000020 b6 32 f0 3d 55 36 44 3e f9 98 66 3d 70 1f fe 3d
       0.11728422 0.19161351 0.05629823 0.1240834
000030 a2 e7 ca 3c 20 74 8f bb 0b b1 a1 bd 95 bc ca bd
       0.024768654 -0.004377857 -0.078950964 -0.098992504
000040 fd e7 b7 3d 3b d3 e2 3d 09 9c 17 3e 62 24 31 bd
       0.08979795 0.11075445 0.14805616 -0.043247588
000050 ab 52 ce 3d 07 b2 9d 3d e2 1f c1 bd 35 65 8d bd
       0.100743614 0.07699972 -0.09429909 -0.06904069
000060 94 1a e5 bb 15 d6 03 be 5d 5b 97 bd fa 80 44 bc
       -0.0069916938 -0.12874635 -0.07390473 -0.011993641
000070 ba 09 09 3e b0 5c b3 3d 6e 55 ad 3b 3c a8 9f 3d
       0.13382617 0.08757913 0.005289725 0.0779576
000080 02 00 fd bd 8e fe 1d 3d 7a bb 19 be b0 d0 ab bc
       -0.12353517 0.03857284 -0.15012923 -0.020973533
000090 79 74 75 3e be a7 99 bc 3f 1b 1d 3d 54 52 09 be
       0.23970212 -0.018756744 0.038356062 -0.13410312
0000a0 77 bc 16 be 7d d0 de 3c fe 64 0b bd 65 6f ac 3d
       -0.14720331 0.027199024 -0.03403186 0.08419684
0000b0 b7 8d f4 bd c8 a8 2d 3d 51 d4 bc bd 19 f6 92 3d
       -0.119410925 0.04239729 -0.09220184 0.07175846
0000c0 80 cc 6b bd ee 15 4c 3c ef d6 38 3c 88 6a 3a bd
       -0.057568073 0.0124564 0.011281713 -0.045511752
0000d0 42 57 da bc 2a 72 b1 bd d7 43 ba 3c 7d 76 56 3c
       -0.026652936 -0.08664353 0.022737427 0.013089773
0000e0 66 e1 4c be 8f 03 3f be 95 bf 82 3d 0a 59 17 3e
       -0.20007858 -0.18653701 0.063841976 0.1478006
0000f0 f1 b9 ea 3d 15 30 1c be ac 1b 0f be 09 7a e1 bc
       0.11461247 -0.15252717 -0.139754 -0.027524011
000100 c2 3d 4f bd 48 64 aa bc 14 02 9b be 22 11 34 3e
       -0.050596006 -0.020799771 -0.30275023 0.1758466
000110 95 c6 ea 3d 08 3b cb 3c 5e a8 65 3c 2c 03 e7 bd
       0.11463658 0.024808422 0.014017193 -0.11279902
000120 23 f5 0c 3e d3 c2 55 bd fa f2 f4 bb 93 b1 fa bd
       0.13765387 -0.052187752 -0.007475254 -0.12240901
000130 cc 6a d9 bd 3d ff 9a bc e9 83 aa bc 67 96 6a bd
       -0.10616073 -0.018920535 -0.020814853 -0.05727234
000140 9f f2 25 bc e6 e0 d6 3d 28 a7 ff bd dd 9c 89 3d
       -0.010128646 0.10492115 -0.124830544 0.067193724
000150 15 20 bc bd 4a 4d fe 3d 56 12 03 be b6 a0 fa bc
       -0.09185807 0.124170855 -0.12799963 -0.030594211
000160 e4 24 d9 3d d4 1b 40 3a a5 99 61 bc ca 14 e1 bd
       0.106027395 0.00073283655 -0.013769542 -0.10990293
000170 d0 ac d1 3c 81 54 72 3d e9 91 0a be fd 9b 52 3c
       0.025595099 0.05916262 -0.13532223 0.012854573
000180 0a 4c bc be be 5a 23 3e 1f 8f ed bc bf ce 31 3d
       -0.36776763 0.15952584 -0.02899891 0.04341006
000190 1b 5c 71 3e fa b3 33 bd 98 b9 8f 3d 82 9d 03 be
       0.23570292 -0.04387281 0.07017821 -0.12853053
0001a0 6c cc 18 3d b6 c3 97 bc da 59 d7 bd 55 9f 97 3d
       0.037304327 -0.01852594 -0.10515185 0.07403437
0001b0 56 49 6d bd d6 0a 78 3d 74 3b a8 bd d3 8e 0d bc
       -0.057931267 0.06055721 -0.08214465 -0.008640009
0001c0 b9 67 e6 3d 7c 2e 4a bc 8f e6 e3 bd e1 23 f5 bb
       0.11250252 -0.012340184 -0.1112796 -0.0074810837
0001d0 13 20 a5 bb 6f 4c f5 bc f4 03 20 bc 20 84 22 bd
       -0.005039224 -0.029943673 -0.0097665675 -0.039676785
0001e0 d6 cf 01 3d aa 39 60 3b cc 1a dd bb 26 a1 e0 3b
       0.03169235 0.0034214058 -0.006747579 0.006855148
0001f0 eb 4c f5 3d dc 63 9c bd a3 1c bc bb f9 b3 30 3b
       0.119775616 -0.07636234 -0.0057407185 0.002696274
000200 c2 ed db 3c 2d a0 8f bd 7a ef 9a bd f5 a3 c0 bd
       0.02684677 -0.07012973 -0.07565208 -0.09406272
000210 d8 fa 16 3b 90 14 51 be 7a b0 b0 bd 8f be d8 bd
       0.0023037698 -0.20418 -0.0862741 -0.10583221
000220 a3 e0 be bd 22 64 94 3b cc 86 57 bb 12 01 a9 3c
       -0.0932019 0.0045285383 -0.0032886742 0.020630393
000230 a2 3b 5f 3c 68 81 d8 3d 09 ab f0 3c 25 40 ad bb
       0.013625057 0.10571557 0.02937843 -0.0052871876
000240 f5 3b 27 be 69 99 80 3d 65 82 74 3c 3f e9 d7 bd
       -0.16331466 0.06279261 0.014923667 -0.10542535
000250 c7 db 8f 3d 8f 41 bd 3d aa 4c 72 3d e3 f1 38 3e
       0.07024341 0.0924102 0.059155144 0.18061022
000260 fa dc dd 3b 66 93 85 bd 3d b7 c9 bd a6 79 ca bb
       0.006770727 -0.06522255 -0.09849403 -0.0061790524
000270 71 3f 60 3d 64 f7 d1 bd 63 d5 35 be f5 85 ba bd
       0.054748002 -0.10252264 -0.17757182 -0.091075815
000280 77 4b 89 bd 14 9f 15 3d d4 17 d2 bd 39 51 b5 3c
       -0.06703847 0.03652866 -0.10258451 0.022133457
000290 bb 3f 6c bc 80 26 58 be e2 55 f3 bd 24 e2 47 be
       -0.014419491 -0.21108437 -0.11881615 -0.1951986
0002a0 ee da ef bd 3b 0c 19 3c e6 2b 71 bd 7e d6 99 bd
       -0.117116794 0.009341295 -0.058879755 -0.07511614
0002b0 16 34 08 3e 09 38 0d 3e 32 63 72 3d e3 22 4d 3e
       0.13301119 0.13790907 0.05917663 0.2003284
0002c0 e1 c7 f7 3c c5 3f 8e 3c 8f d5 1c be a4 ba 2d bd
       0.030246677 0.017364392 -0.15315841 -0.042414322
0002d0 0f 29 b1 bd ea 15 5f 3b 1f d5 24 3d b7 72 5a bc
       -0.086504094 0.0034040161 0.04024231 -0.013333014
0002e0 18 03 f8 bd c0 b7 50 3c 97 f9 e9 bd f1 7e 4d bd
       -0.12109965 0.012739122 -0.114245586 -0.05016989
0002f0 2d 75 04 be 99 2f 00 bd 3e f1 95 3d f6 be 87 3d
       -0.12935324 -0.031295393 0.07321404 0.0662822
000300 c8 da 95 3e ff d3 92 3e b3 58 a6 3e dd 52 b0 3e
       0.2926848 0.28677365 0.32489547 0.3443822
000310 91 2c 27 3c 75 8a 31 be 8f 07 ab bd ce d0 86 bd
       0.010203497 -0.17337973 -0.08351051 -0.06582795
000320 c0 53 ac 3d 57 ff 3f be 41 c4 33 bd 96 53 fb bc
       0.084144115 -0.18749748 -0.043888334 -0.030679505
000330 de ad 88 bc af 4d 14 3e 72 c1 f7 3d a3 ec ac 3c
       -0.016684469 0.14482759 0.12097444 0.02110893
000340 2d 97 40 3e 55 3a ca 3d 90 ef c2 3d c9 ba e5 3d
       0.18807669 0.09874407 0.09518349 0.11217267
000350 d0 8c 2d 3d 0e 8b ff 3b 21 dd de 3d 73 68 74 bc
       0.042370617 0.007798559 0.10882021 -0.014917481
000360 c9 7f 1d 3e 8e f7 72 be 78 e2 50 be 92 48 13 be
       0.15380777 -0.23727247 -0.20398891 -0.14383152
000370 1e 42 d8 3c 3b 40 5d bd 6b 4b 83 3d 3b 7e 14 bd
       0.026398715 -0.054016333 0.06410869 -0.036253195
000380 b0 7e 14 bd 5d f4 ef bc b0 c5 48 be 73 e7 b2 3c
       -0.03625363 -0.029291326 -0.19606662 0.02183888
000390 1e 54 38 3e 6e a0 cb bd 6a ce 8e 3d 3a 14 58 be
       0.18000838 -0.09942709 0.06972964 -0.21101466
0003a0 62 ec 47 bc 43 e5 ea bc b4 c8 ca bd 6f 25 91 3c
       -0.012202354 -0.028673774 -0.09901562 0.017718045
0003b0 2a 43 12 3d a2 47 57 3d bb 4d 08 3c fb cb 82 3d
       0.035708584 0.05255855 0.008319314 0.063865624
0003c0 ee ff 9a bc 51 70 1e be 70 68 02 bd b7 05 82 3d
       -0.018920865 -0.15472533 -0.03183788 0.06348746
0003d0 c8 7b 43 3b fd 41 65 3c c7 75 44 be 4b fe 8c bc
       0.0029828418 0.013992784 -0.19185553 -0.0172111
0003e0 18 dd 3a 3e f4 9d 8b 3e 50 87 97 3e d4 44 9b 3d
       0.18248403 0.27268946 0.29595423 0.07581487
0003f0 0d d1 94 3d 66 76 1c be b8 59 eb bd bc 75 89 bc
       0.07266436 -0.1527954 -0.11491722 -0.016779773

12.bias f4 [16]
000000 d0 85 1d 3d 1b f0 61 3e b5 ed 49 3e 9a 67 8d bd
       0.03845769 0.22064249 0.19719584 -0.06904526
000010 08 c1 25 3e 42 fb da bc d7 2f 2a be 7d 16 72 bd
       0.16186917 -0.026731137 -0.16619812 -0.059103478
000020 c0 75 15 bd 16 36 35 3d 50 8d 73 bd e5 d1 6b 3e
       -0.03648925 0.044241033 -0.059460938 0.23029287
000030 92 99 2c bd a5 cb e3 3d 10 64 b0 3d bf 9a 18 bd
       -0.042138644 0.111228265 0.086128354 -0.037256952

17.weight f4 [24, 720]
000000 ba af 3e bc bd 38 5f 3b ed b8 ba bc 20 ad f5 bc
       -0.011638576 0.0034060918 -0.022793258 -0.029989779
000010 a0 a7 01 3c 67 79 22 3c 44 a8 00 bd eb 1f 24 bd
       0.0079135 0.00991664 -0.03141047 -0.0400695
000020 7c 6d 9a bc 84 38 c7 3b 7e e8 1e bc 47 f3 2e bd
       -0.018851034 0.0060797352 -0.009698985 -0.042712476
000030 ae 6f bc bc d0 38 12 bd a4 17 5b 3b 6b 9d 27 bc
       -0.023002472 -0.035698712 0.003343084 -0.010230402
000040 4b b5 85 bc 71 9f 9e bb cc 82 66 3c 7d 1c 0b bd
       -0.016321799 -0.0048407842 0.01406927 -0.033962715
000050 ac 27 d2 bc ba b7 0f bd 70 72 67 bc 07 21 64 bd
       -0.025653683 -0.035087325 -0.014126405 -0.05569556
000060 b4 26 4f 3c 7e 2d c5 b9 9d c4 4a 39 41 f4 fb 3c
       0.012643505 -0.00037608662 0.00019337465 0.030756118
000070 4e 5a 69 bc bc 8c 4b 3c 93 3b 37 bd bf ca 28 bd
       -0.014242722 0.01242369 -0.04473455 -0.04120898
000080 4f 30 91 39 1d 02 10 bd e7 3b aa bc 27 04 9b bc
       0.00027692548 -0.035158265 -0.020780517 -0.018922878
000090 ba cf 84 3d 2f 67 e6 bb 75 77 82 bc 0a fc ab 3c
       0.06484933 -0.0070313434 -0.015926102 0.020994205
0000a0 7f 38 36 bd 42 77 d1 bc 9a be ec bc 48 d3 e9 bc
       -0.044487473 -0.025569562 -0.02889948 -0.02854313
0000b0 d1 11 cf bc 24 c7 a2 bd a6 56 83 bd f8 05 61 bd
       -0.02527705 -0.07948139 -0.06413011 -0.054937333
0000c0 48 e1 51 bc 2c 68 97 bd f6 6a d6 bc 00 23 12 3c
       -0.012810059 -0.07392916 -0.02617405 0.008919477
0000d0 fe f2 10 bd a2 70 13 bd 95 3e f2 bc 53 a6 18 bd
       -0.035387985 -0.035996087 -0.029570857 -0.037267994
0000e0 db 27 ba bc 7f e8 33 bc 7f ac 9f bc 4e 1c 81 bd
       -0.022724083 -0.010980724 -0.019491432 -0.06304227
0000f0 45 65 4d bc 3d 20 71 bd 47 d2 c4 bc 22 f8 82 bd
       -0.012536352 -0.058868635 -0.02402605 -0.06394984
000100 ea 74 9d bd 32 8c 80 bd 7c b5 1f bd 6f e9 04 bc
       -0.07688315 -0.0627674 -0.038991436 -0.0081122955
000110 00 d4 7e bd a8 da 21 3d 5b c6 84 bd bb e4 f6 bc
       -0.062213898 0.039515167 -0.06483146 -0.030138364
000120 4b 9b a2 bd 3b 45 6b bd a6 32 96 bd a7 09 be 3c
       -0.07939776 -0.05743907 -0.07333879 0.023197962
000130 61 df d2 bc c7 7c de bc 7e 4d 45 3d bb 8d 80 bc
       -0.025741281 -0.027159108 0.048169605 -0.015692582
000140 e3 2e 04 bd 8b 0b f1 bc 18 05 7a bd 08 07 8d bd
       -0.032271277 -0.02942445 -0.061040014 -0.06886107
000150 cf 8f 1f 3d 11 4e 8a bd 5c d3 83 bd 6d f0 2d 3d
       0.038955506 -0.06753171 -0.06436798 0.042465616
000160 6c 14 ad bc 29 17 12 bd 16 a9 8f bd 3a db 32 bb
       -0.021127902 -0.03566662 -0.070146725 -0.0027291314
000170 70 9e 4e bd cd dc 6f bc 22 3a fb ba 24 82 81 bd
       -0.050444067 -0.014640045 -0.0019167105 -0.063236505
000180 f3 bf 40 3d 71 94 70 3c 43 5f d7 bc 9e 6e b5 bd
       0.047058057 0.014683829 -0.026290542 -0.08858989
000190 43 90 8f bd 39 b3 96 bd 05 71 81 bd dd 4e 2e bc
       -0.070099376 -0.07358403 -0.06320385 -0.01063892
0001a0 00 da 30 bc 4b 05 a5 3d 21 43 a8 38 b9 6e 16 bc
       -0.010794163 0.0805765 8.023368e-05 -0.009181672
0001b0 1f 94 16 bd 6a 93 75 bd b6 8e 1e bd 7b 2c c8 ba
       -0.036762353 -0.059955038 -0.03871032 -0.0015272045
0001c0 a0 96 97 3c bf a1 75 bc 13 71 17 3d 32 d3 7a 3d
       0.01850444 -0.014992177 0.03697307 0.061236568
0001d0 67 c2 87 bc bd 15 55 bd c7 a8 17 bd d5 3a a5 bd
       -0.01657219 -0.052022684 -0.037026193 -0.08067862
0001e0 e1 a8 67 bd 13 bd 58 bc e8 99 2a bc 1a f1 7b 3d
       -0.05655754 -0.013228673 -0.010412671 0.06150923
0001f0 c1 9c 58 3c 7a d9 ac bc 8f ad 37 bd 5c 14 c6 bc
       0.013220967 -0.021099795 -0.044843253 -0.02417963
000200 7f 55 a7 bd 87 c3 8c bd e8 cc 0c bb 53 15 a1 bb
       -0.08170604 -0.068732314 -0.0021484438 -0.004915872
000210 35 f2 9d 3d 5c de 69 3d 8f 26 da bb 96 d5 77 bd
       0.07712213 0.057096824 -0.0066574286 -0.060506426
000220 a8 da 77 bd 3d 0a 72 bd 8f 16 bc bc 18 00 3b bd
       -0.06051126 -0.059091795 -0.022959976 -0.045654386
000230 3a 73 42 bd 06 63 7e bd e3 78 82 bd 94 ce 62 bd
       -0.04747317 -0.062106155 -0.063707136 -0.05537279
000240 90 b5 c3 bd 72 2b 9a bd d3 f1 83 bd 37 0f cb bd
       -0.09556115 -0.07527818 -0.06442609 -0.099150114
000250 72 0a a5 bd b4 57 a2 bd 9a 20 0f bd 15 10 f3 bc
       -0.08058633 -0.07926884 -0.0349432 -0.029670754
000260 10 8f 9a bd 8e e7 d6 bd 42 74 90 bd 9b ea 85 bd
       -0.07546818 -0.10493384 -0.070534244 -0.06538888
000270 d9 f1 42 bd c4 82 3b bd c1 25 c8 bc f7 31 9f bc
       -0.047593925 -0.045779005 -0.024432065 -0.019433005
000280 ba 98 41 bd 99 b5 ec bc 96 07 04 be 8c 87 57 bd
       -0.047264792 -0.028895186 -0.12893519 -0.052619502
000290 a8 aa 9c bd 59 f3 16 bd 1a ab 90 bd 75 66 60 bd
       -0.076497376 -0.03685317 -0.07063885 -0.05478521
0002a0 41 68 ab bd a6 dd 19 bd e7 b6 36 bd 9b ad da bd
       -0.08369494 -0.037564896 -0.044608023 -0.10677644
0002b0 7a 56 41 bd 28 d8 e0 bc 16 b8 9e bd 2e a8 87 bd
       -0.04720161 -0.027446821 -0.07749955 -0.066238746
0002c0 27 b2 4a bd 29 f6 92 bd 66 27 58 bd 5d 60 95 bd
       -0.049486306 -0.071758576 -0.05277195 -0.072937705
0002d0 7b 52 59 bd f8 37 81 bd 41 75 88 bc 07 d9 42 3d
       -0.053057175 -0.06309503 -0.016657474 0.047570255
0002e0 bc 73 14 bc b0 f3 2f bd 74 2c 99 3d 91 ef 2b bc
       -0.009060796 -0.042957008 0.07479182 -0.010494129
0002f0 a8 dd 1a bd f0 f8 20 bc 89 00 a1 bc 10 8a 26 bc
       -0.037809044 -0.009824976 -0.019653575 -0.010164753
000300 03 58 81 3d 91 d0 2c bd a7 b7 fe bc 5f 8e 87 3d
       0.06315615 -0.042191092 -0.031093432 0.06618952
000310 09 69 a2 bc 25 9f 31 bc 64 74 3a 3c fd e4 8a bd
       -0.019825475 -0.010841166 0.011380289 -0.06781957
000320 e6 a7 92 bc 05 8c ad 3b a1 9c 03 bc ad 8d 1e bb
       -0.017902326 0.0052962326 -0.008032949 -0.0024193332
000330 7e 50 a4 3d 83 00 40 3c 38 26 d8 3c 25 52 d7 bc
       0.08023165 0.011718872 0.026385412 -0.026284287
000340 e5 f1 76 bd b7 d7 3b bd 57 29 7a 3d f8 ab 9f bb
       -0.060289282 -0.04586002 0.06107458 -0.004872795
000350 0b e6 f5 bc 13 92 ef 3c ce 72 84 bc ee 38 d5 bc
       -0.03001692 0.029244458 -0.016168024 -0.026028123
000360 c5 b0 9f bb 4f 03 19 bd 2d dc 8d bd ec b8 a3 ba
       -0.0048733675 -0.03735667 -0.06926761 -0.0012491024
000370 2e 09 35 bd 52 26 e8 3a 8d 07 61 3d 1f c2 86 39
       -0.044198208 0.0017711616 0.05493884 0.00025703103
000380 59 8f 04 3c fb 86 e6 bd 76 9b 68 bd a3 21 77 bc
       0.008090817 -0.11256214 -0.056788884 -0.015083703
000390 b8 8d d7 bc 58 a4 ea ba 4a 3d 8b bd 8d 8c fa bc
       -0.026312694 -0.0017901761 -0.06798799 -0.030584598
0003a0 95 11 29 bd 01 87 5c bd 21 8a 5f bd 6c bb 42 bd
       -0.041276533 -0.053839687 -0.05457509 -0.04754202
0003b0 25 7f 60 bd 33 f1 8f bd 1e e0 9b bb b8 40 5b bd
       -0.054808754 -0.07028427 -0.0047569415 -0.053528517
0003c0 8c 14 4b bd 1f 9a c1 bc 68 74 18 bd fb 8c 54 bd
       -0.049580142 -0.023633061 -0.03722039 -0.051892262
0003d0 3b c0 82 bd d6 76 54 bd c5 50 0e bd 1b 22 96 bd
       -0.06384321 -0.051871143 -0.034744997 -0.07330724
0003e0 1f df a4 bc 17 f6 7b bc b4 04 58 bd ac e7 b3 bc
       -0.020125924 -0.015378497 -0.05273886 -0.021961056
0003f0 b9 69 a3 bd e7 de 29 bd 17 9c 35 bd 4f 53 39 bd
       -0.07979149 -0.041472342 -0.044338312 -0.045245465

17.bias f4 [24]
000000 fe 3f 20 bd 94 33 64 bd 7a 62 80 bd 27 d2 9b 3d
       -0.039123528 -0.05571325 -0.06268783 0.07608443
000010 ca f3 04 3e 56 9c 99 bd 24 36 90 bd 75 1f ab bd
       0.12983623 -0.07500522 -0.070415765 -0.08355609
000020 17 97 2a bd cb d4 46 bd ce 6e 73 bd b6 6b 8f bc
       -0.041647997 -0.04854278 -0.059431843 -0.017507415
000030 c0 f9 c3 3d 89 67 9f 3d ec c2 78 3d 69 05 62 3d
       0.095691204 0.0778342 0.060732767 0.05518094
000040 8a 91 9e 3d fc d9 27 3d 7f 89 a6 bc 15 82 87 3c
       0.07742603 0.04097937 -0.020329235 0.01654152
000050 0d 7c 19 bd 97 df aa bd 3d b3 6b bc 67 36 a3 bd
       -0.03747182 -0.08343428 -0.014385995 -0.07969361
