old_model_weights.pth (torch, 136600 bytes, 14 tensors)

0.weight f4 [32, 3, 1, 3, 3]
00000000: 69a2 56be fcee 4e3d 5ab9 ec3d 7b7a 4c3d
00000010: e509 f4bc b84d 003e 3cfe 8a3d efe8 cc3c
00000020: 47c7 9c3d 0937 5dbe 32f5 c2bc 9ff3 04be
00000030: 5216 6cbd cda3 d73d 92a0 c73c 9359 18be
00000040: 614a 393c 07ac 57be 3ad1 91bc 38b8 eb3c
00000050: ab10 873d 1192 923d 94b7 e5bd 45fc b3bc
00000060: 99ea d23d 6c61 88bd af74 8a3d 281a c6ba
00000070: a7af 62be cb76 76be d254 f33d 9a4a 5cbe
00000080: da11 e33d 4c5b e8bd 4589 833d dc8f e1bc
00000090: 8eaf c93c 87be 18be f68b 1bbe 533d d23d
000000a0: c912 68be 9bd3 32bd 0e77 6fbd 229c 683d
000000b0: 3512 2dbe d330 89bd fdb7 8fbc 457c 65be
000000c0: 0236 263d 0c7c 2bbe bc75 083e 63c2 41bd
000000d0: dc2a 72be 8b8c c8bd 9c35 02be 3430 4bbe
000000e0: b566 05be 7903 e2bd 4dfd 0c3e c4d7 b93c
000000f0: f8ed 723d 482e 08bd 39e5 96bd 7d76 0d3e
00000100: ad03 5cbe e965 1dbe 6478 c03d 4ba8 073e
00000110: f7f8 be3d 58dc 743d 8c3d 5bbe 5e14 92bd
00000120: e384 1f3d bb53 0c3e 9cce 69be e501 72be
00000130: eb43 1cbe c7a0 cdbc 122e 8dbd e158 39be
00000140: e4a4 5fbd 276a 16be 853e 923d 58c4 0b3d
00000150: fc28 0d3e 2895 22bd 0e77 533c 8f15 0dbe
00000160: b818 26be 2ebe a33c 6d49 e93d 61c4 09be
00000170: 937c 02bd baba f7bd 02ff bd3d 506b 0a3e
00000180: e3c9 c23c d81a 1d3d 7575 8abb a051 0abe
00000190: 119f 90bc a19e 1fbe a045 41be 4559 b4bd
000001a0: b263 36be 8eea 1dbe cc58 13bc 43a6 dbbd
000001b0: 4076 c43c f48f 5fbd 3b0c 4a3d 3815 83be
000001c0: 4bf9 e2bd bd19 83be 645b e0bd 0e5e 4dbe
000001d0: 7dfe 17be f2dc b8bb 9831 2ebd 379e 78be
000001e0: 0f3c df3d 3199 ca3d 818a 6dbe 7fea 03be
000001f0: 0304 33bd a0ea c8bd 6481 c7bd 4c67 e9bd
00000200: ca90 903d 94d3 30bd c96c 42bd de61 68be
00000210: 0baa 5ebe 73a4 32bc 72ba ea3d 870a 423e
00000220: 3008 613e 4cb1 8bbd b215 bcbd e00c 26bd
00000230: 6a2f 143d d265 633e 59e9 643e cdeb 543e
00000240: f345 b43d 345c 0e3e 0989 e9bd 9989 e0bd
00000250: 8c0c f6bd 0ffc 0b3c cdf7 3c3d 5e9a 08be
00000260: cddb 6e3d ef3a b03c 16e6 56bd 7d30 c93c
00000270: a9cf 053e a7b0 633e 7a8a 6b3d 8fce 7d3c
00000280: d6c9 e83d 04e5 b03d 0d98 c6bd 480a f93d
00000290: a955 0ebe e2a1 e6ba a6dd df3d 1685 35be
000002a0: 2347 fbbd 1609 57be 628b 65be cbbf a1bd
000002b0: 6760 48be 2baf 36be f646 3abe ded9 1fbc
000002c0: 56d7 773c 740f 81bc c3d7 183d d166 983d
000002d0: e751 76be 05a1 a53d bd11 b83d 6adc e1bd
000002e0: 9a71 7a3d b895 813d a8e1 2bbd b3d9 2f3d
000002f0: 7041 54be a208 c7bd b94d 38be f5b7 883d
00000300: 6505 7fbe f248 be3d 48b6 6b3d fd5a 87bd
00000310: 7fc8 81be ec5e cabd 3849 433d 9ae7 1fbd
00000320: deb9 2bbe 57eb b8bc 333d 51bd 73df edbd
00000330: 69e6 b8bd 4960 43be 7876 38be 4673 b33d
00000340: 1e66 cc3d ba2a 8e3d 94c3 aa3c d634 99bd
00000350: 101d 89be cc57 59be 49d8 25be c6b2 71be
00000360: 7933 2e3c ee15 cd3d 4177 6dbe bb87 d6bd
00000370: 7c24 5cbc a16e 70be 5df3 31bd 0468 543a
00000380: 7e24 bebc 6575 033e ee2a 22be 4992 5e3d
00000390: 8a0d 3cbe 6785 be3d de96 66be 0d31 af3c
000003a0: f84e d3bd 9dda 443d 0a5a 82bc 98bd 27be
000003b0: 6121 4dbe 8a09 1bbe cb82 c63d 7171 b43d
000003c0: 834f 6bbe d382 16bd b9b9 2d3d 6b39 cabd
000003d0: 4647 bdbb f526 21bc f4c1 d6bd d174 b4bd
000003e0: b1f8 aa3d e6aa 06bc 5753 9c3d ccce f6ba
000003f0: c587 67be f749 0fbe 894a 57be e7fb 12be
-0.20960392 0.050520882 0.115587905 0.049921494 -0.029789874 0.12529647 0.067867726 0.025013415
0.07655197 -0.21603025 -0.023798559 -0.12983559 -0.057638474 0.105292894 0.024368558 -0.1487792
0.011309237 -0.21061717 -0.017799962 0.028774366 0.06594976 0.07156766 -0.112166554 -0.021970877
0.10298652 -0.06659207 0.06760537 -0.0015113996 -0.22137319 -0.24068753 0.118814126 -0.21512833
0.11087389 -0.113455385 0.064226665 -0.027534418 0.024619844 -0.1491643 -0.1519011 0.10265603
-0.22663416 -0.043658834 -0.05846315 0.056789525 -0.16901477 -0.066987656 -0.017543787 -0.22410686
0.04057885 -0.16746539 0.13326162 -0.047304522 -0.23649162 -0.097924314 -0.12715763 -0.19842607
-0.13027461 -0.110358186 0.13768502 0.022685893 0.059308976 -0.033247262 -0.073679395 0.13814731
-0.21485777 -0.15370907 0.09397963 0.13247792 0.0932483 0.05978045 -0.21410197 -0.07132791
0.03894509 0.13703816 -0.22832721 -0.23633535 -0.15260284 -0.025101079 -0.06893553 -0.18100311
-0.05460061 -0.14688931 0.07140831 0.034122795 0.13785166 -0.039693028 0.012906803 -0.13777755
-0.16220367 0.019988146 0.11390958 -0.13453819 -0.031857084 -0.12096162 0.092771545 0.13517499
0.023777908 0.03835568 -0.0042254278 -0.135077 -0.017653974 -0.15587856 -0.18874216 -0.08806089
-0.17811468 -0.15421507 -0.008993339 -0.10725071 0.023982167 -0.054580644 0.04932807 -0.25602126
-0.11082705 -0.25605574 -0.109549314 -0.2005541 -0.14843173 -0.005641573 -0.042527765 -0.24279104
0.10900127 0.098925 -0.23197366 -0.12882422 -0.043704998 -0.09810376 -0.09741476 -0.113966554
0.07058866 -0.043170527 -0.047467027 -0.22693583 -0.21744554 -0.010903466 0.11461343 0.18949328
0.2197578 -0.06820926 -0.091838256 -0.040539622 0.03617803 0.2220681 0.2235464 0.20793076
0.08802404 0.1390236 -0.114030905 -0.10963745 -0.12014112 0.008543982 0.04613476 -0.13340136
0.058315087 0.021512477 -0.05246552 0.024559254 0.13067497 0.22235356 0.05750511 0.015491142
0.11366622 0.08637431 -0.0969697 0.12160164 -0.13899864 -0.0017595852 0.10930948 -0.1772655
-0.122694276 -0.2099956 -0.22416452 -0.0789791 -0.19568025 -0.17840259 -0.18191132 -0.009756533
0.015127024 -0.015754439 0.03731514 0.07441486 -0.24054681 0.08087353 0.08987758 -0.11028369
0.061143495 0.06327385 -0.04196325 0.042932224 -0.20728087 -0.097184435 -0.17998399 0.06675712
-0.24904402 0.09291257 0.057546884 -0.066091515 -0.2534828 -0.09881386 0.04767725 -0.03903923
-0.16770121 -0.022573156 -0.051083755 -0.11614885 -0.09028322 -0.19079699 -0.18013942 0.08762221
0.09980415 0.06941743 0.020845212 -0.07480781 -0.26779985 -0.21224898 -0.16195787 -0.23603353
0.010632389 0.100139484 -0.23190023 -0.10475107 -0.013436433 -0.23479702 -0.04344498 0.0008102658
-0.02321076 0.12837751 -0.15836689 0.054338727 -0.1836454 0.09302788 -0.22518489 0.021385694
-0.103177965 0.04806005 -0.015912075 -0.16380918 -0.20032264 -0.15140358 0.096929155 0.088107
-0.2297955 -0.036745857 0.042413447 -0.09874233 -0.0057763187 -0.009835948 -0.104862124 -0.088113435
0.08348215 -0.008219456 0.07633083 -0.0018829941 -0.22610386 -0.13993059 -0.21024527 -0.14353906

0.bias f4 [32]
00000000: ac00 e83b 9368 5abe e5a8 e73b 7ea4 27be
00000010: 085d 71be 3e07 79bd beae 883b f185 5ebe
00000020: d8cc 43be 790c f6bd b840 a93d 7745 be3d
00000030: 7b49 34be cad0 7cbe 07fa 00be e2d2 923d
00000040: 94b2 84be d5ed acbc 6d27 c3bc a501 f33c
00000050: c99f 39be f76f bf3c ea3b 39be e4cb 6dbd
00000060: 3645 80bd f52e 103e c799 f9ba ea1a 8f3d
00000070: 89be 5ebd 5258 073d 0430 61be b450 413d
0.007080158 -0.21328954 0.0070696943 -0.16371343 -0.23570645 -0.060797922 0.0041712215 -0.21730782
-0.1912111 -0.12014098 0.08264297 0.09290593 -0.17606156 -0.24689022 -0.12595378 0.07169129
-0.25917494 -0.0211095 -0.02382251 0.02966387 -0.1812736 0.023368819 -0.18089262 -0.058055773
-0.06263201 0.14080413 -0.0019043022 0.06987555 -0.054380927 0.033043213 -0.21990973 0.047196105

3.weight f4 [32, 32, 1, 2, 2]
00000000: 31e7 50bd 2520 e0bd 4437 82bd d487 f4bd
00000010: 2f53 b4bd a997 eabc 8c7b b3bd 5e27 97bd
00000020: 8d1f a8bd 609a 9ebd 6cc9 42bc 39e0 80bd
00000030: 47e9 8f3c edef acbd 9a9d 6f3c 5908 94bc
00000040: 3546 bfbb 81d7 bf3c 9e8a 17be 7cd4 e03b
00000050: 1457 a7bd 3151 e0bd a101 a6bb 90e4 fcbc
00000060: 8105 da3b e648 adbd c6b0 d2bd a89c aebd
00000070: 2865 b4bc 17e5 4cbd 25ef 98bd f5ae 7abc
00000080: 25fc 07be 4932 88bd 1356 d3bd fbf7 f2bd
00000090: 3f79 f73b 702c 20bd 86d3 06bd 0e16 cebd
000000a0: 12af 14be 1244 50b8 1118 e7bd a3a5 18be
000000b0: 2d9d 80bd 979f 67bd 2226 8cbd a326 30bc
000000c0: 621e a4bd 3eb9 82bd 4cb0 e6bd e5e8 953d
000000d0: 23c6 f4bc 5b36 813a 5890 07ba d591 903b
000000e0: c901 16be bcae fcbc 9e6f 3dbc 4c11 52bc
000000f0: e66b 05be c2d6 12be 4482 3cbd 74f4 c4bd
00000100: ecb9 573c 5e90 d8bd 7ec7 32bd c0b1 a1bd
00000110: c82c 443c cc60 f9bc e646 f5ba a9b3 d33d
00000120: 2fc4 1dbd 621b 96bc 5e5a bb3d a8c8 f5bc
00000130: bcab 173d 7b64 c9bd 0301 483d 75f1 2dbb
00000140: 9a77 4fbd 29de f7bd b0c4 0bbc f6da 84bd
00000150: bbf3 64bd 7a3a 95bc 7df7 0d3d 8216 043d
00000160: ccf8 77bd 5c58 16bb c5cc a43d 10d8 cfbc
00000170: f81b 23be 9103 2c3d afc4 25bd e6f0 f6bd
00000180: f3df 41bd 8b6b 75bd f986 0fbe 9b53 a8bd
00000190: 6135 83bd 9198 cc3b ecc3 f7bb feea 83bd
000001a0: a891 e7bd 19d8 ba3c 11fe 283d bd66 f9bc
000001b0: db0e 16bd 42af a2bd 557f 013e b660 bb39
000001c0: bd69 063c b50f 823c 9c5b 74bd fda1 96bd
000001d0: ec59 ecbd 3d40 2fbc c98b 2ebd bb7a 82bd
000001e0: e699 723c e406 28bd 2d51 74bd e37b 5c3c
000001f0: 34dc a6bd 8994 6b3a 1a80 93bc 4640 00be
00000200: eb04 48bd 72eb cfbd 7299 0fbd 29af 4fbd
00000210: 11cf 103e 1843 d8bd 91e7 2c3c bb51 03be
00000220: 424a 02be a1c6 fcbc 4ad0 f8bd 0027 f7bb
00000230: 7996 1dbd 8a04 83bd 19cf c5ba 8a23 d5bc
00000240: 2950 8f3c 29a0 6fbd 2aaa 2d3b 7adb 953b
00000250: 3a0c 9abd 23b6 25be 44a2 90bd 6e31 f43a
00000260: 979c acbb 0880 4dbd f770 12bd da4e 0a3c
00000270: a28c e0bd 0b30 1bbe b99b 0dbd 7438 e3bd
00000280: a9c5 9abd c423 13bd 6eb9 28bd de18 22bd
00000290: 5b88 0ebd fd8a a6bc 958d 0fbe 0224 1fbd
000002a0: 4621 a0bd 0b08 2b3d 9481 72bc dad6 3dbc
000002b0: cead 67bd 5dd3 00be 7aea cfbc 959d bc3b
000002c0: d0ca 033d 50db 1f3e 6225 083d 6e77 083e
000002d0: 5004 0fbe 4ef4 25be 4af6 e5bd 6d06 c4bd
000002e0: 76c3 c7bc 88d8 4fbc ae6f 8e3d 008e c8bd
000002f0: 15e3 1abd e92e 18be d74f 0fbe 708c b5bc
00000300: 6d19 e5bd f24e 10be fca1 91bd 1aac 9bb7
00000310: ad8f 8d3d 106e 21be c0ab bd3d b985 0b3e
00000320: d2e6 ee3b 2e9c 4b3d ae1b 9abd 5526 273d
00000330: 7694 72bd 24ab b0bd afba 90bd 117e 023e
00000340: 978f 25be 1e0b c7bd 75ab e9bd e38e ffbd
00000350: 7bf4 183e 74fd 643d c56b 09be d19a 843d
00000360: 3898 d6bc 121b 093e bf6f 0dbd 10a0 e8bc
00000370: 9510 c03d 0813 d63d ed94 dc3d c6f5 993c
00000380: f2b9 9bbd d8e9 3ebc 4037 053e 22c2 6fbd
00000390: ff39 68bd 1c94 09bd 77b2 8fbd 0634 61bb
000003a0: 9c58 443d 9177 8b3d 5711 ae3c 6cbf 63bd
000003b0: 1c6a 353c 30d9 db3d 6156 0fbc b66b 5f3d
000003c0: c568 ddbd 7862 9cbd 00dc 95bd a80e 05be
000003d0: 0ffc 41bd c7b8 60bc 3539 22be 481c 29be
000003e0: 4dd0 acbc 25a8 f0bd e387 a6bd 3b6a d3bd
000003f0: 5807 b4bc 8cda 05be a5c8 6a3b 35a8 0fbd
-0.05100173 -0.10943631 -0.06358197 -0.1193997 -0.088049285 -0.02863677 -0.08763799 -0.073805556
-0.08209143 -0.077442884 -0.011888843 -0.06292767 0.01756729 -0.084442 0.0146249775 -0.018070387
-0.0058372268 0.02341819 -0.14798972 0.0068612676 -0.08170906 -0.10952986 -0.005066112 -0.030870706
0.006653488 -0.0846117 -0.10287623 -0.085259736 -0.022020891 -0.050023165 -0.07467488 -0.015300502
-0.1327978 -0.06650216 -0.10319152 -0.11863705 0.0075522955 -0.03910488 -0.03291657 -0.100628
-0.14519909 -4.965446e-05 -0.11283887 -0.14906935 -0.06279979 -0.05654868 -0.06843211 -0.010751399
-0.080136076 -0.063829884 -0.11264095 0.07319812 -0.029879635 0.0009858118 -0.000517135 0.004411916
-0.14649118 -0.030845039 -0.011562256 -0.012821507 -0.13029441 -0.14339736 -0.04602267 -0.09616938
0.013166886 -0.10574411 -0.04364728 -0.07895231 0.011973567 -0.030441664 -0.0018713146 0.10337002
-0.038517173 -0.018323604 0.091480955 -0.030002907 0.037029013 -0.09833618 0.04882909 -0.0026541625
-0.05065117 -0.121029206 -0.008530781 -0.06487076 -0.055896502 -0.01821636 0.03465985 0.032248028
-0.060540006 -0.002294085 0.08046869 -0.025371581 -0.15928638 0.04199559 -0.040470775 -0.120576665
-0.047332715 -0.059917014 -0.14016332 -0.082190715 -0.064066656 0.0062437733 -0.0075611975 -0.064413056
-0.113070786 0.022808122 0.04125792 -0.030444497 -0.03663526 -0.07943584 0.1264623 0.00035739475
0.008203921 0.01587663 -0.059657678 -0.073551156 -0.11540589 -0.010696468 -0.04261378 -0.06371065
0.0148072 -0.041022196 -0.059647728 0.013457271 -0.08147469 0.0008986672 -0.01800542 -0.12524518
-0.048832815 -0.101523295 -0.035058446 -0.050704155 0.1414149 -0.10559672 0.010553257 -0.12824146
-0.1272364 -0.030856432 -0.12149103 -0.007542491 -0.03847358 -0.0639735 -0.0015091627 -0.026017923
0.017494278 -0.05850235 0.002649913 0.004573283 -0.07521863 -0.16182761 -0.070622 0.0018630454
-0.0052676904 -0.05017093 -0.035752263 0.008441651 -0.109643236 -0.15155046 -0.034572337 -0.11094752
-0.07557232 -0.03592278 -0.041192465 -0.039574496 -0.034798007 -0.020329947 -0.14018853 -0.0388527
-0.078188464 0.041755717 -0.014801402 -0.011586869 -0.056562237 -0.12580629 -0.025380362 0.00575609
0.03217584 0.15611005 0.033238776 0.13326809 -0.13966489 -0.16206476 -0.112286165 -0.09571538
-0.024385195 -0.012685902 0.06954895 -0.09792709 -0.03781422 -0.14861645 -0.139953 -0.022161692
-0.1118649 -0.14092615 -0.07110974 -1.8557581e-05 0.069121696 -0.15764642 0.09261274 0.1362523
0.0072906995 0.04970949 -0.07524811 0.04080804 -0.059223615 -0.086263925 -0.07066857 0.12743403
-0.16168056 -0.09718917 -0.11409656 -0.12478425 0.14937012 0.055905774 -0.13420017 0.064748414
-0.02619563 0.13389233 -0.034530398 -0.028396636 0.09378163 0.10452849 0.10770593 0.018793952
-0.07603826 -0.011652432 0.13009357 -0.05853475 -0.056695934 -0.033588514 -0.07016461 -0.0034363284
0.047936067 0.06809915 0.021248503 -0.055602476 0.011072662 0.107347846 -0.008748622 0.05454608
-0.10810999 -0.07635969 -0.07317352 -0.12993872 -0.047359522 -0.013715929 -0.15842135 -0.16514695
-0.02109542 -0.11750821 -0.08131387 -0.10322996 -0.021976158 -0.1307165 0.003582516 -0.035072524

3.bias f4 [32]
00000000: 61d5 42bd 8525 2bbd 9280 363c 9617 9a3c
00000010: 8e8a 8bbd 2dd1 b3bc 5fbc c63b 7c2e 9f3b
00000020: 9bc8 09be b785 a8bd 8a51 b4bd 221f 6ebd
00000030: 5dcc c9bd 5630 0e3d c290 edbd 194d afbd
00000040: be75 8d3c 6983 153e 770a c5b8 7f30 7b3d
00000050: f59d 023e c054 803b 0631 9fbd d4b2 c73d
00000060: fcb6 20be 7e10 e4bc 68e0 093d 7922 20bc
00000070: 9bd6 18bd 6def c33d fd19 0f3e 05b1 16be
-0.047566775 -0.04178383 0.011139052 0.018810075 -0.068135366 -0.021950329 0.006064936 0.0048578363
-0.13455431 -0.08228629 -0.08804615 -0.05813516 -0.09853432 0.034714065 -0.11599876 -0.08559627
0.017268058 0.1460091 -9.395641e-05 0.061325546 0.12755568 0.003916353 -0.07773022 0.09750906
-0.15694803 -0.027839895 0.033661276 -0.009773844 -0.03731404 0.09567151 0.13974757 -0.14715965

6.weight f4 [32, 32, 1, 2, 2]
00000000: 7265 5bbc 46b2 613d ce72 27bb c142 433d
00000010: bac3 a83d d60a 2dbc f6df 2bbd 135c b8bd
00000020: 05d0 61bd 29dd d6bd d871 093d 2992 1e3d
00000030: 45ee ee3d 72b7 f7bd 4e46 b33d 2668 b4bd
00000040: a464 d2bd 146e 0b3e c1d3 a33c c733 7ebd
00000050: 07ee a83c dece 86bd 3b89 d73b 87bd 02bd
00000060: da77 09bc ab18 d0bc 9e09 3abc e6cd c23d
00000070: eac1 0fbe 469c b3bc 91c5 33bd 8681 733b
00000080: 45bf cebd ece0 8dbb af45 813c 5a3d 193c
00000090: 0452 99bd 0ba2 033d 04af 123e ab33 e83b
000000a0: 8b0c a43c 51c2 e63d 5145 0c3e e5a3 95bc
000000b0: db40 c93d e990 5e3c 0630 be3d a983 883d
000000c0: 8b66 9cbc 3154 873c 675a 01be 9515 9fbd
000000d0: 8f79 93bc 91b3 cbbd cd88 f3bd 00af 8ebb
000000e0: 2022 85bd 08c5 273d 9ebe 1bbd ddd2 b9bd
000000f0: b88a ffbd 1e9f eebd f746 d4bc ac23 eebd
00000100: 7639 46bc 817d 143c 66c8 a9bc 376a 093c
00000110: b5db 77bd dc04 95ba bb3c e0bd 5cf3 cdbd
00000120: c024 1dbd 6afa c4bd e072 c7bd 66e1 213d
00000130: a88d 3fbc 6ea9 16bd e0cf 41bd f53b aebd
00000140: 9729 703d dea7 ed3d 63d8 a23b 8bd6 ae3d
00000150: 3d78 2ebd dbae afbb 66ca c1bd c80b efbd
00000160: 2ed3 ae3d 8bcc fe3c 5e78 16be c1bb 073e
00000170: 694b 38bd 9fd4 0abd 594e 86bd 93ca edbd
00000180: 3c08 28bb 5760 ab3c d6e8 493d 5e3b 6fbd
00000190: cced ddbd bb03 1c3c a925 cbbd 0f9c 6fbc
000001a0: 1ca7 0cbd 4c47 0dbe ced1 90bd 8faa b3bd
000001b0: 4a2e 10be ccd5 abbd 2005 6ebb 7c1a 4fbd
000001c0: 84a7 29bd 9386 ebbc bf83 95bd d5d2 8ebd
000001d0: 11f9 0fbb 8f6c f23c c230 09bc 82de 8dbd
000001e0: 40fa 4fbd f652 283d 64de ccbd 8aac 90bd
000001f0: 9aea c2bd c290 02be a9f4 123d 6093 643c
00000200: 3801 1e3d e968 013d 06ae 7dbd 84f7 89bc
00000210: 1804 c0bd 0ff8 913c 91ae 7d3d 1874 1c3b
00000220: ddfe bc3d 10b4 013e 4cf1 103d f059 d03b
00000230: 989f 91bc 73cb a2bc 68c2 113e f581 dabd
00000240: b29b 923d d14d cb3c f3cf fabd d90b ba3c
00000250: a158 eb3d 5b50 bd3d 7ede b63d 099e 2c3c
00000260: 7e85 7a3c 7101 13be 3e45 ac3c 3524 bf3d
00000270: cd37 903d a884 5e3c 165c 903d 3150 e23c
00000280: 029a 9e3d 970e fcbc 6000 ef3b ccf0 f53c
00000290: e154 e13c 42ab 3abc 2caf 9c3d 2da3 4dbd
000002a0: d0df cb3c cc69 17be a63b a2bd 6850 ab3c
000002b0: b495 a0bd 857d debd f08d 92bc d506 13be
000002c0: 5818 4e3c dc77 043e 76b6 aebc ee73 d03d
000002d0: e5d5 7e3d c163 ab3d 405e e03c b16c 233c
000002e0: 1e3d 9e3d 021a 653d 1997 14bc 7ec5 f13d
000002f0: 54b0 8e3d 61b6 9abb 29b5 203c 3967 d93b
00000300: e4e7 3cbd 2631 b4ba 74cf 86bd 70f7 12bd
00000310: 50c3 373d 29e1 8bbb d016 1cbc 3014 85bc
00000320: 084a 623d b26f ec3d 835e bc3d 5a19 2b3d
00000330: f6ef 0d3c 7c17 983d ddfa 8dbc b620 193e
00000340: 4758 22bd 525b 8a3b a3f2 143e 4d72 0ebe
00000350: 4d61 8c3d 7376 543b 6d1d 00bb abab 743d
00000360: 4ad3 cc3d 244a 5b3c c4c7 153e ae87 0b3e
00000370: ca5a 793d 9f3b 0fbd 1135 893c 99a5 513b
00000380: c613 c33c 9583 09bd 2c33 3bbd dc9b cdbd
00000390: b4ef af3b 3400 b23c 1979 9cbc 0cb3 c63d
000003a0: 8b8c a0bc 5c82 843d 51fe 163d 1d1e 71bd
000003b0: e4a0 e13d f549 7d3d bb66 823d 7a1a c83d
000003c0: ce30 fbbc d9ac 9e3d 0de1 223d 72c1 8abc
000003d0: 5199 d83d a44f e43b 6e3e aaba 1701 0d3e
000003e0: 28c0 9dbd e549 b7bd d673 b63c 7187 7abc
000003f0: 2af5 973c cba0 ac3d 6876 2d3d 56a8 50bb
-0.013390886 0.055101655 -0.0025550607 0.047671083 0.08240457 -0.0105616655 -0.041961633 -0.09001937
-0.055130024 -0.10491402 0.033555835 0.038713608 0.1166654 -0.12095536 0.08753644 -0.08808927
-0.10273102 0.1361621 0.019998433 -0.062061097 0.020621313 -0.065824255 0.0065776384 -0.03191903
-0.008390391 -0.025402388 -0.011354832 0.09511928 -0.14038816 -0.021925103 -0.043889586 0.003715606
-0.100950755 -0.0043297913 0.015780298 0.009353006 -0.07486346 0.032136958 0.14324576 0.0070862374
0.020025512 0.11267532 0.13698317 -0.018266628 0.09826823 0.013584354 0.092865035 0.06665737
-0.019091865 0.016519638 -0.12632142 -0.07767788 -0.0180023 -0.09946359 -0.11891327 -0.0043543577
-0.065006495 0.040959388 -0.038023584 -0.09073422 -0.124776304 -0.11651443 -0.025912745 -0.116278976
-0.012098661 0.009063126 -0.02072544 0.00838714 -0.060512263 -0.0011369246 -0.109490834 -0.10056183
-0.038365126 -0.09618075 -0.097387075 0.039521597 -0.011691488 -0.036782674 -0.047317386 -0.0850753
0.058633413 0.11604284 0.004969643 0.085370146 -0.042595137 -0.0053614206 -0.094624326 -0.11672169
0.08536373 0.031103393 -0.14694354 0.13255216 -0.04499379 -0.033894178 -0.065579124 -0.116109036
-0.0025639674 0.020919962 0.049294315 -0.058406226 -0.10836372 0.009522374 -0.099192925 -0.01462461
-0.034339055 -0.13796729 -0.07071267 -0.08772766 -0.14080158 -0.08390388 -0.0036318973 -0.050562367
-0.04141952 -0.028750693 -0.07300519 -0.06973807 -0.0021968524 0.02959278 -0.008373441 -0.069272056
-0.050775766 0.041094743 -0.10003355 -0.07064159 -0.09517403 -0.12750533 0.035877857 0.013951153
0.03857538 0.03159419 -0.06193354 -0.016841657 -0.09375781 0.017818479 0.061934058 0.0023872908
0.09228299 0.12666345 0.03538637 0.0063583776 -0.017776296 -0.019872403 0.14234316 -0.106693186
0.07158603 0.02481738 -0.122466944 0.022710728 0.11491514 0.09243842 0.08929156 0.010535725
0.015290616 -0.14356019 0.021029111 0.09333078 0.07041893 0.013581432 0.07048814 0.027626129
0.077442184 -0.030768676 0.007293746 0.030022047 0.027506294 -0.01139337 0.07650599 -0.050204445
0.024886996 -0.14786452 -0.07921533 0.020912364 -0.078410536 -0.10863785 -0.017889947 -0.14358075
0.012579046 0.12936348 -0.021327239 0.10178362 0.062215704 0.08368636 0.027388692 0.0099746445
0.07726501 0.055933006 -0.009069228 0.11805247 0.06967226 -0.0047214483 0.009808817 0.0066346196
-0.046119586 -0.0013747558 -0.06582537 -0.035880506 0.044864 -0.0042687845 -0.009526923 -0.016244978
0.055246383 0.11544742 0.09197714 0.041772224 0.008663168 0.07426354 -0.017331535 0.14953884
-0.03963497 0.004222312 0.14545684 -0.1391079 0.06854496 0.0032419234 -0.001954879 0.059734028
0.10001238 0.013384376 0.14626986 0.13625976 0.0608776 -0.03496897 0.016748937 0.0031989573
0.02381314 -0.033572752 -0.0457031 -0.100394934 0.005369151 0.021728612 -0.019100713 0.09702119
-0.019598266 0.064701766 0.03686363 -0.05886661 0.110170156 0.06183811 0.063672505 0.09770675
-0.03066292 0.07747812 0.039765406 -0.016937945 0.10576118 0.0069675017 -0.0012988576 0.13769947
-0.077026665 -0.08949641 0.022272032 -0.015291081 0.01854952 0.08429106 0.04234925 -0.0031838617

6.bias f4 [32]
00000000: 111a fbbd be4e be3d dd2d 623b 0e6d be3b
00000010: f927 653c 41f5 03bd 62e5 52bd ab22 07be
00000020: 1a55 02be 713d eb3b fab2 c53d ad86 c2bd
00000030: 52b3 a93c 370f 39bd 08e9 8c39 98df 2c3d
00000040: 2776 b1bd 3cdc 7b3b a818 a4bc 31a4 06be
00000050: 1664 59bd 1290 53bd 0e24 0dbe 6fd7 e8bd
00000060: c16b e1bd a3aa 883c b0ae 3d3d 23f5 79bb
00000070: 81e4 62bd 5b92 81bd f65b 173d 3313 b2bd
-0.12260831 0.09292363 0.00345122 0.00581134 0.013986581 -0.032216314 -0.051488288 -0.13196819
-0.12727776 0.0071789552 0.09653278 -0.094983436 0.02071539 -0.045180526 0.00026876503 0.042205423
-0.08665114 0.003843083 -0.020031288 -0.13148572 -0.053073965 -0.051651068 -0.13783285 -0.11369216
-0.110068806 0.016682928 0.046309173 -0.0038140498 -0.0553937 -0.06326743 0.036952935 -0.08695068

9.weight f4 [32, 32, 1, 2, 2]
00000000: 59a1 ad3c 20d2 783c 9508 b23c ae55 0a3c
00000010: a67b adbd 8898 f0bd c2a2 fdbd 7e3b a4bd
00000020: 2f74 913d ee00 ad3d cd67 dc3d e365 113d
00000030: ce26 1cbd aa15 f0bd 0583 b53d 8454 b93d
00000040: 8ffd 233d c9b5 da3d c3e9 e8bc 913d 0a3e
00000050: 404d 0abe ed07 bf3c ae8e c3bd 794f 993d
00000060: c02a ac3d 720d b03d 1074 083e 098b 033e
00000070: ac40 9b3d 85af 4c3d 0a82 df3c 99c6 ae3d
00000080: d99a 623c 146c bdbd 55fa a13a 676a 35bd
00000090: 74da eabd e843 a1bd a076 7ebd 757d bbbd
000000a0: bd4c 05bd 87a7 193c cffc 89bd 26bc 913c
000000b0: 2c79 143d 9cc9 58bd ae31 8dbb 8c35 43bc
000000c0: 661b b8bd f43b acbc 0892 07bd f04f 8d3c
000000d0: 7245 f1bd 69ac 7ebd df78 9abd 7322 613c
000000e0: a4cf b63d 8c91 be3b f9c3 9f3b 9264 c83c
000000f0: f53b 743c d165 9bbb 5c88 babd 9179 debc
00000100: 7604 d1bd 5e02 d9bd e185 30bd ad58 4abd
00000110: 2ed0 88bd ba5f 733b 83bd 213d 1a43 b6bc
00000120: 2984 c3bd 670c c3bd 0bed 883c 741c 063c
00000130: d0e3 d8bc 49b7 43bd ebc4 e3bd 8833 01be
00000140: 5dd6 693c ac1b 95ba 57a3 2a3c 329d 423d
00000150: 0555 693c 996a 103d 60ee b03d 1e6d 04bd
00000160: f12d 373d 5be2 5e3d 0bc3 b13d 72ac a5bc
00000170: 50aa 1cbd bff8 34bd 58e3 ddbc 3cd7 2dbd
00000180: b3b3 b5bd 3a1b 313d ffb4 a9bd b375 7e3c
00000190: 77f8 e1bd 0743 cdbd e964 cdbd 2b88 093e
000001a0: 688a 14be 9240 d6bd 5049 00bc 6b0e 0ebe
000001b0: af5f 393d cabc 8f3d 5807 a63c aa52 133d
000001c0: 0b9e 4dbd 3fef d5bd 5c42 9c3b 3ddb ecbd
000001d0: 7c98 8d3d 977a a23d 591c ef3d 9b13 063e
000001e0: 619d 883d b4fe 02bd 5507 27bd b154 9fbd
000001f0: ab3c 81bd 44c8 08be c755 3bbd c7c5 27bd
00000200: f6d3 c6bd 23aa c33c a9e0 3d3a a582 ffbc
00000210: 348e aebd 6503 c9bb 29bc c0b8 8bfb 11be
00000220: 3c14 fdbd 743f cd3c 3034 c43c fe4f 12be
00000230: a145 8b3c e47a bc3c 6de3 b3bd 822b 8fbd
00000240: 5972 14be a6e6 d13c 60f5 cabd 4849 1e3c
00000250: 6766 afbc e970 c3bd 9d78 073c 126b 3bbd
00000260: e94a 15be a2a1 16be e643 1e3c 5c8a d8bd
00000270: efd1 903c e6d5 debd 3a15 313c cba2 00be
00000280: 8581 b9bd ce92 9fbd 0ff5 823c 32c5 d83c
00000290: 6003 10bd 9a9d 8a3c 7cb7 043d ce2b 8abd
000002a0: 8056 96bd 5a72 bdbd 01ff 943c ccca 5ebd
000002b0: 18e3 06be b460 9fbd 4038 74bd 64f8 96bd
000002c0: ce6f b0bd e970 a1bd 6df1 bbbc fd03 abbd
000002d0: 93e6 b5bd 2fb3 5fbd b84f 84bd 09cf a43c
000002e0: a0e0 96bd db88 fabd 7157 34bc d21b 0bbd
000002f0: f3be 8f3c 2390 07be b34a 58bc 175a 08be
00000300: 6b34 55bd 21ac a0bd c7d2 f6bc d3b0 e9bd
00000310: 2b97 6cbd 3eaa 01be b52d a2bc c5ac 04bc
00000320: 51b2 e23c fa18 2cbd 0bf7 cb3d 2bce c9bd
00000330: 6266 1abb f589 86bc cc0e 113c b5e7 aa3d
00000340: db17 dfbd 58e9 45bd 0ffe d13d a2f5 2bbd
00000350: 8ee9 05be b766 aabd efb5 163d f15e 78bd
00000360: 5626 ddbd db1b 58bd 9406 a4bd e553 c2bd
00000370: c998 10be d640 c1bb f70b 85bd a7b5 11be
00000380: 1801 ecbb a592 9dbd 8845 04be f29b 11be
00000390: f942 ffbd 9654 4fbd 4ca3 debd e502 e7bd
000003a0: 84a8 eb3d 3ce9 0abe e888 2abc c931 5cbd
000003b0: 61aa 10bc eb68 9e3c fb83 dbbc 8fdf 9dbc
000003c0: 1466 ddbd ff08 ca3d 99a4 5cbd 45e1 89bd
000003d0: a656 0fbe c6f0 96bd 8ca8 c93c 00fd 9b3d
000003e0: c090 b1bd af8d 4fbc 7241 b4bd 21ce 29bd
000003f0: 1438 0a3c ab95 5abd 839f 0cbe 9626 e2bd
0.0211951 0.015186816 0.021732608 0.008443279 -0.0847085 -0.11747843 -0.12384559 -0.0801916
0.071022384 0.08447443 0.10761986 0.035497557 -0.038122945 -0.11722882 0.088628806 0.09049323
0.040036734 0.10679204 -0.028431779 0.13500048 -0.13506031 0.023319209 -0.09548698 0.07485861
0.084065914 0.085963145 0.13325524 0.12846006 0.075806946 0.049972076 0.027283687 0.08533973
0.013830864 -0.0924913 0.001235793 -0.044290926 -0.11467448 -0.0787428 -0.06212485 -0.091547884
-0.032543886 0.009378321 -0.067376725 0.017789911 0.03624837 -0.052926645 -0.004308901 -0.011914622
-0.08989601 -0.021024682 -0.03309825 0.017250031 -0.11780824 -0.062176142 -0.075425856 0.0137411235
0.08926323 0.0058156904 0.0048756567 0.024462018 0.014906873 -0.004742362 -0.0910804 -0.027157577
-0.10205929 -0.10596155 -0.043096427 -0.049400974 -0.06680332 0.0037135915 0.039487373 -0.022248793
-0.09546692 -0.0952385 0.016714593 0.008185495 -0.026475817 -0.047782216 -0.111215435 -0.12617314
0.0142723 -0.0011376045 0.01041492 0.047513194 0.014241462 0.03525791 0.086392164 -0.032330625
0.044721548 0.05441509 0.086797796 -0.02022383 -0.03824836 -0.044182535 -0.027085945 -0.04244159
-0.088721655 0.043238856 -0.082864754 0.015530991 -0.11033719 -0.1002255 -0.10029013 0.1343085
-0.14505923 -0.104615346 -0.007829979 -0.13872688 0.045257267 0.070184305 0.020267174 0.035967506
-0.05019955 -0.10446023 0.004768653 -0.11565254 0.0691385 0.079335384 0.11675329 0.13093416
0.06670643 -0.031981185 -0.040778477 -0.077798255 -0.063103996 -0.13357645 -0.0457361 -0.0409601
-0.09708397 0.023884838 0.0007243255 -0.031190226 -0.08523217 -0.006134438 -9.190321e-05 -0.14256112
-0.12357375 0.02505467 0.023950666 -0.14288327 0.017000975 0.023007818 -0.087836124 -0.0699072
-0.14496745 0.025622677 -0.09910083 0.009661026 -0.021411134 -0.0954302 0.008268503 -0.045756407
-0.14579357 -0.14710096 0.009659743 -0.10573265 0.01767823 -0.10880642 0.010808283 -0.125621
-0.09057907 -0.07791673 0.015985994 0.026461218 -0.03515947 0.016920853 0.032401547 -0.06746636
-0.07340717 -0.092503265 0.018188002 -0.05439262 -0.13172567 -0.077821165 -0.059623957 -0.073715955
-0.08615075 -0.07882864 -0.02294227 -0.0835037 -0.08881869 -0.054614242 -0.06460518 0.020118253
-0.073670626 -0.12233134 -0.011007176 -0.03396208 0.017547106 -0.13238578 -0.013201403 -0.13315617
-0.052051943 -0.07845331 -0.030129803 -0.1141068 -0.057761353 -0.12662598 -0.019797185 -0.008097832
0.027672919 -0.042016007 0.09959229 -0.098537765 -0.002355956 -0.016423205 0.0088536255 0.08344976
-0.10893222 -0.048318237 0.10253536 -0.0419823 -0.13077375 -0.083203726 0.0367946 -0.06063742
-0.107983276 -0.05276094 -0.08009067 -0.09488658 -0.14120783 -0.0058976216 -0.06496423 -0.14229451
-0.007202279 -0.07693986 -0.12917149 -0.14219645 -0.12463946 -0.050617777 -0.1087099 -0.11279849
0.11506751 -0.13565534 -0.010408618 -0.053758416 -0.008829684 0.019337138 -0.026796332 -0.01927164
-0.108104855 0.09864997 -0.05386791 -0.0673242 -0.13997898 -0.07370143 0.024616502 0.07616615
-0.08670187 -0.012668057 -0.08801545 -0.041456345 0.008436222 -0.05336539 -0.13732724 -0.11042516

9.bias f4 [32]
00000000: 35b3 9fbd 838e 8abd a09a c0bc eb2a 103d
00000010: d93b 44bc e9ba f63c 503a 05bc 0cb9 53bd
00000020: 2e7a 30bd 74e0 94bd dd49 fe3c c249 afbd
00000030: 7dcb 0dbe 2f3b 1fbd 84d2 d83d f381 82bc
00000040: 3dbf 58bc 783f c0bd 9592 1abc f1e4 48bd
00000050: e085 97bd 250d 3fbd db3b b13c 6742 5bbd
00000060: 3316 c0bb 8dc7 063e 3774 78bd 8a08 623d
00000070: 9ab9 b43b 730a 0bbc 0021 0dbc a808 fdbd
-0.07797853 -0.06765463 -0.023511231 0.03519718 -0.011977159 0.030118423 -0.008131579 -0.051690146
-0.04308527 -0.072693735 0.03104108 -0.0855899 -0.13847156 -0.0388748 0.10587028 -0.015931105
-0.0132291885 -0.09387106 -0.009434362 -0.04904646 -0.073985815 -0.046643395 0.021634987 -0.053530123
-0.0058620214 0.1316206 -0.060657706 0.055183925 0.0055152895 -0.008486378 -0.008613825 -0.12355167

12.weight f4 [16, 32, 1, 2, 2]
00000000: e7f2 463d 2cc7 d93b 5bbb c63d dbec d1bd
00000010: 4816 b6bd 7faf b73c 1342 3d3c 7181 f23d
00000020: 6634 d5bc 6df5 1fbd 0a83 b13d 3ce9 9c3b
00000030: 6600 b23c 47f9 bf3b 61f2 10be ebf8 493c
00000040: 5d19 c23b b41b 083d bd4c e8bb 4336 953b
00000050: 972d 1d3e bbd3 bf3d 7c6d 35bd a425 f93d
00000060: 40e3 8ebc 8d5f 5c3d 5abf 8ebc 479a ed3c
00000070: 9adb 86bc 0fe0 1d3d 0581 94bd fa8c 31bd
00000080: 5e8d 80bd 2eff a6bd 1c00 8abd 35cf e33c
00000090: 28c1 ed3c 8b69 223d 7e93 2f3e 952f a2bc
000000a0: b493 e7bd cda4 0cbe 1b17 72bc e0fe 95bc
000000b0: d035 353c 1bbb 0ebe 1ccc c63c 8ac4 80bd
000000c0: a031 c2bd 2bd5 0bbd bb9f 9ebc b036 0ebe
000000d0: 1b3d aa3d 59d7 a43d 9dd8 19bc e4f3 3cbd
000000e0: 9013 ccbd 2525 0ebe 5652 eebc fa40 52bc
000000f0: 6066 37bd ed5c fbbd f613 acbd 664c b7bd
00000100: 5a96 64bb bf1b 3bbc 9a86 b2bd 4a7b 3cbd
00000110: e64c f5bc 41bd f7bc 3fa2 783c 1426 46bc
00000120: f247 95bd cbb3 693c 7d45 f1bd eeb8 02bd
00000130: a650 c3bc f7c8 75bd 85ba 1cbd 2c12 d1bd
00000140: e6ec 65bd 2070 85bd c928 8fbc e95b 733d
00000150: 5471 10be 925a cc3b 41f1 98bd 26b2 18bd
00000160: dbaf 40bd c074 e9bd fc1f b43b 64f8 08be
00000170: e60a 113e d373 8cbb 9bcd 9bbd 4bf2 87bc
00000180: 64a7 b6bd 42f9 63bd 8372 65bd 163b 90bd
00000190: 79b2 46bd ab95 dfbd 3c38 c5bd f3ff 8fbd
000001a0: cf1c cabd d265 0ebd 3240 44bd 606a 0ebe
000001b0: 8f4e 8dbc 6d14 503c af69 c8bd 28a9 083c
000001c0: b073 25bd 64c3 f5bd 04a9 153d 4641 803c
000001d0: 18ee e1bd d023 83bd fdd9 443c dfa2 e1bc
000001e0: dce1 d9bd 3507 b3bc 3854 e5bd 62f1 1dbe
000001f0: 2d8b df3d e731 bc3d 0803 0d3e 35b3 163e
00000200: d705 543c 1f74 00be 4ba0 f5bd 7bdf abbc
00000210: 6a3c 8cbd 355c 283c 3116 51bc 7332 9abd
00000220: 372a 4abd e9ed a5bd e4ee 1c3d 7102 09bd
00000230: 4c11 853c a170 eb3c 0331 14bd 8d5f 283a
00000240: d4aa 403d aead 183d 00ba 883d 5de7 e6bc
00000250: b6bd a1bd 49de b2bd 8064 2dbd 27d4 20bd
00000260: 0bea af3d 7fcf 563d 62ca 94bd 2124 243d
00000270: 234c 0ebe f582 04be 440c dbbd 54a2 acbd
00000280: 3e7f cf3b eaf4 bc3d a36d aa3d bff1 053d
00000290: e1ec a5bd 92ed 293c 85b5 4c3b f0f5 3f3d
000002a0: 4335 14be fdf0 16be 4f34 373a 9129 babd
000002b0: 9f09 d4bd 96bb acbd 4242 20be 9039 f2bc
000002c0: e495 0dbd 9e96 c33c eb90 12be b840 01bd
000002d0: 7b5d 5b3d cc66 823c a888 f73c 181b aebd
000002e0: e52e 89bd 81fd babc b763 0abe 42f1 83bd
000002f0: 6add 84bd dc25 02be 175d 873c 0dde 01bd
00000300: 7681 99bd 94e6 183a eab0 6fbd 9db5 1bb9
00000310: 255e f3bd a4d9 95bd 717f dd3b 11e3 a1ba
00000320: e786 75bd 2068 cdbc 1105 c4bd 5e31 c5bd
00000330: 649d 14be e312 babc bdc6 0abe 9b60 33bd
00000340: 6e60 643c 3e17 98bb aa3e 6cbc a3aa da3c
00000350: 983a 3cbc d467 8ebd b308 0bbd 98c5 12bc
00000360: ce55 9a3c bd44 233d 08de d1bc 3e5f b1bc
00000370: 947a 14be 6100 1fbc 0bee 953d 6c86 0abd
00000380: 3df2 91bd da42 d3bc f709 8cbd f5da 83bc
00000390: 4df9 2cbd 9b96 d3bd da18 d1bd 8567 a63d
000003a0: 6d41 83bd f8f5 7cbd 6ce7 2dbe 70ed a9bd
000003b0: fffd 1cbd 2811 3dbd 7c7a 09be df2d e6bd
000003c0: 8f56 aabd 50d1 61bd 38ad 6fbd 0b71 6c3d
000003d0: 4c81 973b be7a 7dbd 0c1e 7bbd 95c1 b2ba
000003e0: 00e9 e4bd c908 b8bd 922c f0bd 0507 15be
000003f0: 4da4 14be d76d 9dbc a4c7 0cbe 2d7e a5bc
0.048571493 0.0066460576 0.09703704 -0.10250255 -0.088909686 0.02242255 0.011551398 0.11841095
-0.026025962 -0.039052416 0.08667572 0.004788546 0.021728706 0.0058585736 -0.1415496 0.012327413
0.0059234337 0.033229545 -0.007089226 0.0045535876 0.15349422 0.09366556 -0.044293866 0.121653825
-0.017442346 0.05380206 -0.017425228 0.02900423 -0.016462136 0.038543757 -0.07251171 -0.043347336
-0.06276964 -0.081541404 -0.06738302 0.027808765 0.029022768 0.039651435 0.17146108 -0.01979808
-0.11307469 -0.13734742 -0.014776017 -0.01831001 0.011060193 -0.13938563 0.024267249 -0.06287487
-0.094821215 -0.03413884 -0.019363275 -0.13888049 0.08312436 0.08048887 -0.009390024 -0.04613103
-0.09964669 -0.13881357 -0.029091995 -0.012832874 -0.044775367 -0.122735836 -0.08402245 -0.08950119
-0.0034879656 -0.011420189 -0.087170795 -0.046016015 -0.029943895 -0.03024161 0.015175401 -0.0120940395
-0.07289113 0.014264057 -0.11780832 -0.031914644 -0.023842167 -0.060006108 -0.038263816 -0.10208544
-0.056134127 -0.06515527 -0.017475503 0.059413824 -0.14105731 0.0062363828 -0.074678905 -0.03727927
-0.04704271 -0.113992214 0.005496977 -0.13376004 0.14164314 -0.0042862683 -0.076075755 -0.016595026
-0.08918646 -0.055657633 -0.05601741 -0.0704252 -0.04851005 -0.10917219 -0.096298665 -0.0703124
-0.09868776 -0.034765072 -0.047912784 -0.13907766 -0.017249374 0.012700182 -0.097857825 0.008341111
-0.04039353 -0.120001584 0.03653814 0.015656125 -0.11031741 -0.06403315 0.012014863 -0.027543483
-0.106387824 -0.021854023 -0.11197704 -0.15424111 0.109152175 0.091892056 0.13770688 0.147168
0.012940845 -0.12544297 -0.11993464 -0.020980587 -0.068474606 0.01027589 -0.0127616385 -0.07529154
-0.049356665 -0.081020184 0.03831376 -0.033449594 0.0162436 0.02874023 -0.036179554 0.00064229296
0.047037914 0.03727501 0.06676102 -0.028186494 -0.078975126 -0.08733804 -0.042332172 -0.039264824
0.08589562 0.052443977 -0.07265164 0.040073518 -0.13896231 -0.12940581 -0.10695699 -0.08429399
0.006332307 0.09226401 0.08321693 0.03270125 -0.08101822 0.010371583 0.0031236124 0.046865404
-0.14473443 -0.14740367 0.00069886906 -0.090899594 -0.103533976 -0.08434217 -0.15650275 -0.029568464
-0.034566775 0.02387553 -0.14313094 -0.03155586 0.053555947 0.015918158 0.03021653 -0.085012615
-0.066983975 -0.022825958 -0.135146 -0.06442501 -0.06487544 -0.12709755 0.01652388 -0.031705905
-0.07495396 0.00058326987 -0.058518328 -0.00014849608 -0.11883191 -0.07316902 0.006759577 -0.0012350996
-0.059943106 -0.025074065 -0.09571279 -0.09628557 -0.14513165 -0.022714084 -0.13552375 -0.043793302
0.013939006 -0.0046414426 -0.014419237 0.026692694 -0.011488579 -0.069533974 -0.033943843 -0.008958243
0.018839743 0.039860476 -0.025618568 -0.02165186 -0.14499885 -0.00970468 0.07320794 -0.0338196
-0.071262814 -0.025788713 -0.06837838 -0.016095618 -0.04222994 -0.1033146 -0.10209818 0.081252135
-0.06408963 -0.06175801 -0.16982812 -0.08297241 -0.038328167 -0.04615894 -0.1342563 -0.11239218
-0.08317291 -0.055131257 -0.058514804 0.057724994 0.0046235677 -0.061884634 -0.06130795 -0.0013638014
-0.11177254 -0.08986051 -0.11727251 -0.14553459 -0.14515801 -0.019217415 -0.13748032 -0.020201767

12.bias f4 [16]
00000000: 2d43 19be 364e c7bd aa72 e8bd 2aa3 86bd
00000010: a6a9 f6bd a75b 42bd bdcb 12be 904d 1e3d
00000020: 8f9e 39bd 95c4 65bd ecef d3bc 045c 17bd
00000030: a1f1 613c e585 f0bd d8fb bfbc 1075 94bd
-0.14967032 -0.097317144 -0.113499954 -0.0657409 -0.120440766 -0.047450688 -0.14335532 0.038648188
-0.04531723 -0.05609568 -0.02587124 -0.036952987 0.013790519 -0.11744288 -0.023435518 -0.072488904

17.weight f4 [24, 720]
00000000: 55b2 17bd 0ff2 afbd d74e 87bd df48 f7bc
00000010: 4cc6 acbd fc93 9abd 9c2e 27bd a7dd b6bd
00000020: 4614 b1bd b345 b0bd d4c8 fcbc 4f01 2ebd
00000030: 0cb9 84bc ed2f 85bc 4fbe 23bd c835 7dbd
00000040: 9770 25bd fea4 d6bc 3186 91bd 5028 e0bc
00000050: adc7 b8bd 62c1 9dbd ee41 00bd d6ca ebbc
00000060: 03e0 5bbd d78f 93bd 9128 c7bc 30eb d0bc
00000070: 6c13 a4bd 27b6 91bd 1436 84bd 5d30 6fbd
00000080: 240b e6bc 3381 93bd 15c4 93bd fa32 adbc
00000090: 1bbc 63bd ecb3 2dbd de82 31bd 2879 b1bc
000000a0: 0e01 ddbc 35cb 0dbd 4f97 4dbd 79ac 2ebd
000000b0: f8ca 8cbd df70 dcbc 15a8 9abc 5d8a 5d3b
000000c0: d849 bb3c 6b35 e1bc 6cd6 e4bc 29d2 d33c
000000d0: 2d5e 65bc 8885 09bd 0cae a0bc 7c99 1b3c
000000e0: 4a39 5a3c 14a3 c23c e944 95bc 030b 98bb
000000f0: 9ef4 23bc a552 293c 98da 1dbb e40b 6fbb
00000100: 3986 fe3c e73d a3bc 8030 b9bc e1f2 b33c
00000110: ca4d 4b3c 1098 f8bc f16b 07bd 8ee7 a8bb
00000120: 9b22 0dbd 347b 963c ec20 3e3c 8d83 0d3d
00000130: 910f e6bc 57c6 133d 2ed4 c43c 80ed a43c
00000140: bd7e 173c 226f ca3c af6c 0a3b 4223 743c
00000150: 4426 e9bc 726a dfbc 4744 12bd 669e 503b
00000160: 9c0d 9cbc 0e69 9bbc 9a11 d0bc 1fdc f23b
00000170: 5fd1 d13b d03e bbbb 3d42 f53c d8cd f03c
00000180: a66b 453c 9b58 0dbd 0d04 e23a 22fd 7dbc
00000190: fdf6 f2bc e3ea bfb9 7d0b 6939 c285 333b
000001a0: e085 0b3d e97d 893c e32b bebc eecc c33b
000001b0: 3376 d33c 0c8e 94bc 208b 8b3b 80c3 7fbc
000001c0: b846 513c 2507 97bc d4cb f83c 9ca3 f0bc
000001d0: 82b3 de3c a3c6 00bd f123 13bd f834 7abc
000001e0: 3c90 8ebc 8e90 52bc fd0a 61bc 4d99 89bb
000001f0: 0206 87bc 47a2 5c3c 96b1 8bb9 ad30 cd3c
00000200: 377a 07bc 8a07 0abd 6043 b9bc 3eb7 873b
00000210: 388c acbb 8ee6 babc 8ccf 513b 4eb7 01bd
00000220: c6e3 843c e07f c5bc da53 e9bc 1e0f 1fbc
00000230: ca7f 0abd 934d 12bd 2d29 033d b275 bebc
00000240: db16 053d ea70 7fbc 96ea c2bc a5c7 0ebd
00000250: b481 4bbc da4b ef3c 85ba 04bd 1b73 eb3c
00000260: fe0d 16bc 1c24 82bc d835 a7bc 49a6 68bc
00000270: 9f95 033a eb0f fabc 7a8f a93c d324 c2bb
00000280: 5978 d03b de48 12bc 6c23 8e3c 213e 9f3c
00000290: ace0 dc3c 2e71 11bd a138 0cbd b39e 193c
000002a0: 37ea 5d3b ce24 793c cc71 b1bc 4171 9c3c
000002b0: cf83 0a3c 868f d3bc b47f 4ebc 8c74 8f3b
000002c0: 025c b3bc 62d1 b239 2158 9d3c ac93 833c
000002d0: d7ec 42bc f73b b6bc 1de0 56bc 07c6 91bc
000002e0: fff3 81bc 764b b9bc 0265 053d d5cb 153d
000002f0: 2932 03bd 9f60 1f3c cf16 cc3c 00ad d6bb
00000300: fbb4 4bba a5b7 a73c 05ce e53c f460 adbc
00000310: e23f 58bc a73a dc3c 2317 d63c 14e0 c9bb
00000320: 65f2 0bbd 002c 02bd 5911 173d fff4 27bc
00000330: fc72 52bc 0ad5 b03c fa61 153d 96fa 68bc
00000340: 050d 9bbc d9c1 fc3c 10de 11bd 249a 4cbc
00000350: d8b3 973c e4f3 a8bb 465e 11bd c584 a8bc
00000360: eee1 23bc ff7f 13bd 326f ddbb 36fe ce3c
00000370: 415c d43c 3f7c c83c 5ed5 d0bc f6c0 53bc
00000380: 6812 ddbc 14ff 06bd 5d49 d8bc 0654 e9bc
00000390: bb53 28bd 05ba 9ebd 64b8 a8bd 5316 89bd
000003a0: 8a85 83bd 2e59 08bd 1434 a1bd 8180 95bd
000003b0: 0b6d 54bd 5b10 3fbd 50dc 3ebd ac48 98bd
000003c0: 38aa 29bd 8344 c0bc 1d38 07bd 71c6 eebc
000003d0: 2eb0 a1bd d14a d6bc 6c08 96bd e48c adbd
000003e0: f394 95bd 149c 7cbd a7ee adbd acae a0bd
000003f0: ba91 43bd 4cc0 81bd 0e15 79bd 80a0 a6bc
-0.037035305 -0.08591091 -0.066068344 -0.030186115 -0.084362596 -0.07547757 -0.040815935 -0.089289956
-0.08646445 -0.08607044 -0.030857481 -0.042481717 -0.016201518 -0.016258204 -0.039976414 -0.061818868
-0.040390577 -0.026201721 -0.07105673 -0.027362972 -0.0902246 -0.077029005 -0.031312875 -0.028783243
-0.05368043 -0.0720517 -0.024311336 -0.025502771 -0.08011517 -0.07114821 -0.06455627 -0.058395732
-0.028081484 -0.07202377 -0.07215134 -0.021142472 -0.055599313 -0.042407915 -0.043337695 -0.021664217
-0.026978042 -0.03461762 -0.050193127 -0.04264495 -0.06874651 -0.02690929 -0.018878976 0.0033804395
0.02286236 -0.027491292 -0.027934276 0.025857048 -0.013999504 -0.03357461 -0.019614242 0.009497043
0.013319323 0.023759402 -0.018221335 -0.0046399846 -0.010007052 0.010334645 -0.002408659 -0.0036475593
0.031069862 -0.019926978 -0.022606134 0.0219664 0.012408683 -0.030345947 -0.033061925 -0.0051545566
-0.03445683 0.018369295 0.011604529 0.034549285 -0.028083595 0.036077823 0.024026956 0.02013278
0.009246525 0.024711195 0.002112191 0.014900984 -0.02846063 -0.027272437 -0.035709646 0.0031832694
-0.019049458 -0.018970992 -0.025399018 0.0074114944 0.006403133 -0.005714275 0.029938811 0.029395029
0.012049591 -0.03450833 0.0017243639 -0.015502246 -0.029658789 -0.00036605363 0.00022224891 0.0027392958
0.03406322 0.016783671 -0.023214286 0.0059753573 0.025813198 -0.01813414 0.0042585284 -0.015610576
0.012773208 -0.018436024 0.03037063 -0.02937489 0.027185205 -0.031439435 -0.03592295 -0.015271418
-0.01740276 -0.012851847 -0.01373553 -0.004199183 -0.016482357 0.013466424 -0.00026644458 0.025047624
-0.008268884 -0.033698596 -0.022615135 0.004141717 -0.005265739 -0.022815015 0.0032014577 -0.031668954
0.016221892 -0.024108827 -0.028482366 -0.009708194 -0.033813275 -0.03571851 0.03202169 -0.02324948
0.0324925 -0.015590886 -0.0237935 -0.034858365 -0.01242106 0.029210974 -0.03240444 0.02874141
-0.009158609 -0.015886359 -0.020411417 -0.014199802 0.00050195487 -0.030525168 0.020698298 -0.0059248
0.006362003 -0.008928506 0.017350875 0.019438805 0.0269626 -0.035508327 -0.034233693 0.009376216
0.0033861527 0.015206529 -0.021660708 0.019096972 0.008454277 -0.025825273 -0.012603689 0.004377907
-0.021894459 0.00034106808 0.019207062 0.016061626 -0.011897287 -0.02224539 -0.013114956 -0.017794622
-0.015863417 -0.02261899 0.03256703 0.036571342 -0.03203026 0.009727626 0.02491322 -0.006551385
-0.00077708036 0.02047331 0.02805234 -0.021164395 -0.013198825 0.026883436 0.02613408 -0.0061607454
-0.034166712 -0.031780243 0.03688178 -0.010251283 -0.012844797 0.02158596 0.03647039 -0.014219901
-0.018927107 0.030854153 -0.035612166 -0.012487922 0.018518373 -0.005156027 -0.035490297 -0.020571122
-0.010002596 -0.03601074 -0.0067576403 0.025267702 0.025922896 0.024473308 -0.025492366 -0.012924423
-0.026986316 -0.032958105 -0.02640217 -0.028482448 -0.041095477 -0.07750324 -0.08238295 -0.06693711
-0.06421955 -0.033288173 -0.07871261 -0.07299901 -0.051861804 -0.046646457 -0.046596825 -0.07435736
-0.0414221 -0.023470169 -0.0330125 -0.029147359 -0.07894932 -0.026158722 -0.07325825 -0.084741384
-0.073038004 -0.061672285 -0.08492785 -0.07845816 -0.047746398 -0.06335506 -0.060811095 -0.020340204

17.bias f4 [24]
00000000: 5782 44bd e863 50bd 3972 2cbd 7b64 6bbd
00000010: 3e76 20bd b895 92bd 85f6 88bd bdbd a03c
00000020: c679 8c3e 2635 0bbd 6b16 93bd 4c4b 9abd
00000030: d448 543e 1a87 dcbb e7bc a8bd 47e2 72bd
00000040: abc2 24bd bf9d 28bd 2cfb 87bd 736a a23d
00000050: 8d83 143e c472 a53d 853c 1c3e f173 a73d
-0.047975864 -0.050876528 -0.04210112 -0.057468873 -0.039175265 -0.07157463 -0.06687645 0.019621724
0.27436656 -0.033986233 -0.0718201 -0.07533893 0.20730907 -0.0067299725 -0.08239155 -0.059297826
-0.040224712 -0.041166063 -0.06639704 0.0793046 0.14503308 0.080785304 0.15257461 0.08176411

19.weight f4 [10, 24]
00000000: 599a 123e ed62 51be c6e7 15bd 9539 643e
00000010: 64b0 11be e75e c8bd 82a7 083e 8180 66bd
00000020: c1df 603e 7911 dbbd 133b 0fbe 2b57 c23d
00000030: 1801 653e 9e07 bbbd f0d8 a6bb dcc0 673e
00000040: cb54 7a3e 3de2 ff3b 959c 483b 525c 023e
00000050: 2c3a af3e eee1 773e e973 533e 4809 853d
00000060: 4a5c 863d c4d8 0c3e 65c5 ecbd de15 50be
00000070: 75f0 b63b 0a11 bc3c 47cf abbd 6a76 b33d
00000080: b55c a7bd 6819 1d3d 4125 ce3d 852b 98be
00000090: 08ad ca3d 2edf 683e 4068 0a3e 3a08 953c
000000a0: 16fd 32bd 6522 f83a 5e89 be3d fdb9 a6bd
000000b0: 6d48 8fbe dbc3 8b3b 665b 81bd 980f 233c
000000c0: b867 fcbc bee3 593e b15e 243d ff05 1c3d
000000d0: 9477 5c3d 4160 af3d cd7b 58be 46bf 0abe
000000e0: d3f9 b4bc 1df7 6c3e ac49 d53d aafe f83c
000000f0: fdd6 1e3e 51d3 403e ce78 58be 2db3 0e3d
00000100: 5e30 5e3d d0c1 443d 89c5 33bd 6da8 cabd
00000110: a4e8 dabc 7075 b8bd 0a25 ddbd 46b4 29be
00000120: 4d2c f43d 3664 f63d 6ea2 253c c729 ca3d
00000130: 4857 cebd c854 6bbc adb7 033e 42de 9cbd
00000140: 5f23 1bbe 6c4f 3bbd 8521 3cb9 8cad e13c
00000150: 1e6b 04be 5113 7b3e 45e7 b1bb 3747 c4bc
00000160: 9510 aa3c 4269 ff3d 3442 73be 1552 3d3e
00000170: 54ba 843d eb3c 00bd cce9 e9be 3ab7 40be
00000180: 0445 663e d7bb bdbd ba78 bfbc 66a0 58bd
00000190: 6c58 6c3e 4562 263d 29cb 11bc c12c 493e
000001a0: f9c9 543e a51a a1bd 1a5b 13be da82 a0bd
000001b0: 7105 3c3e f504 ca3d 1247 623d 1de1 2f3e
000001c0: 933e 2e3c 97e4 10be de3d 49bd 4e7d 9abd
000001d0: af36 013e d2a3 b83d 2a83 b23d e405 00bd
000001e0: a4d9 22be ae89 c5bd 4413 38b8 ba0a 093c
000001f0: e666 50be 1ea3 253d 54c9 0e3e b99f 493c
00000200: a479 043e 1eac 003d 5911 80bd 23b6 393d
00000210: c474 7bbd 4606 843d f26b 9c3c 59e5 f8bd
00000220: a741 143e 596a 083e 7278 e13d 3def f33d
00000230: c3d3 443e fb50 723d f506 ffba d220 7ebe
00000240: e825 bdbd 7d3d 3fbd 3be7 6abd 84d4 08be
00000250: ce09 103e 9785 34be 3324 c23d 0efc ea3d
00000260: d8f3 e93d af34 073e c090 1ebe 9204 1d3e
00000270: 00c3 9cbc 6155 46bd 8b80 3e3e 4aac 5abe
00000280: 30d6 d13d 3dd7 c9bb 7c45 33bd 2e41 79be
00000290: 390d 3fbe d7d3 0b3e 52f2 433e fb28 37be
000002a0: 849b 7a3d 2bc3 98bc c016 fe3c 9ee9 14be
000002b0: 6cef 063c 8807 06be 3197 a4bd f04e 173e
000002c0: d65d 56be f758 db3d 64cd 05be a323 1bbd
000002d0: 0e61 9d3d 9cfb 9c3d 1055 173e 9311 87bc
000002e0: 0449 13be 1b45 03be 0a6d afbd 27d2 3a3e
000002f0: 8d26 13be 9f74 da3d 0183 993d 7323 b53d
00000300: dc14 ee3d bb55 333e aa47 3b3e 4e23 4a3e
00000310: 201b 17be 7e04 723e f995 07be b4fe e03d
00000320: 2b60 e6bc d63f 733e f66d c9bd 1413 b53c
00000330: a635 f33c 4e0a 05be 9f46 d93d bb3a 87bd
00000340: 4757 16bb 7aa1 0cbe ea76 b8bd 6769 873e
00000350: 7f91 b4bd a1ad 66bd 22ac 833d 2ae8 dfbd
00000360: 7962 97bd 199d 33be 423a b1bc 625d f33c
00000370: 3500 033e 10ae 46ba cc60 a83d 5d31 293e
00000380: d7bf f23d 8446 6e3e acf0 883c 8b25 07bd
00000390: 681d f3bd 07b7 b83d b9f4 953d a6cc 71bc
000003a0: a316 363e c404 3dbe a09b eebd fbfa 083d
000003b0: 04f1 21bd 1260 4f3d a173 7a3e 0022 94bc
0.14316691 -0.20447893 -0.03659799 0.22287591 -0.14227444 -0.09783726 0.13345149 -0.056274895
0.21960355 -0.10696692 -0.13987379 0.09489282 0.22363698 -0.09132312 -0.005091779 0.22632164
0.24446408 0.007808952 0.0030610908 0.1273053 0.3422407 0.24207279 0.20649685 0.06495911
0.065605715 0.13754565 -0.115610875 -0.20320842 0.005582864 0.022957344 -0.083891444 0.0876282
-0.08171979 0.038354307 0.10065699 -0.29720703 0.09896284 0.22741386 0.1351633 0.0181924
-0.043698393 0.0018931149 0.093035445 -0.08140943 -0.27984944 0.004265291 -0.06316261 0.009952448
-0.030811176 0.21278283 0.040129367 0.038091656 0.053824976 0.08563281 -0.21140976 -0.13549528
-0.022091782 0.23141141 0.104144424 0.03039487 0.15511699 0.18830611 -0.21139833 0.034838844
0.054245345 0.048036397 -0.043889556 -0.09895406 -0.02672226 -0.090067744 -0.1079808 -0.16572675
0.11922512 0.120308325 0.010109527 0.0987125 -0.10075241 -0.014363475 0.12863036 -0.0765958
-0.15150212 -0.04573004 -0.00017941564 0.027548574 -0.12931487 0.24519087 -0.005429181 -0.02395974
0.02075986 0.12471248 -0.23755723 0.18488343 0.06480852 -0.031308096 -0.45686185 -0.18819895
0.22487265 -0.09264343 -0.023372997 -0.052887343 0.23080605 0.04062106 -0.008898535 0.19645979
0.20780171 -0.0786641 -0.14390221 -0.07837458 0.1836145 0.09864227 0.05524356 0.17175718
0.010635036 -0.141497 -0.049131267 -0.07543431 0.12618516 0.09015621 0.08716424 -0.031255618
-0.15903336 -0.09645401 -4.388696e-05 0.008364374 -0.20351753 0.040438764 0.13943988 0.012306147
0.12937027 0.031414144 -0.06253309 0.045339715 -0.061390653 0.06446509 0.019094441 -0.121531196
0.1447817 0.13321818 0.11009301 0.119108655 0.19221406 0.05915926 -0.0019457029 -0.24817207
-0.09235746 -0.0466895 -0.057349425 -0.13362318 0.1406624 -0.17629085 0.09479561 0.11473857
0.11423463 0.13203691 -0.15484905 0.15333775 -0.019135952 -0.048421267 0.18603723 -0.21354786
0.10245931 -0.0061596916 -0.043767437 -0.2434127 -0.18657388 0.13655029 0.19135407 -0.17886727
0.061183468 -0.01864775 0.031016707 -0.14542243 0.008235794 -0.1308881 -0.0803665 0.14776206
-0.20934233 0.10710328 -0.13066632 -0.037875783 0.07684527 0.07665178 0.14778543 -0.016487872
-0.14383322 -0.1281933 -0.085657194 0.1824423 -0.14370175 0.10666775 0.0749569 0.08844652
0.11625072 0.17513172 0.18289056 0.1974003 -0.14756441 0.23634526 -0.13240804 0.10986081
-0.028122028 0.2375482 -0.098354265 0.022103824 0.029688668 -0.12992212 0.10609173 -0.06602999
-0.0022940205 -0.13733473 -0.09007056 0.26447603 -0.08816814 -0.05631793 0.06429316 -0.10932954
-0.07391829 -0.17540397 -0.021634225 0.029707614 0.12793048 -0.0007579038 0.082215875 0.16522737
0.11852997 0.23269087 0.016716324 -0.03299479 -0.11870843 0.09019285 0.07322068 -0.014758265
0.17782073 -0.18458849 -0.11650777 0.03344248 -0.03953649 0.05062873 0.24458171 -0.018082619

19.bias f4 [10]
00000000: 1357 5f3e 6e18 91bd 3c32 85be a5d0 21be
00000010: 7bb2 a2bb 10c8 0f3c ff34 743c a1c3 eabd
00000020: c866 213e 4c10 11b9
0.2181056 -0.07084738 -0.26014888 -0.15802248 -0.004965124 0.008775726 0.014905213 -0.114630945
0.15761864 -0.00013834349
